deployment_models/model_(192, 192, 192, 192)_bs_64_mse_0.00737_mae_0.01264.pth (torch, 455175 bytes, 10 tensors)

layers.0.weight f4 [192, 3]
000000 ce 35 bd be 8e 82 9b be 64 68 f1 be b9 44 ce 3e
       -0.36955112 -0.30373043 -0.47149956 0.40286806
000010 08 66 2c bf 84 11 96 be b4 85 d3 bd 1b f8 c3 3e
       -0.6734319 -0.29310238 -0.10328236 0.38275227
000020 f3 db eb be c5 0c d1 be 2f 6a 08 3b 6b 53 66 bd
       -0.46066245 -0.40830055 0.0020815243 -0.056231897
000030 ee 4d 07 3f e2 b4 5a 3e d1 84 ea 3e ba 69 41 be
       0.52853286 0.21358064 0.45804456 -0.18887988
000040 c0 23 54 be 52 de 96 bc 53 df ff be 75 9a 03 bf
       -0.20716763 -0.018416557 -0.4997507 -0.5140756
000050 88 db 7e 3e 5d 1a c0 3c 20 4e 36 bf f5 7a 39 3e
       0.24888432 0.023450071 -0.7121296 0.1811331
000060 8b e8 27 bc fe 63 af 3e 0a 13 a4 3e ea 9c eb 3e
       -0.010248314 0.34255975 0.32045776 0.46018153
000070 77 c6 06 bd 59 f5 e0 be 62 93 d2 3e cc cf 9e 3e
       -0.032904115 -0.43937185 0.4112807 0.3101791
000080 cb c5 f4 3e 27 8a 54 be 6d 07 a9 be 57 9f 0d be
       0.47807154 -0.20755826 -0.33013478 -0.13830315
000090 e6 b9 02 3f 0e f8 05 3d 80 78 dd be 6a 86 12 3e
       0.5106491 0.032707267 -0.43255997 0.14309087
0000a0 8c 5b 1e 3e f5 75 98 3e 73 a2 c0 be f6 25 a4 bd
       0.1546461 0.29777494 -0.3762394 -0.08015053
0000b0 93 20 83 be 46 3a 72 3e c5 32 18 bf b1 a3 27 3e
       -0.2561079 0.23655042 -0.5945247 0.16371037
0000c0 2d a0 82 be 28 4c a7 bd c7 0d 9d bd e0 93 dc 3e
       -0.2551283 -0.081688225 -0.076686434 0.4308157
0000d0 d3 97 b6 3e 4b 2e 06 bf de 90 33 bd 57 05 35 3f
       0.35662708 -0.5241439 -0.043839328 0.7071127
0000e0 04 af bf bd 96 58 23 bf ff 78 c5 bd ee a5 f0 3e
       -0.093595535 -0.63807046 -0.09642219 0.47001594
0000f0 0c c2 21 bf e3 c9 55 bc ed 1d ce 3e 14 ff fc be
       -0.6318672 -0.013048622 0.40257207 -0.4941336
000100 18 b6 b5 bd ef 85 50 3e 93 91 07 3f e5 e6 c3 3e
       -0.08872622 0.20363592 0.52956504 0.38262096
000110 b0 c2 d5 3e 0a c4 39 3e da fd 58 be 64 b9 aa 3e
       0.41750097 0.18141189 -0.21190587 0.33344567
000120 81 6c 9e be 28 46 78 3e 5a b2 bf bd 52 00 df bd
       -0.30942157 0.24245512 -0.0936019 -0.10888733
000130 78 a4 1d bf af ac 43 3d a4 e4 b7 be 4f 31 13 3b
       -0.61579084 0.047772106 -0.35916626 0.002245981
000140 60 9d 97 bd 87 ce a3 3e 5b 63 22 3f e6 db 86 3e
       -0.07403064 0.31993505 0.63432854 0.26339644
000150 78 ab 8f 3e c6 ec 2a 3e d7 a5 9e 3e 26 dd 15 3e
       0.28060508 0.16691884 0.309859 0.14635143
000160 12 b1 4f be 8b be ca 3e f9 07 84 bd 70 33 f9 be
       -0.2028239 0.39598498 -0.06446833 -0.48672056
000170 df 8c cb bd 3e b8 a3 3d 59 39 8f 3e 5d 3e 42 be
       -0.099389784 0.07994126 0.2797344 -0.18969102
000180 32 3a cf 3e 92 0e f4 be 83 55 64 bc 90 5e 12 3d
       0.40474087 -0.47667366 -0.013936403 0.035734713
000190 f9 08 15 be 8d 4a 34 3d 59 ce 6c 3a 91 9c fb 3b
       -0.14554204 0.04401641 0.0009033434 0.0076785763
0001a0 4e a4 57 bd 7e 8e 0a be 16 c7 e7 3e 2b d4 55 be
       -0.052646928 -0.13530919 0.45269078 -0.20881717
0001b0 5e 87 9c 3e ba ac b9 3e 56 7d f7 be 1d c3 15 bf
       0.30572027 0.36264592 -0.4833781 -0.58500844
0001c0 6e 4e b9 be 72 f6 81 3e 6f 9d 95 3e bd 3b 5e 3d
       -0.3619265 0.25383335 0.29221675 0.05425619
0001d0 ce c0 d2 be bc 27 79 be 6d ee 3e 3d 8e f4 dd 3e
       -0.41162723 -0.24331564 0.0466141 0.43350643
0001e0 69 79 2a bd af 5a 26 bf 56 c9 37 be e8 d0 09 bb
       -0.041619692 -0.6498212 -0.17947897 -0.002102906
0001f0 95 c2 26 3e 7c a2 18 be c8 5f ce 3d cd 2b 85 3e
       0.16285165 -0.14905733 0.100768626 0.2600998
000200 bc c6 2a 3c 18 1e 09 3e b3 87 0f bf 5f 10 bc 3e
       0.0104233585 0.13390386 -0.56066436 0.3673124
000210 ea 30 8d bd 8b 71 b9 be 90 01 cf be 49 96 13 3e
       -0.06894095 -0.3621944 -0.4043088 0.14412798
000220 a4 5e aa be bd 88 d4 3e da f1 2d bd be 96 7f be
       -0.3327533 0.41510573 -0.042466976 -0.24959847
000230 07 b1 c6 be 4d d5 a5 3d 21 ed e2 3e 59 e0 e7 3e
       -0.38806936 0.080973245 0.4432154 0.4528835
000240 59 9d c5 3e c6 1b d4 be 85 5d 4b 3e 7f 08 e8 be
       0.3859661 -0.4142744 0.19859894 -0.45318982
000250 9d 43 67 3d 87 4e 02 bf 50 28 ad 3e 2f 13 99 3e
       0.056460965 -0.50901073 0.33819818 0.29897448
000260 63 70 4c be f2 7b 11 3f d1 97 0a 3d 92 e7 d4 3e
       -0.19964747 0.5682975 0.03383619 0.41582924
000270 bd b7 a7 3e c5 ff 9d 3e 02 a6 72 3b 24 ff 51 bd
       0.3275737 0.308592 0.0037025218 -0.05126871
000280 85 af c6 3e b2 e0 ec be 9f 4b a4 3d 74 a6 d1 be
       0.38805786 -0.4626518 0.08022236 -0.40947306
000290 5b 39 80 be 6f e7 39 be e1 5d 51 bd a4 24 62 bc
       -0.2504376 -0.18154691 -0.05111492 -0.013802681
0002a0 16 14 cd 3e 5b 87 c3 3d 4f 94 0b 3d de 1d 28 be
       0.40054387 0.095473014 0.034076985 -0.16417643
0002b0 e1 39 3a 3e 11 a8 12 bf 36 fc 5e 3d 48 f3 00 3f
       0.18186142 -0.572877 0.054439746 0.5037122
0002c0 80 d3 80 be dc d2 8b be 09 87 28 bf 27 b7 27 be
       -0.25161362 -0.2730931 -0.6583105 -0.16378461
0002d0 b9 4a 92 be 91 28 af 3e 7e c3 aa 3d 34 3b d6 3d
       -0.28572634 0.34210637 0.083380684 0.10460511
0002e0 5c 79 06 3e ff 20 08 be a9 9f d4 3e 1d e3 5c 3e
       0.13132232 -0.13293837 0.4152806 0.21571012
0002f0 df d0 05 be a8 d0 17 be 3a 51 81 3d a5 4b c3 3b
       -0.13067959 -0.1482569 0.06314321 0.0059599453
000300 02 77 d0 bd 4c 9a f8 3e d9 2d ec 3e 2f bf 59 be
       -0.10178949 0.4855522 0.4612873 -0.21264337
000310 e2 96 58 be 59 ca 14 3e 3d 6a 9a be 5b 09 9f 3d
       -0.21151307 0.14530315 -0.30159178 0.07765456
000320 4d 85 d8 3d ed b1 d0 be 3e 08 0d bd cd 1b a2 3e
       0.105723 -0.40760747 -0.03443169 0.31661835
000330 bc cd b0 be 8a 38 0a 3f 89 9a 93 3e 41 68 a1 be
       -0.34531963 0.5399252 0.28828838 -0.31524852
000340 85 cd b4 3e 23 c5 c3 3e b5 e0 83 3e 6a 09 29 3e
       0.3531305 0.3823634 0.25757375 0.16507497
000350 c2 9b b5 3e 9f 68 94 3e 79 86 93 3e ca 77 af 3e
       0.35470396 0.2898607 0.28813532 0.3427108
000360 8d c4 fa 3e ae e4 19 3f 47 f0 b1 3d 22 e0 0f 3e
       0.4897808 0.6011456 0.086884074 0.14050344
000370 7f 49 b6 3e db 28 8f be fd bd 84 be f9 1a ea 3e
       0.35602948 -0.27960858 -0.259262 0.45723704
000380 19 f4 32 be d8 48 04 bf 58 6f bd 3e 78 eb d2 be
       -0.17475928 -0.5167365 0.3699901 -0.41195273
000390 98 d8 0d 3f f0 f6 21 be 85 0e fd be 39 1f 0f bf
       0.5540862 -0.15816855 -0.4942514 -0.55907017
0003a0 94 fe cd bd 22 73 a5 3e 17 da 11 3e 97 0c 52 3e
       -0.100583225 0.32314402 0.14243351 0.20512615
0003b0 a5 1f e5 3e ac c5 d8 3e 65 6d 1d 3f 6f 76 f4 3d
       0.44750705 0.42338312 0.6149505 0.11936652
0003c0 fa 26 d1 be c5 80 f6 be a0 0b ad be 92 da f8 bc
       -0.4085005 -0.48145118 -0.33797932 -0.03037766
0003d0 fd d5 8a 3d 79 92 72 be 51 9c 85 3e 8e 38 f2 3d
       0.06779096 -0.23688687 0.26095822 0.11827193
0003e0 ad b9 df 3e 34 61 e3 3e c7 05 be 3e d8 5c dd 3e
       0.43696347 0.44410098 0.37113783 0.43234897
0003f0 7c 26 f0 bd c0 de a0 3d 67 62 64 3e 1f a0 49 3e
       -0.1172609 0.07854986 0.22303163 0.19689988

layers.0.bias f4 [192]
000000 9d f9 d4 be 43 02 27 bf 22 a8 09 3f 9f 0a 83 be
       -0.4159669 -0.65237826 0.53772175 -0.2559404
000010 11 ef 65 3e 2a a2 72 3e 8f e2 05 bf 85 17 07 bf
       0.22454478 0.23694673 -0.52298826 -0.5277026
000020 28 69 b1 be 31 c0 a4 bd dc a7 db 3e 9f 10 b4 3e
       -0.3465054 -0.0804447 0.42901504 0.3516893
000030 80 0e 05 3f 2b 2a c6 be 20 f3 d5 3d cf 32 0b 3f
       0.5197525 -0.38704047 0.10446763 0.543744
000040 7d 32 18 3f cd ae 59 bc a6 53 0b 3f 16 35 2f 3c
       0.5945204 -0.013286305 0.5442451 0.010693809
000050 c7 ea ad be 3a 89 c4 3d 5b 1a 0d 3f 0b 36 09 3f
       -0.33968183 0.095964864 0.5511834 0.5359809
000060 2e da bd be 87 b8 e4 3e 30 9c 19 be fa 15 aa 3e
       -0.3708052 0.44672033 -0.15000987 0.33219892
000070 0e 63 a8 3e dd e7 2a be 79 9e be bd 18 1e 71 3d
       0.32888073 -0.16690011 -0.0930757 0.05886659
000080 15 ad 0e 3c 2c 0c 93 3e 03 17 cd bd f0 55 18 3f
       0.008708258 0.28720224 -0.10014155 0.5950613
000090 04 5f ff be a5 51 7b be 42 90 86 be 52 ed af bc
       -0.4987718 -0.24542864 -0.26281935 -0.021475468
0000a0 5e c6 a9 be 95 b5 3e 3e 94 c8 8a be fa 02 f5 3d
       -0.33159155 0.18623956 -0.27106154 0.11963458
0000b0 bd 06 06 bd 77 e2 bc 3e e5 07 db 3e db 80 80 3c
       -0.03272127 0.3689153 0.4277946 0.015686443
0000c0 b9 f7 b9 3d 22 e0 b4 bd 08 dc f5 3c f4 3f 23 be
       0.090804525 -0.088318124 0.030012146 -0.15942365
0000d0 06 c2 ef be 69 a8 df 3e 43 7c 5a 3e 50 ea c8 be
       -0.46827716 0.43683174 0.21336465 -0.39241266
0000e0 05 b3 0a 3f b7 7c 9f 3e 0c 9f 23 bf cf 71 b8 3e
       0.5417941 0.31149837 -0.6391456 0.3602433
0000f0 58 14 95 be b7 07 ed 3e 49 d1 80 3e ac 98 d3 be
       -0.29117084 0.46294948 0.25159672 -0.41327417
000100 f1 57 81 be c3 05 01 be c0 ed b9 bd 0a 71 c7 be
       -0.25262406 -0.12599854 -0.0907855 -0.3895343
000110 a5 b6 10 3f 2c 9b 22 3d f4 42 8c 3e 1b ab 3f bd
       0.56528693 0.039698765 0.2739483 -0.04679404
000120 a3 f0 01 3f 45 e3 ed 3e 3e be 86 be 0a 09 db 3d
       0.5075781 0.46462455 -0.26317018 0.106950834
000130 92 37 80 be dc 5d 41 be 31 bd f4 3e e2 dd 67 be
       -0.25042397 -0.18883461 0.47800592 -0.22643235
000140 43 98 52 be d0 8c 0b 3f 70 db fa be 4e c4 20 3f
       -0.20565896 0.5451174 -0.48995543 0.6279954
000150 d3 13 f1 3e 58 3d 3d be ca bd 8e 3e 02 44 11 3f
       0.47085437 -0.18480432 0.27879173 0.56744397
000160 c2 49 a2 3e ab 3f c4 bc bd 47 0b be 29 e5 91 be
       0.31696898 -0.02395614 -0.13601585 -0.28495148
000170 02 46 c4 be fe 4a 0f bf d9 dd 8e be 98 97 61 be
       -0.38334662 -0.55973804 -0.2790363 -0.22030485
000180 11 11 07 bf aa d9 0c bf aa 15 23 be 5a 68 38 be
       -0.52760416 -0.5501963 -0.15926233 -0.18008557
000190 53 df a2 be 51 9f de be f6 ae 46 3e 14 64 7a be
       -0.31811008 -0.43480924 0.1940268 -0.2445224
0001a0 a0 f7 63 3e c6 c1 80 3e 18 6e 64 3e 3c ad dd 3e
       0.2226243 0.25147837 0.22307622 0.4329623
0001b0 0a 06 ec be fc 38 97 3e 01 f7 e2 be 7c e6 fd be
       -0.46098357 0.29535663 -0.44329074 -0.49589908
0001c0 f9 86 0c bd be 3b c7 3e 74 75 5c be e1 90 bf bc
       -0.034308407 0.38912767 -0.2152918 -0.023384513
0001d0 f6 9c 1c 3f 9f 9f f0 be ad aa 83 be 5f 96 c5 3e
       0.61177003 -0.4699678 -0.25716153 0.38591287
0001e0 c4 e3 20 bd ab 40 0e 3f ee 62 d7 bd 51 28 32 bd
       -0.039279714 0.55567425 -0.10516916 -0.04349548
0001f0 50 4d a0 3e 4f 27 58 be 01 b7 17 3f 1c 00 ed be
       0.31308985 -0.21108745 0.59263617 -0.46289146
000200 49 d0 34 bc 6d a2 2d bd 04 fd 9b 3e b1 b0 3d bd
       -0.011035987 -0.04239123 0.30466473 -0.046311084
000210 8f ca bf be d8 cf 6b 3e d6 28 82 3d 2d 81 da 3d
       -0.37459227 0.23028505 0.06355445 0.106691696
000220 ba 9b e4 3e 53 fb 8b be d6 e9 fe be 61 90 d9 3d
       0.4465006 -0.27340183 -0.49787778 0.10623241
000230 5a df 8a be ed f4 b7 3e b7 45 80 bd 34 6d 21 be
       -0.2712353 0.3592905 -0.06263297 -0.15764314
000240 b1 58 fe 3e d0 7d 8e 3d 78 d7 01 bf c1 b6 11 bf
       0.4967704 0.069575906 -0.50719404 -0.56919485
000250 11 e9 c1 3e c7 ff c7 be d3 d2 8c be 5b 94 50 be
       0.37873128 -0.3906233 -0.27504596 -0.20369093
000260 ad c7 b5 be e0 c7 e4 3e 38 19 0b 3f fa 4a 56 be
       -0.35503903 0.44683743 0.54335356 -0.20927039
000270 37 03 94 be fe e3 9d be e0 a6 99 3d 2f 2e 13 bf
       -0.28908703 -0.30838007 0.07502532 -0.57492346
000280 5f 3d e1 3d 3f 4e 34 be 39 b2 02 bf 54 b3 18 bf
       0.10998034 -0.17607974 -0.51053196 -0.59648633
000290 b1 14 3e 3e d3 27 cc be 2e 91 32 bf 10 dd bc be
       0.1856258 -0.39874133 -0.69752777 -0.36887407
0002a0 ca eb 99 3e f0 58 b7 3e a9 99 d7 3d 6b 8c b1 be
       0.30062705 0.3581004 0.10527355 -0.34677443
0002b0 87 54 fe 3d 61 34 83 3e f9 e3 c0 be 61 05 04 3f
       0.12418466 0.256259 -0.3767393 0.5157071
0002c0 2f 66 b4 39 7d 24 95 3c 9e 75 0d 3d 54 a3 f4 bd
       0.00034408408 0.018205876 0.034535997 -0.11945215
0002d0 85 56 f1 be 8b c6 a6 3d 87 9b 38 3e 78 2c ba bd
       -0.47136322 0.08143338 0.18028079 -0.09090513
0002e0 75 52 db be a9 0a 94 be 72 54 a4 3e aa 91 1a be
       -0.42836347 -0.28914383 0.32095677 -0.15094629
0002f0 9a 57 be be 01 3c 95 3e 32 a2 d7 3e 1c 74 9b be
       -0.3717621 0.29147342 0.42115933 -0.30362022

layers.1.weight f4 [192, 192]
000000 6e c0 d7 bc d7 d9 78 3b 16 45 04 bd 9c 99 fa bc
       -0.026336875 0.003797164 -0.032292448 -0.030590825
000010 b4 25 7d 3d 50 2c 30 bd 28 7d 49 bd 84 c5 ed bc
       0.061803535 -0.04301101 -0.049191624 -0.029024847
000020 3d dd 4f bd 1c e3 35 bd 7c a1 c9 bb 0d ab bf bb
       -0.0507481 -0.04440604 -0.0061532836 -0.0058492483
000030 4c 1e 9e 3c 33 c9 90 bd ae f1 5e 3d c6 48 49 bd
       0.019301556 -0.07069626 0.054429702 -0.049141668
000040 60 50 52 bd 4d 27 7e bd 04 1b 69 bd 98 bb 11 3d
       -0.051346183 -0.0620492 -0.05691053 0.035579294
000050 64 23 7b bd 5c c3 42 bd 03 48 be 3c 69 83 95 bd
       -0.061313048 -0.04754959 0.023227697 -0.07300455
000060 63 01 91 bd 7e 75 82 3c 75 8d 05 bc 4f 8e ec 3c
       -0.070803426 0.015925165 -0.008151402 0.028876452
000070 ea 2e 1c bb 40 8a cd 3c 19 7f d8 3c 94 57 c9 bc
       -0.0023831674 0.025090337 0.026427792 -0.024577893
000080 b4 9c 6d 3d 07 f5 ac 3c 9a 71 48 3d 41 ba 99 bb
       0.058010772 0.021112932 0.048936464 -0.0046913926
000090 09 53 12 3c f7 0e 7e bd b2 dc d0 bb ce 9c 9a 3c
       0.00893093 -0.06202599 -0.006373965 0.018873598
0000a0 64 ac e2 3c 82 10 e5 bc a9 9a 31 3d db 35 26 3d
       0.027670093 -0.027961973 0.043360386 0.040578704
0000b0 3b 9a 8d 3d 0a 37 6b bd f8 30 e6 bc 67 e5 e1 bc
       0.06914183 -0.057425536 -0.028099522 -0.027575208
0000c0 90 a5 bc bc 92 a5 47 3d b3 77 1f 3d da f2 34 bd
       -0.023028165 0.048741885 0.038932513 -0.044176914
0000d0 67 f9 e3 ba 16 8d 09 bd 4f 0d 29 bd bd 51 ee 3c
       -0.0017393053 -0.033581816 -0.041272458 0.02909171
0000e0 8c c7 25 bd 50 8b bc 3c e4 77 26 bd 22 b3 0a bd
       -0.040473506 0.023015648 -0.04064168 -0.03386224
0000f0 5c 3f 11 3d 3a 94 78 3c de 4c 1d 3d a3 6c 36 bd
       0.035460815 0.015172059 0.038403384 -0.044537198
000100 b2 05 eb 3c 2e 28 b0 bc 7b ca 83 bd 42 41 64 3c
       0.02868924 -0.021503534 -0.064351045 0.013931574
000110 47 9b 4e 3b dc e4 b3 bb 03 e7 8d bd af 1a fe bc
       0.0031525658 -0.0054899286 -0.069288276 -0.031018583
000120 52 d4 9f bc f8 8f 6f bd 0a 84 27 3d 4b 4a 25 bb
       -0.019510422 -0.05848691 0.040897407 -0.0025221284
000130 c5 3f f0 bc 84 63 1f bd e8 a9 1d bd 2d 8b 0a bd
       -0.029327283 -0.038913265 -0.038492113 -0.033824135
000140 fa fa da ba 07 9b 24 3c 2d a3 70 3d 5f db 37 3d
       -0.0016706877 0.010046727 0.058749367 0.044886943
000150 6e 2f 16 3d 4f 64 8f 3d 74 a1 c3 bc 5b 3f 42 3d
       0.036666326 0.07001554 -0.023880698 0.0474237
000160 ef 9a ed bc 76 50 7a bd 54 09 7e bd b1 fb 77 bd
       -0.029004542 -0.06111189 -0.062020615 -0.060542766
000170 9c 78 93 bd a1 95 80 bb ca af 4c 3d 33 db 0b 3c
       -0.07200739 -0.003924087 0.049972333 0.008536148
000180 59 eb 86 bd 78 1b c9 bb 89 d7 48 3d aa 3e b1 bc
       -0.06587858 -0.0061373077 0.049033675 -0.021636326
000190 0c cd 9e bc 18 a8 5b bd 68 f9 58 3d 06 19 39 3b
       -0.019384883 -0.053627104 0.052972227 0.0028243675
0001a0 3f ed 25 bd 41 d8 76 3d 14 39 40 3c f7 93 9b bc
       -0.04050946 0.06026483 0.0117323585 -0.018991454
0001b0 2a 11 b7 bb 9b c3 93 bc ca ee 27 3d 67 00 b7 bc
       -0.005586763 -0.018037608 0.04099921 -0.022339059
0001c0 6b 2d 6a 3c 1a b4 35 bd 95 f1 e1 3c a0 76 fc bc
       0.014293055 -0.04436121 0.027581016 -0.030818284
0001d0 2c fa 88 bd a6 80 b8 3b c4 32 69 bd f8 e4 a9 bc
       -0.066883415 0.0056305705 -0.05693318 -0.020739064
0001e0 69 a8 20 bd eb 2c ba 3c 16 8a 72 bd 12 74 20 bd
       -0.03922311 0.022726497 -0.05921372 -0.039173193
0001f0 e5 ec e5 3c b0 bf ba 3c b2 be 84 3d 02 00 97 bd
       0.028067062 0.022796482 0.06481685 -0.07373048
000200 7c 77 a4 3b b0 fd 12 3d fd b5 e3 bc d4 18 f7 3c
       0.0050191265 0.035886467 -0.02779674 0.030163206
000210 ef a4 fd 3b a6 1c b7 bb aa b4 fc bc a2 a9 ba 3b
       0.007740609 -0.005588132 -0.030847866 0.0056964913
000220 f4 73 93 bb 91 42 5a 3d 03 e2 38 bd 66 5f 43 bd
       -0.0044999067 0.05328614 -0.045137417 -0.0476984
000230 7c c1 ed bb ed bd 3e bb 78 4a ca bc 93 39 0c bd
       -0.007255731 -0.0029104904 -0.024693713 -0.034234595
000240 80 c3 06 bd 73 dc 4c 3d a2 0d 88 3d 04 97 33 bc
       -0.032901287 0.050014924 0.06643225 -0.010961298
000250 e4 c9 7b bd 96 9a 19 bd b7 66 e7 bb cc 20 21 bd
       -0.061471835 -0.03750094 -0.007061805 -0.03933792
000260 e0 c7 40 3d 80 2f 76 bd 01 f1 44 bd 19 79 16 bd
       0.047065616 -0.060103893 -0.0480814 -0.03673658
000270 f2 bc 6c bd 13 71 1d 3c 9f e7 df 3c 26 63 5b 3d
       -0.05779738 0.0096094785 0.027332125 0.053561352
000280 3a 87 ff bb 80 63 0e 3d cf 0b 68 3d 34 2a 34 3a
       -0.0077981027 0.03476286 0.056651887 0.0006872744
000290 cf 18 d4 bc 01 24 0a bd a2 51 8d 3d 89 23 92 3d
       -0.025890736 -0.033725742 0.06900336 0.07135684
0002a0 da 46 8f bd cc c0 2d bd 93 95 eb bb 1e e2 24 3d
       -0.06995936 -0.042420194 -0.0071894615 0.040254705
0002b0 56 0c 8c bd 72 f4 8a 3d ef ef bd 3b 87 5c f9 bc
       -0.068382904 0.067849055 0.0057964246 -0.030439628
0002c0 ca 3e 07 bc d4 a4 67 3d 01 4f 08 3d ab 61 31 3d
       -0.008254716 0.056553677 0.03327847 0.043306034
0002d0 4c 1a 64 3d f7 6b b5 bb 60 01 c1 bb 79 80 46 bc
       0.05568914 -0.005536552 -0.0058900565 -0.012115591
0002e0 de e8 51 3d 3e 39 0f bc dd 68 d1 3b 25 24 7c 3d
       0.05124747 -0.008741675 0.0063906745 0.061557908
0002f0 7f d0 4a 3d 20 b0 ab 3c 43 03 1f 3d 6e 3a 7f 3d
       0.049515244 0.020958006 0.03882147 0.062311582
000300 89 f1 16 3d 6b 03 d5 3c 8a 30 46 bd 56 02 33 be
       0.03685144 0.026002606 -0.048386134 -0.1748136
000310 04 6c d2 bc b1 2c 00 3d 0a 00 58 bd 29 b4 17 be
       -0.025686271 0.03129262 -0.052734412 -0.1481482
000320 63 5e 46 bd e8 e5 a0 bc 80 81 25 3d aa aa 77 bd
       -0.048429858 -0.019640878 0.040406704 -0.060465492
000330 4d 1d 43 3c 95 7a 81 bc 24 01 82 3c ca 35 89 bd
       0.011908841 -0.015805522 0.015869685 -0.066997126
000340 42 bc cb 3c d7 76 f6 3b a8 83 8c 3d ee ba 9e bd
       0.024870042 0.007521491 0.06861049 -0.07750498
000350 1f 52 d6 bc 57 66 39 3b 26 80 07 bc ea f6 05 3d
       -0.026162205 0.002828976 -0.008270299 0.03270618
000360 ac 36 b3 3d 87 cd 1c 3d 00 25 c5 bd 7b c0 75 bd
       0.08750662 0.038281944 -0.09626198 -0.059998017
000370 60 17 72 bd 00 ce 81 3b a4 b8 e0 3c c7 75 6f bc
       -0.059104323 0.0039613247 0.027431794 -0.014615483
000380 2c cf af bd 06 12 80 bd ed 77 d5 3c a1 0b 5c 3d
       -0.08584437 -0.06253438 0.026058162 0.053722028
000390 3f b3 05 3d a7 8b 9d bc 80 87 aa bd 3b ed 8f bd
       0.032641646 -0.01923163 -0.08326626 -0.0702767
0003a0 26 7f ca bd a3 8b d9 3c bd ee e9 3c 36 9d 56 3c
       -0.09887533 0.026555842 0.028556222 0.013099005
0003b0 db b3 91 bc fc 12 98 bd dc 64 d3 bc da 9b 98 bd
       -0.017785957 -0.07425496 -0.02580493 -0.07451601
0003c0 c7 95 7b bd cc bf e6 3c aa c5 d6 bc ff 99 eb 3c
       -0.061422136 0.028167628 -0.0262173 0.028759954
0003d0 47 a2 fa 3c c7 9b b5 3c 3b 53 73 3d 1f f8 ed 3b
       0.030594958 0.022169007 0.059405547 0.0072622444
0003e0 4d 67 8e 3c dc 90 b3 3a 16 d2 b9 3d 06 7b ac bd
       0.017383242 0.0013699788 0.09073274 -0.08421902
0003f0 72 91 37 bd b6 3d 5b 3d fa 30 6a 3b e8 f4 ca 39
       -0.04481644 0.05352565 0.0035734759 0.00038710912

layers.1.bias f4 [192]
000000 6d e0 8b bd b4 06 54 3d a9 08 11 3c 42 fe 9a 3d
       -0.06829915 0.051764205 0.008852162 0.07568027
000010 a8 80 16 bc fd 75 2a 3d 9d ae 04 bb a6 08 8a bc
       -0.0091859475 0.04161643 -0.002024568 -0.016849827
000020 7e 6e b7 bd ab 2a a1 3c cb 0c b4 bd c3 b4 80 3d
       -0.089566216 0.019673666 -0.087915026 0.062844776
000030 6f f6 a7 3c 8e 27 a2 3b 30 0d ba bd 25 64 8d 3d
       0.02050325 0.004948563 -0.090845466 0.06903867
000040 d0 3f 21 bd c5 b9 1a bc 85 a2 c5 bd e0 61 05 3d
       -0.039367497 -0.009443705 -0.09650139 0.032564044
000050 93 2f 0b 3d ea f5 91 bd b2 4d f5 3d 4e 58 9a bd
       0.033980917 -0.071269825 0.1197771 -0.07536374
000060 e5 81 33 bd 63 d2 3b bc c5 35 ea bc 26 28 ce 3c
       -0.04382505 -0.011463734 -0.028590092 0.025165629
000070 d5 ba 3b 3d 2d 2b de 3c 41 c7 3b 3d 2d 65 f3 3c
       0.045832474 0.027120197 0.04584432 0.02971133
000080 25 d8 ad 3c aa 4e b1 3d ff 42 a1 3c b9 64 49 3d
       0.02122123 0.08657582 0.019685267 0.049168322
000090 e4 13 17 bd 6c 6f 67 3d 4f c0 7f 3c 0b 10 a0 3c
       -0.036884204 0.056502745 0.015609815 0.0195389
0000a0 44 a5 47 bd fc 52 71 3d 56 90 15 3d fd d8 b7 3d
       -0.048741594 0.05891703 0.036514603 0.08976934
0000b0 a7 49 90 bd c4 70 06 3c ef 0b 9c 3c ad 05 b4 3c
       -0.07045298 0.008205596 0.01904866 0.021975363
0000c0 5d fd b8 3d 27 cb 23 bc 49 2c aa bc 64 44 7f 3a
       0.090327 -0.009997166 -0.02077307 0.0009737669
0000d0 f6 eb ab bc b1 6f ab bc 1d 5a 92 3c 53 89 99 bc
       -0.020986538 -0.020927282 0.017865235 -0.01874224
0000e0 07 91 d6 bc 8f f9 62 3d 0d 9a 3b bd 8f 45 1d bc
       -0.026192201 0.05541378 -0.04580121 -0.009599104
0000f0 69 bc 53 bd a4 eb 03 bd 61 65 35 b9 d5 3d 7e 3c
       -0.051693354 -0.032207146 -0.00017299272 0.015517672
000100 f0 ed c1 bd af 89 43 bd f9 00 a0 3d 77 47 63 3d
       -0.09469211 -0.047738727 0.078126855 0.055488076
000110 b2 85 22 3d 94 4c d8 bc 46 ac 95 bc 67 12 2e bd
       0.039678283 -0.026403703 -0.018270623 -0.04249802
000120 90 e2 a3 3c d9 9e 8a 3a b1 c6 53 bc cc f8 1e 3d
       0.020005494 0.0010575905 -0.01292579 0.03881149
000130 e4 88 a8 3d ad 64 4e 3d 94 52 26 3b 51 ca 3b 3d
       0.08229235 0.05038898 0.002537881 0.04584724
000140 29 81 3f 3d 0c 02 02 3d 6b 28 be 3c 8d 52 7a 3d
       0.046754036 0.031740233 0.023212632 0.061113883
000150 36 11 51 bc 5e 76 40 bd a6 22 05 bc 48 a4 51 3c
       -0.012760451 -0.046987884 -0.008125937 0.012795515
000160 8d b0 11 bd 24 c0 f2 3b 0f dc 20 bd 33 1c 86 bd
       -0.035568763 0.007408159 -0.039272364 -0.06548347
000170 2c 85 1f 3d 2a 37 99 bd 00 95 c5 bc ff 92 45 3d
       0.038945362 -0.07481225 -0.0241189 0.04823589
000180 6b 97 87 bc 0a f0 e0 3c d3 e1 14 bd f7 76 1f bd
       -0.016551694 0.02745821 -0.036348175 -0.038931813
000190 26 2b a6 bd 92 46 d0 bc 5e eb 27 bd 44 44 07 bd
       -0.08113699 -0.025424276 -0.040995948 -0.033024088
0001a0 0c 3e 91 3d ce a5 20 bd 23 f1 28 3d 16 9c 80 bd
       0.070919126 -0.039220624 0.04124559 -0.06279771
0001b0 29 74 8f 3d f6 be ca 3d ef 56 bb 3b 7c 44 91 bd
       0.07004578 0.09899704 0.0057171504 -0.070931405
0001c0 03 5c f4 3b f5 b4 f5 3d b5 42 71 bd 49 27 46 bd
       0.0074572577 0.119974054 -0.058901507 -0.04837731
0001d0 ab c4 63 3d ef 55 93 bd 80 f6 2c 3d 74 1f 07 3d
       0.05560748 -0.07194125 0.04222727 0.03298898
0001e0 84 8c d8 3d eb 77 08 3d 71 c4 0a bb 51 c1 fa 3c
       0.10573676 0.033317488 -0.0021174217 0.030609759
0001f0 bc d8 02 3c 7d bb 80 3c 2d 38 37 3d a8 85 15 bd
       0.007986244 0.015714401 0.044731308 -0.036504418
000200 0a 50 89 bd 2d 55 71 3d aa 64 a2 bc c8 db 9f bc
       -0.06704719 0.05891912 -0.019823391 -0.01951398
000210 3b cb de bb 0e bf 11 3d 0f 16 8a 3d dd 57 7f 3d
       -0.0067991293 0.035582595 0.067424886 0.062339652
000220 3b c4 45 bd 1e b3 6d bc 83 ca 9f bd ce 0e 81 bd
       -0.048282843 -0.014508037 -0.07802298 -0.06301652
000230 84 e9 d2 3d 47 05 8e bc 7d ca 58 3d 51 00 4e 3d
       0.10298446 -0.0173365 0.052927483 0.05029327
000240 85 a7 f4 bc bb f4 98 3d 63 96 0b 3c 55 0b 9b bc
       -0.029865036 0.07468554 0.008519742 -0.018926302
000250 49 81 31 3c a9 f7 77 bc 70 9a 0d bc f1 1b 84 3d
       0.010834047 -0.01513473 -0.008642778 0.06450642
000260 f2 46 9a bc 28 28 b4 bd c6 9d 59 3d cb bf 8d bc
       -0.018832657 -0.08796722 0.05312898 -0.017303368
000270 dc 54 5b 3d 76 30 ee bc 54 9e c7 3b 38 f9 ab 3d
       0.053547725 -0.029075842 0.006091872 0.08397144
000280 9f b6 fc bb 1f 2b 3a bb 78 19 0d bd 53 48 9c bd
       -0.0077122 -0.002840705 -0.034448117 -0.07630982
000290 ff 80 aa 3a da 62 33 bd 31 05 58 3c fa 2f 91 3c
       0.0013008415 -0.043795444 0.0131848315 0.017723072
0002a0 91 09 12 bd 07 d9 e1 3c ef 79 c0 bb 0e 56 8b bc
       -0.035653654 0.027569307 -0.0058739106 -0.017008808
0002b0 7f 45 29 bd 07 e3 d7 bc d6 e8 5c 3d f0 80 42 bc
       -0.041326042 -0.026353372 0.053932987 -0.011871561
0002c0 93 5b 8b bd 65 f8 de bc 40 3b 4a 3d a0 48 fe 3c
       -0.06804576 -0.027218053 0.04937291 0.03104049
0002d0 fd 0d 62 3c ad 7e a9 3d 8a 60 52 3d af 52 27 bd
       0.01379728 0.082761146 0.051361598 -0.040850338
0002e0 c6 f4 74 3d dd 07 c6 3b 39 d1 8a 3d a6 10 a1 bb
       0.059803747 0.006043418 0.06778187 -0.0049153147
0002f0 be 99 91 3d 72 e0 4e bd 33 02 8f 3b 1a 27 4d 3d
       0.07109402 -0.050507016 0.004364276 0.05008612

layers.2.weight f4 [192, 192]
000000 0f c5 8b bd be e9 25 bd 7a 9e 01 bd 6d cd 98 3d
       -0.06824695 -0.040506117 -0.031645276 0.07461057
000010 b7 f8 23 b8 27 95 f3 bc ec 10 80 ba b7 cc a8 bd
       -3.9093862e-05 -0.029734207 -0.0009770668 -0.08242171
000020 85 64 5f bc 04 ac d1 3d fc 53 f8 bc ba a0 0d 3d
       -0.013634806 0.102378875 -0.030313484 0.03457711
000030 eb 8d 8a 3d 4c 48 12 bc 7d 7e f8 3d c2 ab 60 3d
       0.0676535 -0.00892837 0.12133501 0.0548513
000040 6d 53 39 bd b1 ea d5 3d 04 a1 4f bc ca bf ed 3c
       -0.045245577 0.104451545 -0.012672666 0.029022116
000050 d0 d8 08 3e 21 a7 95 3d 3f 20 87 3d f3 7f fc bc
       0.13363957 0.07307268 0.06597947 -0.03082273
000060 50 15 0b bd ed 3c 90 3c bd df 92 bd ee 52 57 3d
       -0.033955872 0.017607177 -0.07171581 0.052569322
000070 f3 19 b9 3d e8 30 04 bc 5e db db 3d c9 bf 85 bc
       0.090381525 -0.008068301 0.107352 -0.016326802
000080 c2 b2 76 3b 6e c7 31 3d fe 77 5c 3c a9 d9 58 bd
       0.003764317 0.04340308 0.013456343 -0.052941952
000090 fe 68 0c 3d 88 9c aa bb c3 ab 0b 3d ae 2a a4 3d
       0.034279816 -0.0052066483 0.03409935 0.08015953
0000a0 6d 7b e3 3c b7 b6 9f 3d 2b 05 c8 bc 05 c2 f2 3b
       0.027768815 0.07798522 -0.024416527 0.007408383
0000b0 fa e7 8a 3c 59 d9 9c bc 10 5b 91 3d 41 55 a7 3b
       0.016956318 -0.019146608 0.07097447 0.0051065986
0000c0 6e 8f c9 bc f6 36 44 bb 9f f8 7e 3d fb 0c ed bc
       -0.024604525 -0.0029939986 0.062248822 -0.028936854
0000d0 a7 21 d6 bc e7 d2 ef 3c 50 26 b3 bc 46 c1 a8 3c
       -0.026139094 0.02927537 -0.021868855 0.020599972
0000e0 e8 0e 1d 3c 2b a9 e0 bc e2 d0 bf 3c 46 1c 85 bb
       0.009586073 -0.027424416 0.023415033 -0.0040622083
0000f0 6a ec d5 bc 41 5e 66 3d 73 5b c6 3d f0 a7 0a bd
       -0.026113708 0.05624223 0.09685411 -0.033851564
000100 0d c8 6c 3c 1d 2e e4 bd f1 2b 82 3d 23 13 e4 bc
       0.014451993 -0.11141608 0.063560374 -0.027841156
000110 9d 18 6e 3d 7b a0 29 bd 4f ce b7 3d e9 9d 73 bd
       0.05812894 -0.04141281 0.08974897 -0.059476767
000120 14 00 3f 3d fe 41 14 bc 16 11 8f bb 13 cc 50 3b
       0.046630934 -0.009048937 -0.0043660505 0.003185992
000130 03 be 9d 3d 2f 52 76 bd 36 c4 83 3d 57 7e 6b bc
       0.077022575 -0.06013697 0.06433909 -0.0143733835
000140 4c c0 17 3d 86 a5 45 3d 9c dd 97 bc 88 96 85 3c
       0.037048623 0.04825356 -0.018538289 0.01630713
000150 a2 13 cc 3d d7 5d c9 3c 38 ed 3e bd 7c 09 5d bc
       0.09964682 0.02458088 -0.04661295 -0.013491031
000160 bb 67 91 3d cb 4c a2 3d 96 e3 8d bb fa c3 4e 3d
       0.07099863 0.07924803 -0.004330109 0.050479867
000170 e8 88 52 3d fb 02 fd ba 4e 85 53 3d 8a e2 61 3c
       0.051400095 -0.0019303256 0.0516408 0.013786921
000180 8d 2f 25 bc 47 fb 88 3d f9 d3 ba bc cd 10 43 bd
       -0.010082138 0.06688552 -0.022806155 -0.047623444
000190 b9 37 19 3e 70 9e 38 bd 5c 6a 8a 3d 31 30 1a bd
       0.14962663 -0.045072973 0.06758568 -0.037643615
0001a0 f7 6f 92 3d 5f 10 8a bc 6b 25 22 bd ec 4c 93 bb
       0.07150262 -0.01685351 -0.039586466 -0.004495254
0001b0 51 e5 96 3d 10 93 6c 3d e0 71 22 bd 92 06 7c bc
       0.073679574 0.057757437 -0.03965938 -0.015382426
0001c0 00 c8 3a 3c a3 c7 5f 3d 00 87 62 bd e0 e1 c4 3c
       0.011400223 0.054633748 -0.055304527 0.024033487
0001d0 34 10 c0 3b 30 97 fe 3a 94 d7 ab 37 c9 df f1 3c
       0.0058613066 0.001942372 2.0485175e-05 0.029525654
0001e0 03 ba 8e 3d fd 8c c6 3c d5 b1 55 3d 91 a0 3b bd
       0.06969073 0.02423715 0.052171547 -0.045807425
0001f0 84 6a 86 bc 43 8b 60 bd f7 84 f9 bc 5b b4 89 bb
       -0.016408212 -0.05482031 -0.03045891 -0.0042024083
000200 94 7f f7 bc c9 68 ca bb ef 40 ff bc 06 ef 3b bd
       -0.030212201 -0.006177042 -0.031158892 -0.045882247
000210 4a 44 d6 3c 91 4d d6 bc 7f cd dc bc 6a 1f 91 bd
       0.02615561 -0.026160033 -0.026953457 -0.0708607
000220 5a 7a 71 3d 5d e9 a0 bc 16 07 aa 3d fb c2 37 bc
       0.058954574 -0.019642526 0.08302133 -0.011215921
000230 de cc 20 bd 81 a1 05 bd 2b 89 87 3d 4a 53 6c 3c
       -0.039257877 -0.032624725 0.066179596 0.014424155
000240 58 fb 40 3d 67 9f 7b 3d d1 65 5f 3d a4 3b 16 3c
       0.0471147 0.061431315 0.05454046 0.009169493
000250 e6 18 35 bd 50 d6 de bb c9 75 9c 3d e9 63 6a 3c
       -0.044213198 -0.0068004504 0.07639653 0.014306047
000260 71 c2 a7 bc 22 3f 05 be 2c a6 05 3e 66 b1 3e bc
       -0.02047846 -0.13012365 0.13051671 -0.011638975
000270 df 9b 90 bc 66 38 7f 3d 8f c9 27 bd 79 ff 3e bd
       -0.01765245 0.062309645 -0.040963706 -0.046630356
000280 da f1 0d bc 4a 6e 6c 3d df f5 30 bd 49 f1 bd bc
       -0.008663619 0.057722367 -0.04320323 -0.023186343
000290 43 6b 56 bd d0 f8 7b 39 05 9f bc 3c 23 a5 75 3d
       -0.052348386 0.00024029915 0.023025045 0.05997194
0002a0 7a 32 4f 3d d5 5a 91 3d e6 ee aa bb 43 fd e1 bc
       0.050585248 0.07097403 -0.005216467 -0.027586585
0002b0 d2 fb 7b bc 82 d1 96 3c 82 3b 98 bd ec b5 8c bc
       -0.015379863 0.018410448 -0.07433225 -0.01717659
0002c0 d0 b1 5d bd c8 18 eb bd a6 54 ba bb e4 bf eb 3c
       -0.054124653 -0.11479336 -0.0056863604 0.028778024
0002d0 4a bf 26 bd 78 65 db 3d ba 47 f4 bb 34 47 d2 bc
       -0.04070977 0.10712713 -0.0074548395 -0.025668718
0002e0 7a c7 c6 3c 3c 82 37 bc f5 64 f1 bc 8d f5 5a 3c
       0.02426504 -0.011200484 -0.029467085 0.013364208
0002f0 e9 d9 a3 3a 27 80 c2 bb 45 c0 06 bd c1 be 4e bd
       0.0012500855 -0.005935687 -0.032898206 -0.050474886
000300 4d 32 7a 3c c6 bc 51 bd 67 9d 82 bd ac 36 07 be
       0.015270782 -0.05120542 -0.06377678 -0.1320445
000310 99 84 3e bd cd 88 53 bc aa 57 7f 3d 39 51 82 bc
       -0.046513174 -0.012911034 0.062339462 -0.01590787
000320 91 ce 3c 3f 4e 1d 38 bd f6 2e 95 3d 62 94 28 3d
       0.73752695 -0.044949822 0.07284348 0.041157134
000330 4e f8 c1 bd c6 ff 8f 3d 3a a7 3d 40 fd ab 8a 3c
       -0.094711885 0.07031207 2.9633317 0.016927714
000340 cb f5 31 bd d8 fb 1e be f2 f7 29 3c 47 e5 0f be
       -0.043447297 -0.15525758 0.010374056 -0.14052306
000350 e1 31 15 bd 93 08 bd 3c f5 4f c6 3d ba 7d 67 bc
       -0.03642452 0.023075378 0.09683219 -0.014129097
000360 c0 57 f2 39 44 90 01 bc b4 ca c9 bb 87 fa c2 3c
       0.00046223216 -0.007907931 -0.0061581973 0.023801101
000370 10 b0 ba bd e2 27 90 bd 22 00 d5 bb 5e d8 eb bd
       -0.091156125 -0.07038857 -0.00650026 -0.11515878
000380 8b 91 6e 3d 15 38 0c bd 6c da a6 3c 2c a0 d3 bc
       0.05824427 -0.03423317 0.020367824 -0.025833212
000390 9b 63 6b 3d 87 64 c4 ba 9c 63 ca 3c 46 13 10 bd
       0.057468038 -0.0014983573 0.0247057 -0.03517463
0003a0 cf cd 0e 3d d0 94 a9 bd aa 87 05 3d da 52 b8 bc
       0.034864243 -0.08280337 0.032600082 -0.022500444
0003b0 47 9c 89 3b e6 f3 69 3c d2 02 0c bd 10 0f 80 3b
       0.004199538 0.014279341 -0.034182377 0.0039080456
0003c0 4a 85 da bd 6e 1b 90 3c 13 21 55 3d f6 08 a0 3d
       -0.10669954 0.017591204 0.052033495 0.07814209
0003d0 b0 51 a2 bb b8 64 92 bd 31 ad 69 bd 24 25 25 3d
       -0.0049535856 -0.07148117 -0.057049934 0.040318623
0003e0 49 5b 77 bc 6b ef 9e 3b 32 e8 2e 3c be 84 80 bc
       -0.015097448 0.004850318 0.010675477 -0.015688296
0003f0 53 17 93 bc bf 7a ee 3c 23 24 4f 3d 2a b3 03 3e
       -0.017955458 0.029111264 0.050571572 0.12861314

layers.2.bias f4 [192]
000000 62 3f ae 3d 45 58 60 bc 57 d4 c1 3c 35 6e 52 bd
       0.08508183 -0.01369292 0.023660822 -0.051374633
000010 ee 61 4c bd 84 c2 9f bb 0a c2 8a bd 37 3b 17 3e
       -0.04989808 -0.004875483 -0.06775291 0.14768682
000020 cf 12 75 3d 94 53 d5 bc e1 6f 93 bc c9 d8 57 bd
       0.05983239 -0.02604083 -0.017997684 -0.052696977
000030 a6 0b 81 bc 0e 98 9e 3d dd 36 35 bd f5 aa ac bc
       -0.015752625 0.07743846 -0.044241775 -0.021077612
000040 06 58 32 3c 75 14 83 3d 9a 2e 04 3d 00 83 fd 3d
       0.010885244 0.06400386 0.032271005 0.12378502
000050 47 03 87 bd 75 ce bc 3c fb 95 29 3e 97 24 ca 3d
       -0.06592422 0.023047665 0.1656112 0.0987026
000060 9c 68 7e bc c3 00 5b bb 8e 77 92 3d 90 ae 01 bd
       -0.0155278705 -0.0033417202 0.071517095 -0.031660616
000070 89 d7 aa bb 8e 3d ca 3d 3f 13 cb 3d aa 20 66 3d
       -0.005213682 0.09875022 0.0991578 0.056183495
000080 77 91 59 bb 46 fa 7d 3c db 28 12 bb e5 84 4b 3d
       -0.0033198276 0.015501564 -0.0022302184 0.049687285
000090 af 10 8d 3c 2d 3e 89 3d d3 6d e3 3c 0c 28 0d 3c
       0.01721987 0.06701312 0.02776233 0.008615505
0000a0 fc 17 97 3b da e5 3e 3d 93 06 54 3d 3a 9e 07 3e
       0.0046110135 0.046605922 0.051764082 0.13243952
0000b0 06 21 43 bd bc dd 8a bc 45 1a 04 bd 51 48 46 bd
       -0.047638915 -0.016951434 -0.032251615 -0.04840881
0000c0 f3 c0 bf 3d 23 32 57 3d e1 0e e1 3d 3a 73 08 3e
       0.09362974 0.05253805 0.10989166 0.13325205
0000d0 29 d1 c6 3d 72 13 04 3d ba 80 ca 3d 18 b7 ff bd
       0.09707863 0.032245107 0.09887834 -0.12486094
0000e0 b1 d6 25 bd d3 58 65 bd a5 96 87 3d 2d 31 aa 3c
       -0.04048795 -0.055992913 0.0662053 0.020775402
0000f0 8a c7 d0 3d c3 3f b3 3d e3 46 48 3d 67 9f d0 3d
       0.10194309 0.08752396 0.048895728 0.101866536
000100 39 48 e8 bb 40 9d 82 bd 03 83 96 bd 25 e6 bb 3d
       -0.0070886877 -0.06377649 -0.07349207 0.09174756
000110 32 ca d6 3c 14 d6 1f 3e 17 74 82 3c 67 ba 6d 3d
       0.026219461 0.15609008 0.015924497 0.058039095
000120 ba 58 04 3c 6d 9f 90 bd 3a b8 89 3d b5 62 46 bd
       0.008077795 -0.07061658 0.067245916 -0.048433978
000130 92 19 a3 3d 6c 2f 87 bc da 9e b5 bd d3 0c 75 3d
       0.079638615 -0.016502105 -0.08868189 0.059826683
000140 68 bf 54 bc 38 e0 d8 bd 2b 28 9d bd da b3 11 bd
       -0.012985088 -0.10589641 -0.07673677 -0.03557191
000150 00 15 5d bd c8 bd 30 3c 18 00 82 bd 2c 28 e8 3d
       -0.053975105 0.010787435 -0.06347674 0.11335787
000160 ec af 83 3c 28 e0 9c bc 85 03 43 bd ad 59 76 3d
       0.016075097 -0.019149855 -0.04761078 0.060144115
000170 eb a9 60 bc 72 a5 bf 3c 5e ad 20 3d 36 da d2 bc
       -0.013712387 0.02339432 0.039227836 -0.025738817
000180 23 13 b0 bc 0a d8 2f bd 2f 72 19 3e b7 89 37 bd
       -0.0214935 -0.04293064 0.14984964 -0.04480907
000190 e3 f3 c7 bd c8 8f a7 bd 80 c0 9f bc 66 d2 a6 3d
       -0.097633146 -0.08181721 -0.01950097 0.08145599
0001a0 76 8b 2d bd 3f fd e6 3c 9c 1b 50 3d 4b 02 c3 bc
       -0.04236933 0.028196929 0.05080758 -0.023804804
0001b0 cb d8 6e bc 37 ea 11 3c c6 3b 29 bc a2 ed 3b 3c
       -0.014578055 0.008905939 -0.0103291925 0.01147023
0001c0 5d e0 16 bd 49 87 5e bb 57 f4 7b 3d 7b d4 6c 3d
       -0.036835063 -0.0033955148 0.061512318 0.057819825
0001d0 30 76 13 bd fd da a0 bd 29 6d 04 3e 23 fb 2f bb
       -0.036001384 -0.07854269 0.12932266 -0.002685257
0001e0 a5 6d 2e bc e2 73 6e 3d 26 ac cb 3d 2f 78 80 3b
       -0.0106462585 0.058215983 0.09944944 0.003920577
0001f0 26 5f 0b 3d 51 17 bb bc c4 0a 23 bd cb fb 9c bd
       0.034026287 -0.022838267 -0.03980519 -0.07665213
000200 e4 82 b9 3d d1 cc 33 3d 8b bd 47 bc 22 95 4c ba
       0.090581685 0.0438965 -0.012191187 -0.0007804205
000210 8f 0d 52 3d 0f 16 c2 3d eb af cc 3b da 46 51 bc
       0.05128246 0.094768636 0.006246557 -0.01277324
000220 8c be 43 3d 8a 40 c6 bc 0b 36 47 3d 0d 78 a4 3c
       0.04778914 -0.024200696 0.048635524 0.020076776
000230 e3 ca cf 3c eb aa 8e 3c cc 8f 95 3d 5c 3d 6d bd
       0.025365299 0.017415484 0.07302818 -0.057919845
000240 6c 00 9f 3c f1 28 c9 3c c1 c7 b8 bc ed 89 55 3b
       0.01940938 0.024555655 -0.022556188 0.003258343
000250 bf 18 63 3d 52 6f 64 bd 93 4b cc 3d ad 85 80 bd
       0.05544352 -0.055770226 0.09975352 -0.06275497
000260 1e 13 a4 3d b6 21 d6 3d 42 2e 67 ba 55 67 12 3d
       0.08011459 0.104556486 -0.00088188436 0.035743076
000270 e0 09 be 3c 34 d9 71 bd cd 21 ca 3c 07 72 1a 39
       0.023198068 -0.05904503 0.02467432 0.00014729063
000280 7f 5c 15 bd c4 3b 62 3d fc 11 0e 3d ea b8 69 3d
       -0.036465164 0.05523278 0.03468512 0.057061113
000290 96 f9 d7 3c 88 26 af 3d e0 a4 e8 3c cb d9 9b 3c
       0.026364129 0.08552271 0.028398931 0.01902475
0002a0 cb 31 11 3c c2 bb 3e bd f9 1f 36 3d ad fc 0f 3e
       0.008861969 -0.04656578 0.044464085 0.14061232
0002b0 e5 69 da 3d a9 57 0a bd 34 b3 fb bc 51 c5 90 3d
       0.10664729 -0.033775005 -0.0307251 0.07068885
0002c0 10 0c f6 3c 13 8d dc ba 45 f6 3b bd 0f 2d 1b 3e
       0.030035049 -0.0016826711 -0.045889158 0.15153907
0002d0 f6 55 1f 3e 45 7c 24 3c ab 1c dc bb 5d 88 61 bd
       0.15560135 0.010039394 -0.0067172847 -0.055061687
0002e0 90 2c 2c 3d dd fc ba 3d 34 81 41 bd 43 9c 76 3d
       0.042034686 0.09130261 -0.04724236 0.060207617
0002f0 43 15 42 bd 51 ff af 3d 5b a7 8b 3d 84 7c 3a 3d
       -0.047383558 0.085936196 0.0681903 0.045528904

layers.3.weight f4 [192, 192]
000000 9a 8e 94 3c 37 b6 2d 3c f0 aa 5e bb 1c 16 19 bd
       0.018134404 0.010602525 -0.0033976398 -0.0373746
000010 6a 7a ec 3c b1 65 80 3d e9 a1 8a ba 4d 04 4d 3d
       0.028866965 0.06269396 -0.0010576817 0.05005293
000020 2f f8 64 bd 78 8f 90 3c 92 4f 87 3b 64 64 67 3d
       -0.05590075 0.017646536 0.0041293586 0.056492224
000030 81 be 11 3d 76 e5 91 3c 4e e5 01 3c 11 2a 46 3d
       0.03558207 0.01780961 0.007928206 0.04837996
000040 e8 60 82 bd f5 d9 1f bd 44 c1 6a 3d fb db a1 3d
       -0.0636614 -0.03902622 0.05731322 0.07903286
000050 63 3a 73 bd a6 d0 87 bd 0f be df 3d 39 2a eb 3c
       -0.059381854 -0.066315934 0.10924923 0.028706657
000060 a3 60 cc 3c 73 b7 83 bb d3 f2 ff 3d 46 d7 4d bc
       0.024948424 -0.0040196716 0.12497487 -0.012563532
000070 16 ea f8 bc 6a 8e 28 3d a7 dd 61 3d 2f 68 8b bd
       -0.030385058 0.04115144 0.055143025 -0.06806981
000080 30 a5 a1 bd db 33 2e bf c9 58 84 3d 57 65 de bc
       -0.07892835 -0.68047875 0.06462247 -0.027147932
000090 8c 42 43 bd e8 36 d9 3d 34 2f e6 bc ae cd 23 3d
       -0.047670886 0.10606176 -0.02809868 0.039991073
0000a0 23 4e 64 3d d2 60 45 3d 3b dd 07 bd 0d e4 da 3d
       0.05573858 0.04818804 -0.033169966 0.106880285
0000b0 72 9e 84 bd d6 9e c5 bb 7c 66 00 3d 32 22 74 3d
       -0.064755335 -0.0060308976 0.031347737 0.059602924
0000c0 a9 8f 41 3d 17 58 ba 3b c0 31 72 3d 6a 6b bb 3c
       0.047256146 0.0056867707 0.059129477 0.022878367
0000d0 9a 03 9c bc 40 1d c3 bb 20 3b c2 bc 2f 4b 35 3c
       -0.019044686 -0.0059544146 -0.023709834 0.011065288
0000e0 55 b5 0b be 4a 6f e7 bc 51 81 77 3c 0a df 1b 3d
       -0.13643391 -0.028251309 0.015106515 0.038054504
0000f0 13 80 78 3d a7 cb b8 3c 50 1f 95 3c 04 9f d6 3d
       0.060669016 0.022558047 0.018203408 0.104795486
000100 b9 ba de bc 2f 10 3f bd 8c 6d 36 3d 22 a0 85 3d
       -0.027188646 -0.046646293 0.044538066 0.065246835
000110 26 54 cd bb f0 8b 84 3d 12 84 3b ba c2 fa 30 3c
       -0.006266135 0.064720035 -0.0007153164 0.010801973
000120 ed 64 e9 3c 34 6f f1 3c e6 73 3e 3d f0 60 83 3d
       0.028490508 0.029471971 0.046497248 0.06414974
000130 d7 70 76 bd c6 40 ce 3c 5c 6b aa be b6 11 89 bc
       -0.060166206 0.02517737 -0.33285034 -0.016732078
000140 24 95 83 bd 08 4a 32 bc 14 0f e3 bd 5a ca 72 bd
       -0.06424931 -0.010881908 -0.1108686 -0.05927501
000150 9a 44 5e bb 21 28 3f bd 8e a0 7e bd 2a 13 bd bb
       -0.0033915401 -0.04666913 -0.062164836 -0.005770107
000160 fc e0 02 3b 0f 3d 3c bd 7b 12 7b 3d 69 7d 71 bc
       0.0019970527 -0.045956668 0.06129692 -0.014739373
000170 dc e5 b4 3c a1 c4 82 3a a5 38 6e bd 08 75 05 bd
       0.022082262 0.0009976813 -0.05815949 -0.032582313
000180 cb 3d 95 3c 94 a8 8f bc 14 4a 82 3d 31 5d be bc
       0.018217942 -0.017536439 0.063617855 -0.023237797
000190 2a e2 94 3d 11 6f 11 3d bb 87 19 3c 17 eb b6 3d
       0.072697 0.03550631 0.00937074 0.089315586
0001a0 e4 a0 14 3d b3 aa 0f 3d 45 d4 0d bc 1c 9e b5 bc
       0.03628625 0.0350749 -0.008656566 -0.022170119
0001b0 b2 98 ad bc c5 9c 41 3d eb 56 38 3d 87 dd cc 3c
       -0.021190975 0.047268648 0.045004766 0.025007976
0001c0 ab 9c 0b 3d 2e 77 a2 bd 9f 18 5e bd 4e c7 0b 3d
       0.034084957 -0.07932888 -0.0542227 0.03412562
0001d0 1b 08 21 bf 3b 5f 82 3d 16 e7 2a 3d e2 6c 26 bc
       -0.6290299 0.0636582 0.041724287 -0.010157796
0001e0 2d 7b 38 bd 86 4e 23 3c 36 df 05 3d de 06 ab bc
       -0.045039345 0.009967452 0.032683574 -0.020877298
0001f0 c7 9a 10 bd e9 7f 8d 3d a9 b3 1e bd 08 9d b3 3d
       -0.035303857 0.069091626 -0.038745556 0.08770186
000200 83 72 c2 3d f8 cd 84 bd 8a 84 3c bc 59 e0 41 3c
       0.094944976 -0.06484598 -0.011506209 0.011833274
000210 9e 2b 16 bd 1e 6a 44 bd eb 87 8a be e9 96 a1 3c
       -0.03666269 -0.047952764 -0.27056822 0.01972528
000220 62 6a 88 ba 3c 29 69 3b 67 33 7e bd 52 e1 42 ba
       -0.0010407681 0.0035577556 -0.06206074 -0.0007434088
000230 10 a1 95 3d 7a 68 8b 3c 0d a7 43 3d 9c 9e 75 bc
       0.07306111 0.017017592 0.047766734 -0.014991429
000240 0c 30 71 bc cc 1b 94 3d 9e eb 83 bd 33 10 06 bc
       -0.014720928 0.07231864 -0.06441425 -0.008182573
000250 7a ff 75 bd ad 92 1d 3d 28 b4 87 3d fa 5e 5f bd
       -0.060058095 0.03846996 0.06626159 -0.054533936
000260 3e c5 b5 3c c4 38 0d 3c ab 3a 45 bc 24 c5 5b bd
       0.022188779 0.008619491 -0.012037913 -0.053654805
000270 de 07 5f 3d 52 97 3c 3d 29 90 b2 bc 53 ed 2d 3d
       0.054450862 0.046042748 -0.021797257 0.042462658
000280 c4 0a 16 3d ad 61 60 3d a8 57 82 3d 1e 84 7b 3d
       0.03663136 0.05478065 0.06364375 0.061405294
000290 5a 6c de bc 63 d7 23 3c 30 88 77 bb 95 44 fd bc
       -0.027151275 0.010000083 -0.0037770383 -0.030916492
0002a0 c4 96 a3 bb 7c 5e 30 3d 9c 26 c3 bc a9 7d 21 3d
       -0.004992338 0.043058857 -0.023822121 0.03942648
0002b0 d4 11 87 3d 2e f1 e2 bc 0c db 43 3d 8c bc a0 bc
       0.06595197 -0.027702894 0.04781632 -0.019621156
0002c0 a0 b5 db bc 2c 56 5c bd bb ea 91 3d 83 eb f1 3b
       -0.026820004 -0.053793117 0.071248494 0.0073828115
0002d0 92 9c e9 3d e7 ac 69 3d b4 cf 9f 3d 5f 2f ce 3c
       0.114068165 0.05704966 0.07803288 0.025169073
0002e0 c5 cb 95 3c 25 39 9b 3d 0c 25 f7 bb c2 c9 5f bc
       0.018285641 0.07579259 -0.007542258 -0.013658943
0002f0 5b 33 7b bd 5c 93 96 bd 28 51 26 bd 0d 0b 7d 3d
       -0.061328273 -0.07352325 -0.04060474 0.061778117
000300 e5 9e 05 3d bf ef 8f 3d 38 ca dc bb ac 69 57 3d
       0.032622237 0.0702815 -0.0067379735 0.05259101
000310 7b 4e be 3c da 42 3e 3d 4c 8b 28 bd 15 0e 37 3d
       0.023230782 0.046450473 -0.04114847 0.044691164
000320 56 0c 2f 3d 8c 6f a5 3d 8b 3d 9e 3c a2 db 29 3d
       0.042736374 0.080779165 0.019316455 0.041469224
000330 36 2a 24 3d 29 b2 00 3d 46 c8 8a be c8 f2 08 bc
       0.040079318 0.031419907 -0.27105922 -0.008358665
000340 c1 72 5a bd ee ca 56 3c ee 40 f1 bc dd 61 bc bd
       -0.053332094 0.013109906 -0.029449906 -0.091983534
000350 75 a8 73 3d e8 32 af bc b5 1c 99 3c fe 34 58 bd
       0.059486825 -0.021386579 0.018690446 -0.052784912
000360 e8 68 24 bd 4c df 09 3d cc 30 b5 3a a5 de 27 3d
       -0.04013911 0.033660218 0.0013823747 0.040983815
000370 df fc 04 3d 89 6c d2 3d 98 37 3a 3c e9 a0 6b 3d
       0.03246772 0.10274608 0.011365794 0.057526503
000380 24 a0 51 3d 63 bd b6 3f 80 98 28 bc a6 9d 42 3d
       0.051178113 1.4276546 -0.010290265 0.047513627
000390 6e 60 8e bb ed 42 f7 3a 22 6d 5d bd 9e 40 84 3d
       -0.0043449914 0.001886455 -0.054059155 0.06457637
0003a0 52 16 da 3c 50 a8 67 3d 0b 2d 1e bd 65 1e 84 bb
       0.026621971 0.056557 -0.038617175 -0.0040319436
0003b0 eb 16 be 3c 6f 1e 22 3c dd 2a a2 3c 91 d1 15 bd
       0.023204288 0.009894951 0.01979583 -0.03657681
0003c0 8d a3 60 bd cd 8a 28 3c cf ae 0b 3b c5 55 03 be
       -0.054843474 0.010286999 0.002131391 -0.12825687
0003d0 ec 49 f4 3b 2a 23 7e 3d 5f 53 58 bd 0c 33 1b be
       0.0074551012 0.062045254 -0.052813884 -0.15156192
0003e0 2b 13 7a 3e a2 b9 c0 3d 17 50 21 bd 1c 30 a6 3e
       0.24421374 0.09410407 -0.03938302 0.3245858
0003f0 59 d8 d0 3c c2 4d da bc 19 b2 e6 3c 51 80 03 3d
       0.025493788 -0.026648406 0.028161095 0.032104794

layers.3.bias f4 [192]
000000 fb 23 e8 3d b2 22 89 3d 03 92 25 be d8 17 b6 bc
       0.11334988 0.06696071 -0.1616898 -0.022228166
000010 bf 0a ca 3d 0f 6b 67 bd ea 77 49 bd d4 df 20 3e
       0.09865331 -0.056498583 -0.049186625 0.15710384
000020 cb af 09 3e a8 c1 64 3d a0 16 47 3d 17 8a 8b 3d
       0.13445966 0.055848747 0.04860556 0.06813448
000030 a3 b3 08 3e 0c 16 d1 3d bd f8 a5 bd e7 55 50 bb
       0.13349776 0.10209283 -0.08104084 -0.0031789483
000040 35 3c 95 3d 59 67 36 3e d6 9f bd 3d bd f8 c5 bb
       0.07286874 0.17812862 0.09259002 -0.006041615
000050 6c bf 29 bd 6f a5 55 3e 70 07 bd bd db 4e f3 3d
       -0.04144232 0.20863889 -0.09229934 0.11880275
000060 5f 2d d2 3d 90 d7 a1 3c a8 5f be 3c 1f 4f 01 3e
       0.1026256 0.019756109 0.023238972 0.12627839
000070 de fc 9c 3d bf 3b e1 3b 04 11 84 bd 01 41 8d 3d
       0.07665418 0.0068735774 -0.06448558 0.06897164
000080 4a 35 36 3d ef 67 a8 bd d3 60 32 3e 7b 86 0d 3e
       0.044484414 -0.08222949 0.17419748 0.13820831
000090 4f d3 a5 3d 66 99 52 bd 74 a9 81 3d a8 18 9e bd
       0.080969445 -0.051415823 0.06331149 -0.077195466
0000a0 0d 2f 13 bd 32 e3 80 bd aa c4 06 3d 60 17 22 bc
       -0.035933543 -0.06293334 0.032902397 -0.009893268
0000b0 2c 35 59 bd 78 33 0d 3e 69 06 8e bd e0 fb 83 3d
       -0.053029224 0.13789165 -0.069348164 0.06444526
0000c0 dc 57 01 3e f8 12 20 3c 12 6e 02 3e dc af 82 3d
       0.12631172 0.0097701475 0.12737301 0.06381199
0000d0 1c 0c ed bc e3 d6 35 bd bf d7 01 3d de 0f e7 bc
       -0.028936438 -0.044394385 0.031699892 -0.028205808
0000e0 1b 26 68 3c 2b e8 ab 3d e0 9e b7 3d 9b 62 41 3e
       0.014169241 0.08393892 0.0896585 0.18885271
0000f0 e5 1e fb 3c 6a 03 5b 3c 86 79 eb 3c 22 e0 04 3d
       0.03065438 0.013367513 0.02874447 0.032440312
000100 b3 d0 b9 3d 74 25 26 3e 34 e2 26 3d 1b 3b 53 3d
       0.09073009 0.16225225 0.040743068 0.05157004
000110 50 15 0b be 58 87 46 bc 1e 32 d2 bd a3 b7 6c 3d
       -0.13582349 -0.012117229 -0.10263465 0.057792317
000120 01 3a ff 3d 17 a9 8d bd 12 98 0d 3e a2 f5 62 3e
       0.12462235 -0.06917017 0.13827541 0.22164014
000130 0d a0 e3 bd b7 a7 1e bd a4 de 02 bd 25 e3 08 3e
       -0.11114512 -0.038734164 -0.031950608 0.13367899
000140 9e e7 9e bd 66 d3 93 bc 9a 63 53 3a 7b d5 f5 3d
       -0.07759021 -0.018045139 0.0008063853 0.12003609
000150 01 98 24 3d 58 02 41 3d 0e 02 b0 ba b2 ed 8b 3d
       0.040184025 0.047121376 -0.0013428347 0.06832446
000160 cb 97 57 3d 1d 68 39 bd 7d ae b9 3d 34 4c a8 bd
       0.052634995 -0.045265306 0.09066484 -0.082176596
000170 d9 66 ae 3d a1 64 e8 3c ef 53 d3 3c 6b 27 1d 3d
       0.085157104 0.028368296 0.025796859 0.03836767
000180 88 0e bf bd 82 33 cf ba 4a c3 a2 3d ba 62 4d bd
       -0.093289435 -0.0015808197 0.07947405 -0.05014298
000190 17 02 69 3e d8 5b f8 3d a2 87 0e bd da 6b 71 3d
       0.22754703 0.12126893 -0.03479732 0.058940746
0001a0 d6 a4 8a 3c 25 a0 72 3c 74 06 3c bd 5c 3f ab bc
       0.016924303 0.014808689 -0.04590459 -0.020904236
0001b0 0b e4 76 3c b8 16 0b 3e 5a ee 26 3d 0c 02 a3 bb
       0.015069018 0.13582885 0.040754654 -0.0049746092
0001c0 44 f3 de 3d 4b 4a ce bc 9f a2 f2 3d 48 cb 46 3e
       0.10886243 -0.02518191 0.11847424 0.19413483
0001d0 39 69 6e 3d ee 99 d0 3b 48 b3 46 bd eb 9b 15 3e
       0.058205817 0.006366006 -0.04851082 0.14610259
0001e0 86 f3 03 3d 74 08 0d 3d d5 ed 27 3e 43 05 3a 3e
       0.032214664 0.03443189 0.1639932 0.1816607
0001f0 b6 e2 34 bd a0 ad 97 3c e6 b7 a8 bc 08 28 e1 3d
       -0.04416152 0.018515408 -0.020595502 0.109939635
000200 d4 b3 af 3d 48 17 88 bd cf eb 4e 3d 8f bd 87 bd
       0.08579221 -0.066450655 0.050517853 -0.06627952
000210 24 78 88 bd a9 a0 1b be 9e 1d 03 bd 73 f8 26 bc
       -0.0666354 -0.15198006 -0.032010667 -0.010191071
000220 13 48 fd 34 b9 15 15 3e 7a 72 97 3c a6 02 58 3d
       4.7177363e-07 0.14559068 0.018487204 0.0527369
000230 0f 9d 1c bd 4f 5e 8d bd 55 23 e3 bc b4 0f 29 bd
       -0.03823572 -0.069027536 -0.027726809 -0.04127474
000240 9b 20 b5 bd c0 c0 98 bd 1f e0 93 3b 83 5d ad 3d
       -0.088441096 -0.07458639 0.0045128013 0.084651016
000250 78 58 2b 3d 40 ab 65 3e 71 21 d8 3d b7 39 37 bd
       0.041832417 0.22428608 0.105532534 -0.044732776
000260 92 f9 cd 3c e8 8e 11 3e 43 c2 a1 3b f1 0d 94 bd
       0.025143418 0.1421467 0.004936488 -0.072292216
000270 45 3e b8 3d 2c a2 87 bd dc 09 d4 bc 72 1e c1 bc
       0.08996252 -0.06622729 -0.025883608 -0.023574088
000280 0e 6d 3a bd c6 ef 5a bd af 53 75 3d 1c 64 60 3d
       -0.04551416 -0.053451322 0.05989426 0.05478297
000290 fd da 41 3d f2 39 62 bc 24 fa 25 3d d0 45 00 3e
       0.047327984 -0.013807761 0.040521756 0.12526631
0002a0 53 ec fa bc 4d 32 2e 3d 20 64 d7 3c 86 24 72 bd
       -0.030630266 0.04252844 0.02629286 -0.059116863
0002b0 a6 8c 81 3d ed 02 8e bd c2 d4 1e 3d 5d ed 7e bc
       0.06325655 -0.06934152 0.03877712 -0.0155595215
0002c0 ad 96 c6 3b 74 49 c1 ba 8f 9a de 3c 15 2b f1 3d
       0.0060604424 -0.0014746622 0.027173309 0.11775795
0002d0 12 c0 a3 bd 73 ec 5f bc ec c0 8d bd 93 2a 44 3d
       -0.07995619 -0.013667214 -0.069215626 0.047892164
0002e0 98 34 10 bd 2d 14 a2 bd d3 3f 63 bd f1 89 8a bc
       -0.035206407 -0.079140045 -0.05548079 -0.016911479
0002f0 99 3a 0b 3d 76 22 48 bd 7e d2 c6 3d 12 bc a7 3d
       0.03399143 -0.04886099 0.09708117 0.081901684
