deployment_models/model_(192, 192, 192, 192)_bs_64_mse_0.00112_mae_0.01116.pth (torch, 455175 bytes, 10 tensors)

layers.0.weight f4 [192, 3]
-0.37052444 -0.30708405 -0.4728885 0.40258706 -0.6745705 -0.29360512 -0.1038106 0.38424528
-0.45993364 -0.40958756 0.0012414771 -0.05765141 0.52846056 0.21232484 0.45737138 -0.18099211
-0.20803325 -0.019944537 -0.4988811 -0.5164126 0.24748105 0.022699196 -0.71252126 0.1808009
-0.015057406 0.34478828 0.31932628 0.46029192 -0.030283805 -0.43809655 0.4102771 0.31196716
0.47901076 -0.20823434 -0.32967404 -0.1395366 0.5092828 0.032292467 -0.43278298 0.13402691
0.1610629 0.2996571 -0.37459648 -0.08407854 -0.2500043 0.23751326 -0.59527063 0.16196476
-0.25369272 -0.080519736 -0.077754766 0.429301 0.35643885 -0.52395844 -0.043726817 0.70861685
-0.0942236 -0.6368789 -0.097230524 0.46953255 -0.63201237 -0.013215396 0.40194026 -0.49189612
-0.08897666 0.20316362 0.5294048 0.38383195 0.4161935 0.18133864 -0.20869495 0.33244166
-0.3135857 0.2427156 -0.09587292 -0.10904601 -0.6160797 0.04807497 -0.35780907 0.002345614
-0.07725624 0.31949398 0.63558596 0.26346517 0.28029063 0.16555059 0.3088516 0.14586899
-0.20237032 0.39595276 -0.06416665 -0.48725826 -0.101330236 0.07954829 0.27945343 -0.18992649
0.40445128 -0.47588092 -0.014389732 0.03535902 -0.14500205 0.04511451 0.0009033434 0.0076785763
-0.052646928 -0.13545623 0.45420825 -0.20814283 0.30705205 0.3603416 -0.48692083 -0.58443373
-0.36093664 0.25407004 0.2911225 0.054683644 -0.4119655 -0.24448924 0.044978686 0.43411452
-0.041897357 -0.64990425 -0.17934483 -0.0018791152 0.16357575 -0.14775343 0.10183447 0.2602628
0.0105535295 0.13379209 -0.5596273 0.36863497 -0.06752082 -0.3620611 -0.40502143 0.14406502
-0.332474 0.41342 -0.040341716 -0.24853113 -0.3877283 0.08626047 0.44472843 0.45187756
0.38522607 -0.4157787 0.1987048 -0.45042652 0.053691633 -0.5102861 0.33648977 0.30095103
-0.20024067 0.5672654 0.033122245 0.4155704 0.32456937 0.3206389 0.00379875 -0.052008063
0.38862753 -0.46133617 0.079472914 -0.40698522 -0.25245318 -0.18154691 -0.05111492 -0.013802681
0.40066135 0.09566382 0.034423128 -0.15923883 0.17937228 -0.5745493 0.056959137 0.49996248
-0.25242 -0.27308288 -0.6584195 -0.1642549 -0.28412893 0.34259343 0.08224758 0.10423407
0.1319209 -0.13219625 0.4135556 0.21624045 -0.13421418 -0.1482569 0.06314321 0.0059599453
-0.11051666 0.48297465 0.4581272 -0.21277829 -0.21194276 0.14737192 -0.30311108 0.07570265
0.106052555 -0.4059123 -0.03371828 0.3182048 -0.35108757 0.5385657 0.2862339 -0.3273427
0.35103315 0.3809352 0.25837177 0.16562133 0.35352868 0.2890376 0.28778616 0.3446891
0.48947084 0.6013667 0.08680119 0.13977247 0.3587732 -0.2804744 -0.2582357 0.45635438
-0.1778727 -0.51678705 0.36943528 -0.40717602 0.5534953 -0.15722886 -0.49566254 -0.56015795
-0.0982518 0.3206575 0.14283063 0.20540571 0.44602358 0.42578748 0.6122915 0.11338495
-0.414662 -0.47984293 -0.33705398 -0.030865226 0.06893758 -0.23596343 0.26065084 0.11643586
0.43653828 0.44421586 0.36961782 0.43264687 -0.11712674 0.0796596 0.22319451 0.19660869
00000000: 61b5 bdbe 1f3a 9dbe 711e f2be e41f ce3e
00000010: a7b0 2cbf 6953 96be a79a d4bd ccbb c43e
00000020: 6c7c ebbe 76b5 d1be 0fb9 a23a e323 6cbd
00000030: 3149 073f af6b 593e 952c ea3e ff55 39be
00000040: ab06 55be ba62 a3bc 586d ffbe 9e33 04bf
00000050: ac6b 7d3e aaf3 b93c cb67 36bf df23 393e
00000060: 57b3 76bc 1788 b03e bc7e a33e 62ab eb3e
00000070: be15 f8bc 314e e0be d70f d23e 29ba 9f3e
00000080: e640 f53e 623b 55be 09cb a8be afe2 0ebe
00000090: 5c60 023f 1b45 043d bb95 ddbe 5a3e 093e
000000a0: aced 243e a86c 993e 1ccb bfbe 5f31 acbd
000000b0: 9000 80be ad36 733e a863 18bf 17da 253e
000000c0: 03e4 81be 88e7 a4bd e43d 9fbd 57cd db3e
000000d0: 277f b63e 2422 06bf e41a 33bd ea67 353f
000000e0: 4ef8 c0bd 7f0a 23bf cc20 c7bd 9266 f03e
000000f0: 90cb 21bf 6385 58bc 1dcb cd3e cfd9 fbbe
00000100: 6539 b6bd 200a 503e 1387 073f 9f85 c43e
00000110: 5017 d53e d6b0 393e 21b4 55be cb35 aa3e
00000120: 4e8e a0be 708a 783e 0559 c4bd 8453 dfbd
00000130: 66b7 1dbf 42ea 443d c032 b7be dfb8 193b
00000140: 8538 9ebd b794 a33e c3b5 223f e8e4 863e
00000150: 4182 8f3e 1886 293e cc21 9e3e ae5e 153e
00000160: 2a3a 4fbe 52ba ca3e ce69 83bd ea79 f9be
00000170: 3a86 cfbd 37ea a23d 8514 8f3e 177c 42be
00000180: 3d14 cf3e aaa6 f3be e9c2 6bbc 9fd4 103d
00000190: 6b7b 14be fec9 383d 59ce 6c3a 919c fb3b
000001a0: 4ea4 57bd 0ab5 0abe fc8d e83e 6523 55be
000001b0: ed35 9d3e b27e b83e b04d f9be 739d 15bf
000001c0: b0cc b8be 7815 823e 020e 953e f5fb 5f3d
000001d0: 24ed d2be 635b 7abe 923b 383d 4244 de3e
000001e0: 909c 2bbd 2060 26bf 2ca6 37be a54c f6ba
000001f0: 6780 273e ad4c 17be 978e d03d 2a41 853e
00000200: b6e8 2c3c cb00 093e bc43 0fbf b9bd bc3e
00000210: 5b48 8abd 1360 b9be f85e cfbe c885 133e
00000220: 083a aabe c9ab d33e 5b3d 25bd f27e 7ebe
00000230: 5384 c6be 54a9 b03d 72b3 e33e 7f5c e73e
00000240: 5a3c c53e f2e0 d4be 4579 4b3e 4e9e e6be
00000250: c2eb 5b3d 1ca2 02bf 6348 ac3e 4116 9a3e
00000260: e40b 4dbe 4e38 113f 31ab 073d a5c5 d43e
00000270: f52d a63e c82a a43e 73f4 783b 6806 55bd
00000280: 30fa c63e 4134 ecbe b2c2 a23d 5e60 d0be
00000290: 8b41 81be 6fe7 39be e15d 51bd a424 62bc
000002a0: 7c23 cd3e 65eb c33d 44ff 0c3d 810f 23be
000002b0: 5ead 373e aa15 13bf fc4d 693d 15fb ff3e
000002c0: 323d 81be 85d1 8bbe 2e8e 28bf 7032 28be
000002d0: 5979 91be 6868 af3e 6b71 a83d ac78 d53d
000002e0: 4616 073e 745e 07be 8fbd d33e 236e 5d3e
000002f0: 716f 09be a8d0 17be 3a51 813d a54b c33b
00000300: 8f56 e2bd 7448 f73e a68f ea3e 8de2 59be
00000310: 8607 59be aae8 163e 6031 9bbe fe09 9b3d
00000320: 1532 d93d bdd3 cfbe 2e1c 0abd bdeb a23e
00000330: c0c1 b3be 71df 093f 408d 923e 7699 a7be
00000340: 9eba b33e f009 c33e 4e49 843e a398 293e
00000350: b601 b53e bcfc 933e b558 933e 177b b03e
00000360: ec9b fa3e 2bf3 193f d3c4 b13d 8420 0f3e
00000370: 1fb1 b73e 579a 8fbe 7837 84be 48a7 e93e
00000380: 4324 36be 284c 04bf 9f26 bd3e 6079 d0be
00000390: deb1 0d3f 9a00 21be 7bc7 fdbe 8366 0fbf
000003a0: 3d38 c9bd 382d a43e 3142 123e e055 523e
000003b0: 345d e43e d100 da3e 23bf 1c3f 5e36 e83d
000003c0: 944e d4be f9ad f5be 5792 acbe 12d9 fcbc
000003d0: 252f 8d3d 66a0 71be 0774 853e ed75 ee3d
000003e0: f281 df3e 4370 e33e 8c3e bd3e e483 dd3e
000003f0: 25e0 efbd 9324 a33d 1a8d 643e ca53 493e

layers.0.bias f4 [192]
-0.41410848 -0.65213275 0.5366819 -0.2540466 0.22343513 0.23468785 -0.5226888 -0.5287035
-0.34694383 -0.081641994 0.42782515 0.34852356 0.5195716 -0.38400385 0.110790834 0.54305845
0.5946843 -0.011910073 0.54375887 0.011009262 -0.33937266 0.09765017 0.5504546 0.5351543
-0.37047222 0.44610405 -0.15341675 0.33167136 0.32932326 -0.16648558 -0.09415861 0.05911525
0.008141876 0.2864606 -0.10014155 0.59449154 -0.4946999 -0.24589436 -0.26423973 -0.020953927
-0.33275905 0.18599717 -0.26850778 0.1190924 -0.032447483 0.36857012 0.42514768 0.017375154
0.09228464 -0.08957185 0.028587984 -0.15691276 -0.46931845 0.436506 0.21232517 -0.39241266
0.5416306 0.31263244 -0.6424473 0.35971016 -0.29103604 0.46234614 0.24947 -0.41327417
-0.25614107 -0.12469726 -0.091896504 -0.388752 0.56681937 0.03687419 0.27280447 -0.048460722
0.5075336 0.46201104 -0.26158488 0.10735452 -0.2498896 -0.18778843 0.47740674 -0.22383134
-0.20386598 0.54452485 -0.49175873 0.6281065 0.46849158 -0.18171895 0.28054938 0.56693864
0.31669694 -0.02514593 -0.13673346 -0.28792337 -0.3840157 -0.5619822 -0.27667567 -0.21989778
-0.52740616 -0.55172145 -0.16211797 -0.17940286 -0.31380817 -0.4328958 0.19244915 -0.24596104
0.22054428 0.24930178 0.22580647 0.432711 -0.46258792 0.29597715 -0.44713816 -0.495904
-0.03451508 0.3902521 -0.21688205 -0.020449707 0.6117189 -0.46981984 -0.2508202 0.38595966
-0.039233424 0.5553685 -0.10233127 -0.04512333 0.3121702 -0.2132405 0.5927883 -0.46193504
-0.011090519 -0.043337945 0.30460605 -0.041173477 -0.37556404 0.2308039 0.06486884 0.10862257
0.44623172 -0.27712107 -0.49908984 0.10595901 -0.2713922 0.35900888 -0.06579009 -0.15422352
0.49679554 0.06854552 -0.5106863 -0.56667084 0.37771332 -0.39172184 -0.27484456 -0.20406283
-0.3560665 0.4481058 0.54308 -0.20940463 -0.2856868 -0.308788 0.073624246 -0.57485557
0.110743545 -0.17559229 -0.50766575 -0.5974211 0.18449393 -0.39642176 -0.69918704 -0.36905476
0.30009484 0.3577798 0.10439493 -0.34673452 0.12009086 0.2571926 -0.37184775 0.5152235
0.0017211457 0.018049734 0.032673333 -0.11659473 -0.4697211 0.07953785 0.17943776 -0.09096528
-0.43110463 -0.29028165 0.32081267 -0.1496961 -0.3725253 0.29129747 0.4231623 -0.30593336
00000000: 0706 d4be 2cf2 26bf fc63 093f 6512 82be
00000010: 2ecc 643e 0352 703e efce 05bf 1d59 07bf
00000020: 9fa2 b1be eb33 a7bd e60b db3e ae71 b23e
00000030: a502 053f 279c c4be 4ee6 e23d e105 0b3f
00000040: 3b3d 183f 7822 43bc c833 0b3f 3160 343c
00000050: 41c2 adbe d0fc c73d 98ea 0c3f dfff 083f
00000060: 89ae bdbe c067 e43e 4819 1dbe d4d0 a93e
00000070: 0f9d a83e 327b 2abe 3bd6 c0bd d522 723d
00000080: 8165 053c f7aa 923e 0317 cdbd 9930 183f
00000090: 4e49 fdbe bbcb 7bbe 6e4a 87be 92a7 abbc
000000a0: 655f aabe 0b76 3e3e da79 89be b7e6 f33d
000000b0: a7e7 04bd 39b5 bc3e f5ac d93e 5756 8e3c
000000c0: bbff bc3d 7271 b7bd 5931 ea3c bdad 20be
000000d0: 824a f0be b77d df3e c56b 593e 50ea c8be
000000e0: 4ea8 0a3f 5c11 a03e 6d77 24bf ee2b b83e
000000f0: ad02 95be a2b8 ec3e 1075 7f3e ac98 d3be
00000100: ec24 83be 4761 ffbd 3c34 bcbd 810a c7be
00000110: 131b 113f 6409 173d 07ad 8b3e c07e 46bd
00000120: b9ed 013f b68c ec3e 74ee 85be b0dc db3d
00000130: 0fe3 7fbe 9c4b 40be a86e f43e 0b34 65be
00000140: 3ec2 50be fb65 0b3f cdc7 fbbe 96cb 203f
00000150: 21de ef3e 8814 3abe 2ba4 8f3e e422 113f
00000160: 1a26 a23e d6fe cdbc db03 0cbe b16a 93be
00000170: b59d c4be 11de 0fbf 6fa8 8dbe e22c 61be
00000180: 1704 07bf 9e3d 0dbf 4102 26be 62b5 37be
00000190: 77ab a0be 85a4 ddbe 6411 453e 36dd 7bbe
000001a0: 5cd6 613e f748 7f3e d039 673e 4c8c dd3e
000001b0: 53d8 ecbe 518a 973e 4bef e4be 21e7 fdbe
000001c0: af5f 0dbd 20cf c73e 5416 5ebe 2586 a7bc
000001d0: 9c99 1c3f 3a8c f0be 816b 80be 819c c53e
000001e0: 3ab3 20bd a12c 0e3f 0f93 d1bd 3ed3 38bd
000001f0: c6d4 9f3e b85b 5abe f9c0 173f c082 ecbe
00000200: 02b5 35bc 2183 31bd 53f5 9b3e 85a5 28bd
00000210: ee49 c0be dc57 6c3e f4d9 843d 8375 de3d
00000220: 7c78 e43e d0e2 8dbe b488 ffbe 0a01 d93d
00000230: ebf3 8abe 03d0 b73e f4bc 86bd c5ec 1dbe
00000240: fc5b fe3e 9861 8c3d 56bc 02bf 5711 11bf
00000250: a463 c13e c48f c8be 6db8 8cbe d9f5 50be
00000260: 594e b6be 206e e53e 4a07 0b3f 2b6e 56be
00000270: 8a45 92be 7619 9ebe 4fc8 963d bc29 13bf
00000280: 83cd e23d 77ce 33be 62f6 01bf 97f0 18bf
00000290: faeb 3c3e cbf7 cabe ecfd 32bf bff4 bcbe
000002a0: 08a6 993e ea2e b73e 02cd d53d 3087 b1be
000002b0: 32f2 f53d c0ae 833e d462 bebe b0e5 033f
000002c0: 1198 e13a 09dd 933c 79d4 053d 38c9 eebd
000002d0: 497f f0be bee4 a23d 88be 373e 014c babd
000002e0: bfb9 dcbe cc9f 94be 8f41 a43e ef49 19be
000002f0: a3bb bebe f124 953e bba8 d83e 4ca3 9cbe

layers.1.weight f4 [192, 192]
-0.026336875 0.003797164 -0.032292448 -0.030590825 0.061803535 -0.04301101 -0.049191624 -0.029024847
-0.0507481 -0.04440604 -0.0061532836 -0.0058492483 0.019301556 -0.07069626 0.054429702 -0.049141668
-0.051346183 -0.0620492 -0.05691053 0.035579294 -0.061313048 -0.04754959 0.023227697 -0.07300455
-0.070803426 0.015925165 -0.008151402 0.028876452 -0.0023831674 0.025090337 0.026427792 -0.024577893
0.058010772 0.021112932 0.048936464 -0.0046913926 0.00893093 -0.06202599 -0.006373965 0.018873598
0.027670093 -0.027961973 0.043360386 0.040578704 0.06914183 -0.057425536 -0.028099522 -0.027575208
-0.023028165 0.048741885 0.038932513 -0.044176914 -0.0017393053 -0.033581816 -0.041272458 0.02909171
-0.040473506 0.023015648 -0.04064168 -0.03386224 0.035460815 0.015172059 0.038403384 -0.044537198
0.02868924 -0.021503534 -0.064351045 0.013931574 0.0031525658 -0.0054899286 -0.069288276 -0.031018583
-0.019510422 -0.05848691 0.040897407 -0.0025221284 -0.029327283 -0.038913265 -0.038492113 -0.033824135
-0.0016706877 0.010046727 0.058749367 0.044886943 0.036666326 0.07001554 -0.023880698 0.0474237
-0.029004542 -0.06111189 -0.062020615 -0.060542766 -0.07200739 -0.003924087 0.049972333 0.008536148
-0.06587858 -0.0061373077 0.049033675 -0.021636326 -0.019384883 -0.053627104 0.052972227 0.0028243675
-0.04050946 0.06026483 0.0117323585 -0.018991454 -0.005586763 -0.018037608 0.04099921 -0.022339059
0.014293055 -0.04436121 0.027581016 -0.030818284 -0.066883415 0.0056305705 -0.05693318 -0.020739064
-0.03922311 0.022726497 -0.05921372 -0.039173193 0.028067062 0.022796482 0.06481685 -0.07373048
0.0050191265 0.035886467 -0.02779674 0.030163206 0.007740609 -0.005588132 -0.030847866 0.0056964913
-0.0044999067 0.05328614 -0.045137417 -0.0476984 -0.007255731 -0.0029104904 -0.024693713 -0.034234595
-0.032901287 0.050014924 0.06643225 -0.010961298 -0.061471835 -0.03750094 -0.007061805 -0.03933792
0.047065616 -0.060103893 -0.0480814 -0.03673658 -0.05779738 0.0096094785 0.027332125 0.053561352
-0.0077981027 0.03476286 0.056651887 0.0006872744 -0.025890736 -0.033725742 0.06900336 0.07135684
-0.06995936 -0.042420194 -0.0071894615 0.040254705 -0.068382904 0.067849055 0.0057964246 -0.030439628
-0.008254716 0.056553677 0.03327847 0.043306034 0.05568914 -0.005536552 -0.0058900565 -0.012115591
0.05124747 -0.008741675 0.0063906745 0.061557908 0.049515244 0.020958006 0.03882147 0.062311582
0.03685144 0.026002606 -0.048386134 -0.1748136 -0.025686271 0.03129262 -0.052734412 -0.1481482
-0.048429858 -0.019640878 0.040406704 -0.060465492 0.011908841 -0.015805522 0.015869685 -0.066997126
0.024870042 0.007521491 0.06861049 -0.07750498 -0.026162205 0.002828976 -0.008270299 0.03270618
0.08750662 0.038281944 -0.09626198 -0.059998017 -0.059104323 0.0039613247 0.027431794 -0.014615483
-0.08584437 -0.06253438 0.026058162 0.053722028 0.032641646 -0.01923163 -0.08326626 -0.0702767
-0.09887533 0.026555842 0.028556222 0.013099005 -0.017785957 -0.07425496 -0.02580493 -0.07451601
-0.061422136 0.028167628 -0.0262173 0.028759954 0.030594958 0.022169007 0.059405547 0.0072622444
0.017383242 0.0013699788 0.09073274 -0.08421902 -0.04481644 0.05352565 0.0035734759 0.00038710912
00000000: 6ec0 d7bc d7d9 783b 1645 04bd 9c99 fabc
00000010: b425 7d3d 502c 30bd 287d 49bd 84c5 edbc
00000020: 3ddd 4fbd 1ce3 35bd 7ca1 c9bb 0dab bfbb
00000030: 4c1e 9e3c 33c9 90bd aef1 5e3d c648 49bd
00000040: 6050 52bd 4d27 7ebd 041b 69bd 98bb 113d
00000050: 6423 7bbd 5cc3 42bd 0348 be3c 6983 95bd
00000060: 6301 91bd 7e75 823c 758d 05bc 4f8e ec3c
00000070: ea2e 1cbb 408a cd3c 197f d83c 9457 c9bc
00000080: b49c 6d3d 07f5 ac3c 9a71 483d 41ba 99bb
00000090: 0953 123c f70e 7ebd b2dc d0bb ce9c 9a3c
000000a0: 64ac e23c 8210 e5bc a99a 313d db35 263d
000000b0: 3b9a 8d3d 0a37 6bbd f830 e6bc 67e5 e1bc
000000c0: 90a5 bcbc 92a5 473d b377 1f3d daf2 34bd
000000d0: 67f9 e3ba 168d 09bd 4f0d 29bd bd51 ee3c
000000e0: 8cc7 25bd 508b bc3c e477 26bd 22b3 0abd
000000f0: 5c3f 113d 3a94 783c de4c 1d3d a36c 36bd
00000100: b205 eb3c 2e28 b0bc 7bca 83bd 4241 643c
00000110: 479b 4e3b dce4 b3bb 03e7 8dbd af1a febc
00000120: 52d4 9fbc f88f 6fbd 0a84 273d 4b4a 25bb
00000130: c53f f0bc 8463 1fbd e8a9 1dbd 2d8b 0abd
00000140: fafa daba 079b 243c 2da3 703d 5fdb 373d
00000150: 6e2f 163d 4f64 8f3d 74a1 c3bc 5b3f 423d
00000160: ef9a edbc 7650 7abd 5409 7ebd b1fb 77bd
00000170: 9c78 93bd a195 80bb caaf 4c3d 33db 0b3c
00000180: 59eb 86bd 781b c9bb 89d7 483d aa3e b1bc
00000190: 0ccd 9ebc 18a8 5bbd 68f9 583d 0619 393b
000001a0: 3fed 25bd 41d8 763d 1439 403c f793 9bbc
000001b0: 2a11 b7bb 9bc3 93bc caee 273d 6700 b7bc
000001c0: 6b2d 6a3c 1ab4 35bd 95f1 e13c a076 fcbc
000001d0: 2cfa 88bd a680 b83b c432 69bd f8e4 a9bc
000001e0: 69a8 20bd eb2c ba3c 168a 72bd 1274 20bd
000001f0: e5ec e53c b0bf ba3c b2be 843d 0200 97bd
00000200: 7c77 a43b b0fd 123d fdb5 e3bc d418 f73c
00000210: efa4 fd3b a61c b7bb aab4 fcbc a2a9 ba3b
00000220: f473 93bb 9142 5a3d 03e2 38bd 665f 43bd
00000230: 7cc1 edbb edbd 3ebb 784a cabc 9339 0cbd
00000240: 80c3 06bd 73dc 4c3d a20d 883d 0497 33bc
00000250: e4c9 7bbd 969a 19bd b766 e7bb cc20 21bd
00000260: e0c7 403d 802f 76bd 01f1 44bd 1979 16bd
00000270: f2bc 6cbd 1371 1d3c 9fe7 df3c 2663 5b3d
00000280: 3a87 ffbb 8063 0e3d cf0b 683d 342a 343a
00000290: cf18 d4bc 0124 0abd a251 8d3d 8923 923d
000002a0: da46 8fbd ccc0 2dbd 9395 ebbb 1ee2 243d
000002b0: 560c 8cbd 72f4 8a3d efef bd3b 875c f9bc
000002c0: ca3e 07bc d4a4 673d 014f 083d ab61 313d
000002d0: 4c1a 643d f76b b5bb 6001 c1bb 7980 46bc
000002e0: dee8 513d 3e39 0fbc dd68 d13b 2524 7c3d
000002f0: 7fd0 4a3d 20b0 ab3c 4303 1f3d 6e3a 7f3d
00000300: 89f1 163d 6b03 d53c 8a30 46bd 5602 33be
00000310: 046c d2bc b12c 003d 0a00 58bd 29b4 17be
00000320: 635e 46bd e8e5 a0bc 8081 253d aaaa 77bd
00000330: 4d1d 433c 957a 81bc 2401 823c ca35 89bd
00000340: 42bc cb3c d776 f63b a883 8c3d eeba 9ebd
00000350: 1f52 d6bc 5766 393b 2680 07bc eaf6 053d
00000360: ac36 b33d 87cd 1c3d 0025 c5bd 7bc0 75bd
00000370: 6017 72bd 00ce 813b a4b8 e03c c775 6fbc
00000380: 2ccf afbd 0612 80bd ed77 d53c a10b 5c3d
00000390: 3fb3 053d a78b 9dbc 8087 aabd 3bed 8fbd
000003a0: 267f cabd a38b d93c bdee e93c 369d 563c
000003b0: dbb3 91bc fc12 98bd dc64 d3bc da9b 98bd
000003c0: c795 7bbd ccbf e63c aac5 d6bc ff99 eb3c
000003d0: 47a2 fa3c c79b b53c 3b53 733d 1ff8 ed3b
000003e0: 4d67 8e3c dc90 b33a 16d2 b93d 067b acbd
000003f0: 7291 37bd b63d 5b3d fa30 6a3b e8f4 ca39

layers.1.bias f4 [192]
-0.06829915 0.051764205 0.008852162 0.0761431 -0.008408727 0.041410174 -0.0017470334 -0.017119437
-0.09009759 0.019040547 -0.08838246 0.062844776 0.021244597 0.004948563 -0.09090399 0.06830343
-0.039367497 -0.009358848 -0.09732712 0.032108873 0.034723748 -0.071269825 0.12043103 -0.07536374
-0.04382505 -0.0113267815 -0.028590092 0.025165629 0.046490435 0.028458703 0.045959268 0.029567037
0.02122123 0.08675095 0.019681564 0.049168322 -0.036884204 0.056502745 0.015609815 0.019932851
-0.048741594 0.05891703 0.036514603 0.090267085 -0.06923401 0.008205596 0.01904866 0.021975363
0.09136188 -0.009644053 -0.02077307 0.0014015553 -0.020986538 -0.020927282 0.017865235 -0.018637523
-0.027784998 0.05553068 -0.04580121 -0.009599104 -0.051693354 -0.031143986 0.00031184813 0.016555237
-0.09469211 -0.048148658 0.077971265 0.05589126 0.039487675 -0.025828768 -0.018232955 -0.042790238
0.017163891 0.0010575905 -0.011545179 0.03881149 0.08425786 0.05038898 0.002537881 0.04584724
0.046754036 0.031740233 0.023677312 0.061113883 -0.012095196 -0.046789687 -0.008242284 0.01321539
-0.035568763 0.007370573 -0.037332606 -0.06548347 0.038945362 -0.07495846 -0.02426035 0.04765457
-0.016551694 0.02745821 -0.035616133 -0.038931813 -0.08177732 -0.025424276 -0.042724814 -0.03127408
0.07098414 -0.039220624 0.04124559 -0.06279771 0.070433274 0.09969727 0.0055239554 -0.070931405
0.0087016355 0.12053736 -0.058901507 -0.04837731 0.05550563 -0.07194125 0.04393824 0.03298898
0.10648287 0.03392762 -0.0021174217 0.030609759 0.008246218 0.015392966 0.044731308 -0.036504418
-0.066970564 0.060090102 -0.019823391 -0.01951398 -0.0067991293 0.037023198 0.067770384 0.06259971
-0.048282843 -0.014026206 -0.080420956 -0.06351882 0.10359495 -0.016800713 0.052927483 0.050584897
-0.029865036 0.07642176 0.008519742 -0.018811407 0.010834047 -0.01513473 -0.008329393 0.06511815
-0.018698195 -0.0883196 0.053846553 -0.017402438 0.053547725 -0.029075842 0.005651493 0.08394842
-0.0077122 -0.002840705 -0.034448117 -0.07630982 0.0013008415 -0.043795444 0.0134873 0.01735006
-0.035653654 0.027569307 -0.0052803615 -0.017008808 -0.041326042 -0.026353372 0.05451115 -0.011871561
-0.06782034 -0.028018493 0.049115095 0.031138591 0.01379728 0.08320208 0.051262595 -0.040694263
0.05885007 0.006474364 0.068161525 -0.0055785077 0.07109402 -0.050507016 0.004364276 0.049331915
00000000: 6de0 8bbd b406 543d a908 113c eaf0 9b3d
00000010: c2c4 09bc b79d 293d b7fc e4ba 103e 8cbc
00000020: 1685 b8bd ecfa 9b3c dd01 b5bd c3b4 803d
00000030: 2609 ae3c 8e27 a23b df2b babd abe2 8b3d
00000040: d03f 21bd db55 19bc 7153 c7bd 9884 033d
00000050: 7d3a 0e3d eaf5 91bd 8ba4 f63d 4e58 9abd
00000060: e581 33bd f793 39bc c535 eabc 2628 ce3c
00000070: c16c 3e3d 3a22 e93c c93f 3c3d 9236 f23c
00000080: 25d8 ad3c 7baa b13d 3b3b a13c b964 493d
00000090: e413 17bd 6c6f 673d 4fc0 7f3c 384a a33c
000000a0: 44a5 47bd fc52 713d 5690 153d f3dd b83d
000000b0: 90ca 8dbd c470 063c ef0b 9c3c ad05 b43c
000000c0: f01b bb3d 1702 1ebc 492c aabc 64b4 b73a
000000d0: f6eb abbc b16f abbc 1d5a 923c b8ad 98bc
000000e0: 5d9d e3bc 2374 633d 0d9a 3bbd 8f45 1dbc
000000f0: 69bc 53bd ac21 ffbc 8c7f a339 d99e 873c
00000100: f0ed c1bd 8737 45bd 66af 9f3d 3cee 643d
00000110: d4bd 213d da96 d3bc 475d 95bc d144 2fbd
00000120: 4a9b 8c3c d99e 8a3a fe27 3dbc ccf8 1e3d
00000130: 638f ac3d ad64 4e3d 9452 263b 51ca 3b3d
00000140: 2981 3f3d 0c02 023d ecf6 c13c 8d52 7a3d
00000150: ee2a 46bc 8ba6 3fbd a50a 07bc 5d85 583c
00000160: 8db0 11bd d984 f13b 13ea 18bd 331c 86bd
00000170: 2c85 1f3d d283 99bd a4bd c6bc 7031 433d
00000180: 6b97 87bc 0af0 e03c 39e2 11bd f776 1fbd
00000190: de7a a7bd 9246 d0bc 3700 2fbd 4019 00bd
000001a0: 2260 913d cea5 20bd 23f1 283d 169c 80bd
000001b0: 523f 903d 152e cc3d 4c02 b53b 7c44 91bd
000001c0: 4e91 0e3c 4bdc f63d b542 71bd 4927 46bd
000001d0: df59 633d ef55 93bd 95f8 333d 741f 073d
000001e0: b113 da3d b0f7 0a3d 71c4 0abb 51c1 fa3c
000001f0: 251b 073c c732 7c3c 2d38 373d a885 15bd
00000200: dd27 89bd 0a21 763d aa64 a2bc c8db 9fbc
00000210: 3bcb debb a3a5 173d 33cb 8a3d 4734 803d
00000220: 3bc4 45bd 2cce 65bc beb3 a4bd 2816 82bd
00000230: 9729 d43d a6a1 89bc 7dca 583d 1c32 4f3d
00000240: 85a7 f4bc 0383 9c3d 6396 0b3c 611a 9abc
00000250: 4981 313c a9f7 77bc 0278 08bc aa5c 853d
00000260: f52c 99bc e8e0 b4bd 348e 5c3d 8f8f 8ebc
00000270: dc54 5b3d 7630 eebc 2930 b93b 26ed ab3d
00000280: 9fb6 fcbb 1f2b 3abb 7819 0dbd 5348 9cbd
00000290: ff80 aa3a da62 33bd d6f9 5c3c b721 8e3c
000002a0: 9109 12bd 07d9 e13c e206 adbb 0e56 8bbc
000002b0: 7f45 29bd 07e3 d7bc 1547 5f3d f080 42bc
000002c0: 64e5 8abd 0a87 e5bc e92c 493d 5c16 ff3c
000002d0: fd0d 623c da65 aa3d baf8 513d 07af 26bd
000002e0: c50c 713d e726 d43b 4598 8b3d eacb b6bb
000002f0: be99 913d 72e0 4ebd 3302 8f3b 4310 4a3d

layers.2.weight f4 [192, 192]
-0.06824695 -0.040506117 -0.031645276 0.07458647 -0.001683404 -0.030023033 -0.0014883396 -0.08160687
-0.024648951 0.10279751 -0.032251112 0.03457711 0.06724116 -0.00892837 0.13193062 0.054238174
-0.045245577 0.102488615 -0.016612196 0.028854134 0.13352752 0.07307268 0.06628067 -0.03082273
-0.033955872 0.017397009 -0.07171581 0.052569322 0.0894171 -0.0068601267 0.107034914 -0.017152442
0.003764317 0.042046346 0.012784833 -0.052941952 0.034279816 -0.0052066483 0.03409935 0.08041899
0.027768815 0.07798522 -0.024416527 0.0062306854 0.013153426 -0.019146608 0.07097447 0.0051065986
-0.023704467 -0.0028946477 0.062248822 -0.028766764 -0.026139094 0.02927537 -0.021868855 0.018058438
0.007126807 -0.027644452 0.023415033 -0.0040622083 -0.026113708 0.05724365 0.096937 -0.033731505
0.014451993 -0.11116425 0.062090844 -0.02750141 0.060442906 -0.041961163 0.089336604 -0.06281095
0.047557216 -0.009048937 -0.0059535992 0.003185992 0.075985126 -0.06013697 0.06433909 -0.0143733835
0.037048623 0.04825356 -0.018694714 0.01630713 0.099306785 0.025285667 -0.048924576 -0.01333733
0.07099863 0.080991626 -0.004798007 0.050479867 0.051400095 -0.00072884216 0.05176841 0.014959922
-0.010082138 0.06688552 -0.022780279 -0.047623444 0.15304682 -0.045072973 0.06750691 -0.04193165
0.07157724 -0.01685351 -0.039586466 -0.004495254 0.07378915 0.05786869 -0.027486408 -0.015382426
0.012370273 0.05497952 -0.055304527 0.024033487 0.0060084197 0.001942372 0.011351675 0.029525654
0.07015909 0.02414872 0.052171547 -0.045807425 -0.016213654 -0.05351455 -0.03045891 -0.0042024083
-0.026601449 -0.00616325 -0.031158892 -0.045882247 0.02615561 -0.032237645 -0.026549257 -0.06473298
0.058954574 -0.019291172 0.08990285 -0.011388681 -0.03904911 -0.032495745 0.066179596 0.014057173
0.0471147 0.061471425 0.05454046 0.008960544 -0.044213198 -0.0068004504 0.07650441 0.01492191
-0.019682258 -0.12985088 0.13044503 -0.008692228 -0.01765245 0.062309645 -0.04267629 -0.04632126
-0.008663619 0.057722367 -0.04320323 -0.023186343 -0.052348386 0.00024029915 0.023159472 0.060343195
0.050585248 0.07097403 -0.0048055253 -0.027586585 -0.015379863 0.018410448 -0.07422688 -0.01717659
-0.05543306 -0.114981644 -0.005761875 0.026246326 -0.04070977 0.106790386 -0.0078688925 -0.024323337
0.023987811 -0.009946497 -0.028613733 0.013016824 0.0012500855 -0.005935687 -0.032898206 -0.051874965
0.015270782 -0.05120542 -0.06377678 -0.1324696 -0.043390535 -0.013538124 0.062815025 -0.01567896
0.73786676 -0.044021692 0.07466367 0.041157134 -0.09783762 0.07031207 2.9342036 0.016927714
-0.043447297 -0.16084196 -0.036529616 -0.1260009 -0.03786787 0.023075378 0.097157456 -0.014129097
0.00046223216 -0.007301909 -0.0061581973 0.023801101 -0.0933862 -0.07491398 -4.809687e-05 -0.10909227
0.05824427 -0.032542873 0.019614752 -0.025833212 0.057468038 -0.0014983573 0.0247057 -0.035407808
0.034864243 -0.08280337 0.032600082 -0.023965677 0.009896217 0.014279341 -0.034182377 0.0039080456
-0.10096614 0.017980032 0.052033495 0.078672394 -0.0049535856 -0.07148117 -0.057049934 0.049383268
-0.021193856 0.0051177773 0.010675477 -0.015688296 -0.017955458 0.025639335 0.050738312 0.12671158
00000000: 0fc5 8bbd bee9 25bd 7a9e 01bd cbc0 983d
00000010: aaa5 dcba ddf2 f5bc 6414 c3ba 8121 a7bd
00000020: 99ec c9bc 8087 d23d be19 04bd baa0 0d3d
00000030: bcb5 893d 4c48 12bc d218 073e d928 5e3d
00000040: 6d53 39bd 8de5 d13d 4d16 88bc 815f ec3c
00000050: 70bb 083e 21a7 953d 29be 873d f37f fcbc
00000060: 5015 0bbd 2c84 8e3c bddf 92bd ee52 573d
00000070: 5020 b73d eaca e0bb 1f35 db3d 4783 8cbc
00000080: c2b2 763b ca38 2c3d 7a77 513c a9d9 58bd
00000090: fe68 0c3d 889c aabb c3ab 0b3d b6b2 a43d
000000a0: 6d7b e33c b7b6 9f3d 2b05 c8bc c72a cc3b
000000b0: 7881 573c 59d9 9cbc 105b 913d 4155 a73b
000000c0: df2f c2bc 21b4 3dbb 9ff8 7e3d 47a8 ebbc
000000d0: a721 d6bc e7d2 ef3c 5026 b3bc 4aef 933c
000000e0: fd87 e93b 9e76 e2bc e2d0 bf3c 461c 85bb
000000f0: 6aec d5bc 5178 6a3d e886 c63d 0c2a 0abd
00000100: 0dc8 6c3c 15aa e3bd f852 7e3d a34a e1bc
00000110: fb92 773d 78df 2bbd 1cf6 b63d 07a3 80bd
00000120: 5bcb 423d fe41 14bc 6916 c3bb 13cc 503b
00000130: 179e 9b3d 2f52 76bd 36c4 833d 577e 6bbc
00000140: 4cc0 173d 86a5 453d a825 99bc 8896 853c
00000150: 5b61 cb3d e323 cf3c 2365 48bd d184 5abc
00000160: bb67 913d f0de a53d 9a38 9dbb fac3 4e3d
00000170: e888 523d c50f 3fba 1d0b 543d 761a 753c
00000180: 8d2f 25bc 47fb 883d b59d babc cd10 43bd
00000190: 4eb8 1c3e 709e 38bd 1041 8a3d 86c0 2bbd
000001a0: 1797 923d 5f10 8abc 6b25 22bd ec4c 93bb
000001b0: c41e 973d b807 6d3d 2d2b e1bc 9206 7cbc
000001c0: afac 4a3c 3532 613d 0087 62bd e0e1 c43c
000001d0: 47e2 c43b 3097 fe3a 60fc 393c c9df f13c
000001e0: 92af 8f3d 89d3 c53c d5b1 553d 91a0 3bbd
000001f0: 7fd2 84bc 1332 5bbd f784 f9bc 5bb4 89bb
00000200: 48eb d9bc 17f5 c9bb ef40 ffbc 06ef 3bbd
00000210: 4a44 d63c 9f0b 04bd d47d d9bc ba92 84bd
00000220: 5a7a 713d 8508 9ebc fc1e b83d 9797 3abc
00000230: f6f1 1fbd 421a 05bd 2b89 873d 0f50 663c
00000240: 58fb 403d 76c9 7b3d d165 5f3d 3fcf 123c
00000250: e618 35bd 50d6 debb 58ae 9c3d 077b 743c
00000260: b03c a1bc a1f7 04be 6293 053e d969 0ebc
00000270: df9b 90bc 6638 7f3d 55cd 2ebd 5dbb 3dbd
00000280: daf1 0dbc 4a6e 6c3d dff5 30bd 49f1 bdbc
00000290: 436b 56bd d0f8 7b39 efb8 bd3c 6d2a 773d
000002a0: 7a32 4f3d d55a 913d ab77 9dbb 43fd e1bc
000002b0: d2fb 7bbc 82d1 963c 4304 98bd ecb5 8cbc
000002c0: c70d 63bd 7f7b ebbd 1cce bcbb 8902 d73c
000002d0: 4abf 26bd ebb4 da3d 87ec 00bc bc41 c7bc
000002e0: 1682 c43c a2f6 22bc 5967 eabc 8444 553c
000002f0: e9d9 a33a 2780 c2bb 45c0 06bd d87a 54bd
00000300: 4d32 7a3c c6bc 51bd 679d 82bd 1ca6 07be
00000310: 46ba 31bd 02cf 5dbc 2aa5 803d 2a71 80bc
00000320: d6e4 3c3f 1750 34bd 44e9 983d 6294 283d
00000330: 175f c8bd c6ff 8f3d fec9 3b40 fdab 8a3c
00000340: cbf5 31bd c1b3 24be 14a0 15bd 6106 01be
00000350: 571b 1bbd 9308 bd3c 7dfa c63d ba7d 67bc
00000360: c057 f239 da44 efbb b4ca c9bb 87fa c23c
00000370: 4441 bfbd 806c 99bd 9fbb 49b8 c56b dfbd
00000380: 8b91 6e3d ad4b 05bd 1eaf a03c 2ca0 d3bc
00000390: 9b63 6b3d 8764 c4ba 9c63 ca3c c707 11bd
000003a0: cfcd 0e3d d094 a9bd aa87 053d ab53 c4bc
000003b0: be23 223c e6f3 693c d202 0cbd 100f 803b
000003c0: 56c7 cebd dc4a 933c 1321 553d fe1e a13d
000003d0: b051 a2bb b864 92bd 31ad 69bd 1c46 4a3d
000003e0: bd9e adbc 07b3 a73b 32e8 2e3c be84 80bc
000003f0: 5317 93bc 9509 d23c fad2 4f3d aec0 013e

layers.2.bias f4 [192]
0.08623276 -0.014631423 0.023224792 -0.051583745 -0.0501995 -0.004658791 -0.06913375 0.14943637
0.05983239 -0.026320681 -0.018582342 -0.052696977 -0.01643026 0.079617105 -0.04461896 -0.021077612
0.010885244 0.06400386 0.032271005 0.12524319 -0.06592422 0.022085695 0.16779009 0.099959716
-0.0155278705 -0.0033417202 0.072386354 -0.029161979 -0.0041546472 0.09936462 0.09957193 0.056037318
-0.0031815302 0.013841195 -0.0022302184 0.049687285 0.01693492 0.06812694 0.024589255 0.009287005
0.004262498 0.047070075 0.052467387 0.13334766 -0.04790065 -0.016725134 -0.032993816 -0.048542302
0.09426129 0.053713843 0.11051966 0.13476889 0.09840497 0.03279676 0.099483415 -0.12562262
-0.04048795 -0.056380138 0.067041785 0.023403225 0.10207529 0.08830131 0.04927705 0.10301002
-0.0069117732 -0.06377649 -0.07349207 0.09280745 0.026050897 0.15838848 0.016403936 0.057747863
0.008077795 -0.07133744 0.06811803 -0.048946373 0.08129032 -0.016567098 -0.08868189 0.055973496
-0.01326324 -0.10693127 -0.075337954 -0.03656436 -0.054117672 0.009978617 -0.0643111 0.11484113
0.015674941 -0.0199653 -0.04790347 0.05852011 -0.013712387 0.023255937 0.039227836 -0.025738817
-0.022673901 -0.04293064 0.15105456 -0.044997495 -0.097944245 -0.08181721 -0.01950097 0.082365416
-0.04236933 0.028196929 0.051084347 -0.022909634 -0.014578055 0.009308807 -0.0103291925 0.011892337
-0.036892198 -0.003792035 0.062400162 0.05826412 -0.03727046 -0.07854269 0.12925242 -0.0038913325
-0.010971924 0.058896188 0.098898835 0.0042959093 0.03545276 -0.022838267 -0.039296333 -0.07963478
0.09213936 0.044218462 -0.012191187 -0.00045176575 0.051464118 0.09530937 0.0056441715 -0.013086992
0.047814984 -0.024200696 0.048635524 0.020615011 0.025365299 0.018281352 0.07375068 -0.058484353
0.01940938 0.026040606 -0.022556188 0.0031865428 0.056434214 -0.055770226 0.10048472 -0.06355326
0.0792586 0.10561613 -0.0009252523 0.03569468 0.022639163 -0.05904503 0.02467432 0.00014729063
-0.03684892 0.055750936 0.03468512 0.057317168 0.026364129 0.08622164 0.028838245 0.018847253
0.007899806 -0.04656578 0.045064267 0.14173266 0.107046016 -0.03479198 -0.0307251 0.07213035
0.030035049 -0.0016826711 -0.045889158 0.152662 0.15761994 0.0084176045 -0.0050019976 -0.054561775
0.042545807 0.09287543 -0.047165483 0.06019416 -0.051966503 0.086185046 0.06858997 0.048713505
00000000: cd9a b03d a3b8 6fbc eb41 be3c 7a49 53bd
00000010: fe9d 4dbd c5a8 98bb ff95 8dbd d905 193e
00000020: cf12 753d 789e d7bc ff39 98bc c9d8 57bd
00000030: c198 86bc 4b0e a33d 5fc2 36bd f5aa acbc
00000040: 0658 323c 7514 833d 9a2e 043d c03f 003e
00000050: 4703 87bd 0fed b43c 2ad1 2b3e aeb7 cc3d
00000060: 9c68 7ebc c300 5bbb 4c3f 943d 1ae5 eebc
00000070: b523 88bb ae7f cb3d 5eec cb3d 6387 653d
00000080: 3881 50bb 2ec6 623c db28 12bb e584 4b3d
00000090: 1abb 8a3c 2386 8b3d 686f c93c 8628 183c
000000a0: 6dac 8b3b 8dcc 403d 0be8 563d 4a8c 083e
000000b0: 7933 44bd 2603 89bc 8624 07bd 4bd4 46bd
000000c0: 100c c13d 0c03 5c3d 2258 e23d db00 0a3e
000000d0: 8b88 c93d e555 063d f6bd cb3d 37a3 00be
000000e0: b1d6 25bd dcee 66bd 344d 893d 1fb8 bf3c
000000f0: da0c d13d 51d7 b43d bbd6 493d ebf6 d23d
00000100: 287c e2bb 409d 82bd 0383 96bd d511 be3d
00000110: b168 d53c 9730 223e 8c61 863c 0689 6c3d
00000120: ba58 043c 5d19 92bd 7781 8b3d fe7b 48bd
00000130: 8a7b a63d b9b7 87bc da9e b5bd 7744 653d
00000140: 104e 59bc c8fe dabd c94a 9abd 83c4 15bd
00000150: 7eaa 5dbd 5a7d 233c 8ab5 83bd d431 eb3d
00000160: bc68 803c 458e a3bc 6e36 44bd c8b2 6f3d
00000170: eba9 60bc 3c83 be3c 5ead 203d 36da d2bc
00000180: 9ebe b9bc 0ad8 2fbd 0cae 1a3e 4b4f 38bd
00000190: fe96 c8bd c88f a7bd 80c0 9fbc 33af a83d
000001a0: 768b 2dbd 3ffd e63c d23d 513d fcac bbbc
000001b0: cbd8 6ebc f783 183c c63b 29bc 14d8 423c
000001c0: 461c 17bd ca83 78bb 5097 7f3d 5ca6 6e3d
000001d0: e9a8 18bd fdda a0bd bf5a 043e ba05 7fbb
000001e0: 96c3 33bc 213d 713d 798b ca3d b3c4 8c3b
000001f0: ea36 113d 5117 bbbc 31f5 20bd 8f17 a3bd
00000200: 90b3 bc3d 6b1e 353d 8bbd 47bc f9da ecb9
00000210: 0acc 523d 8f31 c33d bef2 b83b d36a 56bc
00000220: a5d9 433d 8a40 c6bc 0b36 473d d0e0 a83c
00000230: e3ca cf3c c6c2 953c 990a 973d 4a8d 6fbd
00000240: 6c00 9f3c 1c53 d53c c1c7 b8bc 51d5 503b
00000250: 9027 673d 526f 64bd efca cd3d 3628 82bd
00000260: 5552 a23d 454d d83d a18c 72ba 9634 123d
00000270: c475 b93c 34d9 71bd cd21 ca3c 0772 1a39
00000280: e5ee 16bd 185b 643d fc11 0e3d 68c5 6a3d
00000290: 96f9 d73c f994 b03d 2f3e ec3c 8e65 9a3c
000002a0: 306e 013c c2bb 3ebd 4f95 383d 5e22 113e
000002b0: f13a db3d 0982 0ebd 34b3 fbbc 14b9 933d
000002c0: 100c f63c 138d dcba 45f6 3bbd 6d53 1c3e
000002d0: 1f67 213e fee9 093c cce7 a3bb 2b7c 5fbd
000002e0: 8344 2e3d 7935 be3d 9830 41bd 278e 763d
000002f0: d4da 54bd c981 b03d e678 8c3d d087 473d

layers.3.weight f4 [192, 192]
0.018247096 0.0108311875 -0.0034187187 -0.033994112 0.029197056 0.06333045 -0.0006065198 0.050435245
-0.05590075 0.015473126 0.0041142055 0.056492224 0.034767535 0.019338794 0.0028971739 0.04837996
-0.0636614 -0.03902622 0.05731322 0.07892411 -0.059381854 -0.06583725 0.10960886 0.0287767
0.024948424 -0.0040196716 0.12427032 -0.021215837 -0.029974053 0.04118591 0.05577066 -0.06822325
-0.078758374 -0.67538834 0.06462247 -0.027147932 -0.0476783 0.1064588 -0.029918559 0.039948273
0.056132622 0.048452888 -0.033214714 0.107346 -0.06483935 -0.0076318644 0.03091548 0.05965602
0.04699122 0.0058512473 0.058391124 0.021170072 -0.019741898 -0.0059224856 -0.0223364 0.010825545
-0.13643391 -0.027505884 0.01490995 0.021433722 0.06047022 0.022238322 0.018353913 0.1049662
-0.027014742 -0.046646293 0.044538066 0.06546096 -0.006142845 0.06523528 -0.00060456654 0.013302094
0.028490508 0.029918253 0.045794986 0.06453008 -0.062179286 0.02588928 -0.33285034 -0.009617408
-0.064304836 -0.011281431 -0.11337882 -0.058654495 -0.0031573197 -0.046660177 -0.061419666 -0.005589732
0.0029766657 -0.044798188 0.059399057 0.010561436 0.022082262 0.00405909 -0.05815949 -0.032582313
0.018972239 -0.017536439 0.06421333 -0.022552963 0.0722424 0.03550631 0.00937074 0.08933966
0.03628625 0.0350749 -0.008396634 -0.02172349 -0.021190975 0.04720298 0.045004766 0.024676152
0.033937443 -0.07928934 -0.05428983 0.034488946 -0.6253107 0.0636582 0.039827935 -0.009375524
-0.045349002 0.009768641 0.033995196 -0.021158108 -0.034780618 0.069091626 -0.036813475 0.091795415
0.094720155 -0.06490422 -0.011506209 0.011750565 -0.035671607 -0.05716214 -0.30727813 0.021864906
-0.0008324356 0.0035577556 -0.06206074 -0.000766932 0.07306111 0.01734618 0.047598463 -0.014841186
-0.014720928 0.072198056 -0.06441425 -0.007473229 -0.06001555 0.03846996 0.06606574 -0.053697858
0.02212635 0.009110607 -0.011870193 -0.050582957 0.0553173 0.046042748 -0.021797257 0.042462658
0.03685626 0.054932486 0.06364375 0.061489277 -0.027151275 0.009762698 -0.0036596148 -0.030851876
-0.0046064677 0.043058857 -0.023825664 0.039515223 0.06596255 -0.027253693 0.04781632 -0.019937746
-0.026820004 -0.053793117 0.071248494 0.0066941692 0.11437463 0.054673053 0.081275485 0.03515461
0.018519588 0.075415745 -0.012659168 -0.012259795 -0.05450729 -0.07489131 -0.040525924 0.055198625
0.03266538 0.06989497 -0.0075327256 0.0500649 0.02326875 0.04603565 -0.041400004 0.047172803
0.042736374 0.08082124 0.01925707 0.041469224 0.0362741 0.036661085 -0.2714886 -0.008358665
-0.053332094 0.013109906 -0.029449906 -0.09209177 0.059486825 -0.021386579 0.019254375 -0.05308476
-0.04013911 0.033660218 -0.0005879569 0.060139216 0.032000173 0.10277026 0.010790088 0.057886813
0.051417805 1.4166665 -0.010290265 0.047513627 -0.004871512 0.0033915043 -0.056022648 0.0644386
0.0261418 0.05639238 -0.038647685 -0.0048651504 -0.03835122 0.0093648 0.020000417 -0.036647905
-0.055363424 0.010522976 -0.0014364447 -0.13173147 0.007621174 0.06180071 -0.052827198 -0.15532106
0.24421374 0.09373574 -0.03990978 0.32682547 0.025797088 -0.025828654 0.028076414 0.031824753
00000000: ef7a 953c 4b75 313c 950c 60bb 693d 0bbd
00000010: aa2e ef3c 65b3 813d dbfe 1eba 3095 4e3d
00000020: 2ff8 64bd ff82 7d3c 75d0 863b 6464 673d
00000030: 6768 0e3d 646c 9e3c 83de 3d3b 112a 463d
00000040: e860 82bd f5d9 1fbd 44c1 6a3d f7a2 a13d
00000050: 633a 73bd aed5 86bd 9c7a e03d 1dbd eb3c
00000060: a360 cc3c 73b7 83bb 7081 fe3d d6cc adbc
00000070: 258c f5bc 8fb2 283d c76f 643d a2b8 8bbd
00000080: 124c a1bd 40e6 2cbf c958 843d 5765 debc
00000090: 524a 43bd 1207 da3d c417 f5bc cda0 233d
000000a0: 52eb 653d 8976 463d 270c 08bd 38d8 db3d
000000b0: 7eca 84bd b814 fabb 7642 fd3c df59 743d
000000c0: de79 403d d2bb bf3b 882b 6f3d dc6c ad3c
000000d0: c3b9 a1bc 6911 c2bb d3fa b6bc a05d 313c
000000e0: 55b5 0bbe 0554 e1bc dd48 743c c695 af3c
000000f0: 9faf 773d 242d b63c f25a 963c 85f8 d63d
00000100: 054e ddbc 2f10 3fbd 8c6d 363d 6510 863d
00000110: eb49 c9bb 139a 853d c67b 1eba 07f1 593c
00000120: ed64 e93c 2017 f53c 8693 3b3d 5928 843d
00000130: b5af 7ebd c115 d43c 5c6b aabe 5592 1dbc
00000140: 41b2 83bd c0d5 38bc 2833 e8bd b23f 70bd
00000150: 09eb 4ebb be1e 3fbd 3093 7bbd 122a b7bb
00000160: 2a14 433b 4e7e 37bd 6d4c 733d e009 2d3c
00000170: dce5 b43c 1d02 853b a538 6ebd 0875 05bd
00000180: ab6b 9b3c 94a8 8fbc 4782 833d fec0 b8bc
00000190: d3f3 933d 116f 113d bb87 193c b6f7 b63d
000001a0: e4a0 143d b3aa 0f3d 0992 09bc 76f5 b1bc
000001b0: b298 adbc e957 413d eb56 383d a425 ca3c
000001c0: fd01 0b3d 7362 a2bd 035f 5ebd 4844 0d3d
000001d0: 5d14 20bf 3b5f 823d 9e22 233d cc9b 19bc
000001e0: e0bf 39bd a60c 203c 8c3e 0b3d c553 adbc
000001f0: 1f76 0ebd e97f 8d3d bac9 16bd 3cff bb3d
00000200: a4fc c13d 81ec 84bd 8a84 3cbc 7185 403c
00000210: 641c 12bd d922 6abd 8f53 9dbe 081e b33c
00000220: cf37 5aba 3c29 693b 6733 7ebd ef0b 49ba
00000230: 10a1 953d 9319 8e3c 9bf6 423d 7228 73bc
00000240: 0c30 71bc 93dc 933d 9eeb 83bd fde1 f4bb
00000250: ded2 75bd ad92 1d3d 7a4d 873d 49f2 5bbd
00000260: 5242 b53c a844 153c 337b 42bc 1330 4fbd
00000270: 6594 623d 5297 3c3d 2990 b2bc 53ed 2d3d
00000280: 97f6 163d e300 613d a857 823d 2edc 7b3d
00000290: 5a6c debc b9f3 1f3c 26d6 6fbb 13bd fcbc
000002a0: daf1 96bb 7c5e 303d 0a2e c3bc b7da 213d
000002b0: 6017 873d 2343 dfbc 0cdb 433d 7c54 a3bc
000002c0: a0b5 dbbc 2c56 5cbd bbea 913d c35a db3b
000002d0: 3f3d ea3d daf0 5f3d c373 a63d 48fe 0f3d
000002e0: 64b6 973c 9273 9a3d 6668 4fbc 4fdd 48bc
000002f0: 0943 5fbd 9d60 99bd 83fe 25bd f417 623d
00000300: 22cc 053d 1825 8f3d 15d5 f6bb da10 4d3d
00000310: 1b9e be3c e18f 3c3d 0d93 29bd 4538 413d
00000320: 560c 2f3d 9b85 a53d 01c1 9d3c a2db 293d
00000330: 2794 143d ef29 163d 8e00 8bbe c8f2 08bc
00000340: c172 5abd eeca 563c ee40 f1bc 9c9a bcbd
00000350: 75a8 733d e832 afbc 5abb 9d3c 686f 59bd
00000360: e868 24bd 4cdf 093d 1f21 1aba 8a54 763d
00000370: 9d12 033d 3779 d23d e9c8 303c b91a 6d3d
00000380: 7a9b 523d 5455 b53f 8098 28bc a69d 423d
00000390: 34a1 9fbb 0044 5e3b 0178 65bd 62f8 833d
000003a0: 5427 d63c b2fb 663d 094d 1ebd d76b 9fbb
000003b0: 2b16 1dbd d16e 193c ead7 a33c 1d1c 16bd
000003c0: c2c4 62bd 8f68 2c3c 1647 bcba 9de4 06be
000003d0: 0bbb f93b be22 7d3d 5561 58bd 7c0c 1fbe
000003e0: 2b13 7a3e 86f8 bf3d 7078 23bd ab55 a73e
000003f0: 6a54 d33c 9d96 d3bc 8200 e63c ac5a 023d

layers.3.bias f4 [192]
0.11617829 0.06756728 -0.16271646 -0.022228166 0.09929825 -0.057504058 -0.049186625 0.15868306
0.13697398 0.055008337 0.04889536 0.06847041 0.13596153 0.10292898 -0.08244793 -0.0028004374
0.07331707 0.18125643 0.09327977 -0.006041615 -0.04220003 0.21178186 -0.09353747 0.12091063
0.10283263 0.018956654 0.023238972 0.12778664 0.07775112 0.0068735774 -0.06448558 0.07034763
0.044484414 -0.08222949 0.17661743 0.14153962 0.08108626 -0.051415823 0.06151262 -0.07904089
-0.035933543 -0.06293334 0.032416992 -0.009893268 -0.053029224 0.13922356 -0.06990745 0.06566051
0.12787424 0.010641315 0.1288857 0.06381199 -0.02913999 -0.044631384 0.031699892 -0.028205808
0.015054156 0.08530048 0.093616426 0.19209594 0.0306017 0.013367513 0.028959177 0.032374155
0.09104218 0.1651556 0.040743068 0.051425222 -0.13731453 -0.012117229 -0.10394414 0.05753425
0.12677883 -0.06917017 0.14044455 0.22453739 -0.1114402 -0.04190667 -0.031950608 0.13499361
-0.07759021 -0.017722188 0.002005687 0.12002659 0.040184025 0.047121376 -0.0013428347 0.06915912
0.053169668 -0.044866137 0.09261411 -0.081302345 0.08565425 0.028368296 0.02498942 0.03836767
-0.0933354 -0.0014683505 0.07974791 -0.05014298 0.2295914 0.122720145 -0.03531153 0.057871457
0.017414898 0.015245456 -0.0457448 -0.020904236 0.015698466 0.13581328 0.040754654 -0.005298388
0.10979443 -0.026252916 0.118856266 0.19664967 0.058205817 0.0061857942 -0.04894106 0.1473681
0.03318699 0.035442717 0.16646601 0.18345241 -0.04416152 0.019575676 -0.020595502 0.112526506
0.0874401 -0.066450655 0.05197325 -0.06637646 -0.06706321 -0.15404926 -0.03365727 -0.009332693
-0.00033619817 0.1479513 0.019087385 0.0527369 -0.03823572 -0.069027536 -0.02886797 -0.04127474
-0.08975588 -0.07458639 0.005602248 0.084846854 0.041832417 0.22684108 0.10867282 -0.044928845
0.025143418 0.14454101 0.004936488 -0.07366483 0.09131986 -0.06622729 -0.025670793 -0.024177562
-0.046567343 -0.053451322 0.05989426 0.05592613 0.0468551 -0.013807761 0.04101758 0.12683655
-0.030630266 0.043624923 0.02629286 -0.059116863 0.06349613 -0.06934152 0.038422216 -0.015624091
0.0053373757 -0.0020570403 0.027173309 0.119210765 -0.07995619 -0.013667214 -0.069215626 0.047892164
-0.038162474 -0.079140045 -0.05548079 -0.016911479 0.034687903 -0.04886099 0.09853082 0.08146217
00000000: e2ee ed3d b760 8a3d 259f 26be d817 b6bc
00000010: e25c cb3d 6089 6bbd ea77 49bd d07d 223e
00000020: e842 0c3e 6c50 613d 8046 483d 373a 8c3d
00000030: 8039 0b3e 6ecc d23d 76da a8bd 8b87 37bb
00000040: 4327 963d 499b 393e 7709 bf3d bdf8 c5bb
00000050: f0d9 2cbd 58dd 583e 9390 bfbd fe9f f73d
00000060: ea99 d23d fc4a 9b3c a85f be3c 80da 023e
00000070: fb3b 9f3d bf3b e13b 0411 84bd 6b12 903d
00000080: 4a35 363d ef67 a8bd 33db 343e c3ef 103e
00000090: 8e10 a63d 6699 52bd a8f4 7b3d 31e0 a1bd
000000a0: 0d2f 13bd 32e3 80bd aec7 043d 6017 22bc
000000b0: 2c35 59bd 9f90 0e3e a32b 8fbd 0479 863d
000000c0: 77f1 023e e958 2e3c 9dfa 033e dcaf 823d
000000d0: fdb6 eebc 66cf 36bd bfd7 013d de0f e7bc
000000e0: b5a5 763c 05b2 ae3d f8b9 bf3d ccb4 443e
000000f0: 6bb0 fa3c 6a03 5b3c cc3b ed3c c39a 043d
00000100: 5374 ba3d 8d1e 293e 34e2 263d 41a3 523d
00000110: 2e9c 0cbe 5887 46bc aae0 d4bd 09a9 6b3d
00000120: 4fd2 013e 17a9 8dbd b2d0 0f3e 21ed 653e
00000130: c23a e4bd 54a6 2bbd a4de 02bd c43b 0a3e
00000140: 9ee7 9ebd 1f2e 91bc d871 033b 80d0 f53d
00000150: 0198 243d 5802 413d 0e02 b0ba 4ca3 8d3d
00000160: 70c8 593d 8ec5 37bd 77ac bd3d d881 a6bd
00000170: 7f6b af3d a164 e83c 9db6 cc3c 6b27 1d3d
00000180: a126 bfbd ab75 c0ba df52 a33d ba62 4dbd
00000190: 021a 6b3e b354 fb3d d3a2 10bd 9f0a 6d3d
000001a0: b0a9 8e3c 14c8 793c e65e 3bbd 5c3f abbc
000001b0: 129a 803c a312 0b3e 5aee 263d 1a9e adbb
000001c0: e7db e03d 5b10 d7bc ea6a f33d 885e 493e
000001d0: 3969 6e3d 34b2 ca3b 6c76 48bd aae7 163e
000001e0: 15ef 073d 622c 113d 1176 2a3e f3da 3b3e
000001f0: b6e2 34bd 2b5d a03c e6b7 a8bc 4c74 e63d
00000200: cc13 b33d 4817 88bd e7e1 543d 62f0 87bd
00000210: 7058 89bd 17bf 1dbe 35dc 09bd 27e8 18bc
00000220: c143 b0b9 8c80 173e 265d 9c3c a602 583d
00000230: 0f9d 1cbd 4f5e 8dbd 857c ecbc b40f 29bd
00000240: eed1 b7bd c0c0 98bd 1093 b73b 30c4 ad3d
00000250: 7858 2b3d 0749 683e db8f de3d 4f07 38bd
00000260: 92f9 cd3c 8f02 143e 43c2 a13b 96dd 96bd
00000270: e805 bb3d 2ca2 87bd 8e4b d2bc 0610 c6bc
00000280: 66bd 3ebd c6ef 5abd af53 753d cc12 653d
00000290: 22eb 3f3d f239 62bc 0d02 283d 71e1 013e
000002a0: 53ec fabc 0cb0 323d 2064 d73c 8624 72bd
000002b0: 420a 823d ed02 8ebd 9d60 1d3d 30fc 7fbc
000002c0: 27e5 ae3b 69cf 06bb 8f9a de3c c624 f43d
000002d0: 12c0 a3bd 73ec 5fbc ecc0 8dbd 932a 443d
000002e0: 4150 1cbd 2d14 a2bd d33f 63bd f189 8abc
000002f0: e714 0e3d 7622 48bd 87ca c93d a3d5 a63d
