deployment_models/model_(192, 192, 192, 192)_bs_64_mse_0.01785_mae_0.02562.pth (torch, 455175 bytes, 10 tensors)

layers.0.weight f4 [192, 3]
000000 5c c9 bc be 86 09 9b be 14 2d f1 be bc 33 cf 3e
       -0.36872375 -0.30280703 -0.47104704 0.40469158
000010 ef 74 2b bf 06 0f 96 be a2 03 d3 bd 80 fe c2 3e
       -0.669753 -0.29308337 -0.10303427 0.38084793
000020 dc 01 ec be 7b 1c d1 be bc 37 fc 3a 22 a0 64 bd
       -0.4609517 -0.4084204 0.0019242684 -0.055816777
000030 9a 2e 07 3f 92 38 5c 3e 24 8b ea 3e 1b 23 43 be
       0.52805483 0.21505955 0.4580928 -0.1905636
000040 63 08 53 be b6 13 98 bc 96 ad ff be b9 75 03 bf
       -0.20608668 -0.018564086 -0.49937123 -0.51351506
000050 cd 16 80 3e cb c0 bb 3c ef 9d 35 bf ce c0 38 3e
       0.25017396 0.02291908 -0.7094411 0.18042299
000060 25 6f 51 bc 2d 5c ae 3e 19 0e a5 3e f0 92 ec 3e
       -0.012782847 0.340547 0.32237318 0.46205854
000070 2e a4 0c bd 5b 35 e2 be 34 94 d2 3e 7f 87 9e 3e
       -0.03433626 -0.44181332 0.41128695 0.3096275
000080 d4 ba f4 3e d8 e8 54 be 70 0e a9 be 1b e1 0d be
       0.4779879 -0.20791948 -0.33018827 -0.13855402
000090 3b 6d 03 3f 88 f2 03 3d f1 1d de be 8d 83 12 3e
       0.5133855 0.032213718 -0.43382218 0.14307995
0000a0 f4 62 1c 3e 94 3c 97 3e fa 43 c0 be c9 ab a1 bd
       0.15272123 0.29538405 -0.37551862 -0.078940935
0000b0 54 14 84 be c9 23 72 3e 1d b1 18 bf f9 36 28 3e
       -0.2579676 0.23646463 -0.59645253 0.1642722
0000c0 73 31 82 be b3 91 aa bd 30 2f 9d bd c3 aa de 3e
       -0.25428352 -0.08328571 -0.07675016 0.43489656
0000d0 8c 33 b6 3e 70 6e 06 bf 89 f9 44 bd d6 bf 31 3f
       0.35586202 -0.52512264 -0.048089538 0.69433343
0000e0 98 92 c1 bd 7e 88 23 bf b1 56 c4 bd 60 82 f0 3e
       -0.09451789 -0.63880146 -0.095868476 0.46974468
0000f0 b0 a8 21 bf 7e 16 5f bc f9 31 ce 3e 0e af fd be
       -0.6314802 -0.013616202 0.402725 -0.4954762
000100 c5 c5 b4 bd 1d b8 4f 3e 6d 85 07 3f 84 a6 c3 3e
       -0.08826784 0.20285077 0.52937967 0.3821298
000110 d4 c8 d6 3e e0 89 3a 3e db f8 59 be 59 e7 aa 3e
       0.41950095 0.18216658 -0.21286337 0.3337963
000120 72 f0 9b be ad 8d 77 3e 38 ce bb bd 92 d5 df bd
       -0.30456883 0.24175139 -0.091701925 -0.10929407
000130 d8 97 1d bf 29 dd 44 3d 0e 38 b8 be 03 c0 ad 38
       -0.6155982 0.048062477 -0.35980266 8.285048e-05
000140 f4 88 90 bd 98 0b a4 3e 11 f8 20 3f 57 ca 86 3e
       -0.07057372 0.32040095 0.6287852 0.26326248
000150 d0 9f 8e 3e 06 76 2b 3e b7 ed 9e 3e 79 95 18 3e
       0.27856302 0.16744241 0.31040737 0.1490077
000160 85 f7 50 be 6d 78 ca 3e a3 36 89 bd 96 5b f5 be
       -0.20406921 0.39545003 -0.06699874 -0.47921437
000170 89 9f c7 bd 8f e2 a6 3d 35 b6 8e 3e 04 e6 41 be
       -0.09747226 0.08148681 0.27873388 -0.189354
000180 b0 93 cf 3e 38 0b f4 be d4 d2 6b bc e4 30 0e 3d
       0.40542364 -0.4766481 -0.014393527 0.034714594
000190 6b ba 13 be ad da 30 3d 59 ce 6c 3a 91 9c fb 3b
       -0.14426582 0.043177295 0.0009033434 0.0076785763
0001a0 4e a4 57 bd 36 83 0c be 98 8d e5 3e 5d 1e 56 be
       -0.052646928 -0.13721928 0.4483459 -0.2091002
0001b0 5b 76 9d 3e b1 aa b9 3e ad af f6 be ba 61 15 bf
       0.3075436 0.3626304 -0.48180905 -0.58352244
0001c0 c2 0f ba be b4 ac 81 3e 67 e7 96 3e 99 43 64 3d
       -0.36340147 0.25327075 0.2947342 0.05572853
0001d0 dc 52 d2 be a2 82 79 be 1f 9f 45 3d 99 e4 dd 3e
       -0.41078842 -0.24366239 0.048247453 0.4333847
0001e0 aa 4c 2d bd 75 33 24 bf 25 b2 36 be 44 0c f3 ba
       -0.04230944 -0.6414102 -0.17841394 -0.0018543084
0001f0 a5 16 24 3e 6b 42 18 be 40 c9 ce 3d 74 9c 84 3e
       0.16024263 -0.14869086 0.10096979 0.25900614
000200 f8 88 10 3c 24 3f 05 3e 78 f4 0e bf 65 8b bc 3e
       0.008821718 0.13012367 -0.5584178 0.368251
000210 c6 72 8b bd 58 56 b9 be a8 ac ce be e8 09 13 3e
       -0.06809001 -0.36198688 -0.403661 0.14359248
000220 c3 7c aa be 51 21 d4 3e d9 b1 2f bd 04 55 80 be
       -0.3329831 0.41431668 -0.042894218 -0.25064862
000230 d5 45 c7 be 9f ca a9 3d 2d 59 e2 3e 41 3d e8 3e
       -0.38920465 0.082906 0.4420866 0.45359233
000240 b6 4f c5 3e 04 0a d3 be 76 1c 4b 3e c5 08 e9 be
       0.38537377 -0.4121858 0.19835076 -0.45514503
000250 7c 65 6a 3d 85 97 01 bf 87 85 ad 3e a9 13 99 3e
       0.05722569 -0.50621825 0.33890936 0.29897812
000260 61 8c 4e be 95 a2 11 3f 5b 8f 0c 3d a7 ab d4 3e
       -0.20170738 0.56888705 0.034316402 0.4153721
000270 df 5d a6 3e 75 61 9e 3e b2 ac 83 3b ff 0c 4b bd
       0.32493493 0.3093373 0.0040183896 -0.04957294
000280 2a 42 c6 3e 26 45 ee be ae 0d a7 3d 81 6d d2 be
       0.38722354 -0.4653713 0.08156906 -0.4109917
000290 fa 98 7f be 6f e7 39 be e1 5d 51 bd a4 24 62 bc
       -0.249607 -0.18154691 -0.05111492 -0.013802681
0002a0 f4 b7 cc 3e b3 bc c3 3d a6 39 08 3d ce df 27 be
       0.39984095 0.09557476 0.033258103 -0.16393968
0002b0 56 61 3a 3e 4e a6 12 bf 4c 39 64 3d 04 e0 00 3f
       0.18201193 -0.5728501 0.055718705 0.5034182
0002c0 c5 3c 80 be 84 3d 8b be dc 2f 28 bf 94 87 27 be
       -0.25046363 -0.2719537 -0.6569803 -0.16360313
0002d0 00 5b 92 be ee af ad 3e 5b f9 aa 3d 88 76 d5 3d
       -0.28585052 0.33923286 0.08348342 0.10422999
0002e0 66 f2 05 3e fd c4 08 be 57 b7 d5 3e bc 71 5b 3e
       0.13080749 -0.13356395 0.4174144 0.21430105
0002f0 a8 a0 06 be a8 d0 17 be 3a 51 81 3d a5 4b c3 3b
       -0.13147223 -0.1482569 0.06314321 0.0059599453
000300 43 a1 cf bd 2b 6d f8 3e 0c a9 ec 3e f4 88 59 be
       -0.1013818 0.4852079 0.46222723 -0.2124365
000310 10 42 58 be 1e a7 12 3e 24 7a 9a be b1 1f 9f 3d
       -0.21118951 0.14321563 -0.3017131 0.077697165
000320 26 bc d5 3d 9d 32 d0 be bb ba 0f bd b7 3c a3 3e
       0.10436277 -0.40663615 -0.03509019 0.3188226
000330 e3 06 b1 be ea 66 0a 3f ec a5 94 3e 2a a5 a1 be
       -0.34575567 0.54063284 0.29032838 -0.31571323
000340 49 80 b4 3e 5c b0 c3 3e d2 36 83 3e c7 57 28 3e
       0.35254124 0.3822049 0.25627762 0.16439734
000350 07 50 b5 3e 76 f1 93 3e ce 62 92 3e 54 81 b0 3e
       0.3541262 0.28895158 0.28591007 0.3447367
000360 b8 16 fc 3e df 7b 19 3f d9 a2 af 3d d9 09 10 3e
       0.49236083 0.5995464 0.085759826 0.14066257
000370 84 27 b5 3e 9d c3 8e be 8f 0e 85 be 2c 72 e9 3e
       0.3538171 -0.27883616 -0.2598767 0.4559492
000380 61 79 32 be f3 c4 03 bf e6 3f bd 3e 8e 97 d4 be
       -0.17429115 -0.51472396 0.36962813 -0.41521877
000390 d3 ed 0e 3f f9 3c 24 be e7 15 fd be 2a 11 0f bf
       0.5583164 -0.16038884 -0.49430773 -0.55885565
0003a0 21 c3 cb bd de b9 a5 3e 86 c4 13 3e 81 f6 50 3e
       -0.09949327 0.32368368 0.14430436 0.20406534
0003b0 a4 ce e4 3e f5 05 da 3e da fe 1c 3f 38 42 f2 3d
       0.44688904 0.4258267 0.6132637 0.118290365
0003c0 5e 0d d1 be ed 8c f6 be fb 5f ad be 6f 7c f7 bc
       -0.4083051 -0.48154393 -0.3386229 -0.030210702
0003d0 a9 9b 89 3d 9d 15 73 be c9 c7 85 3e 13 71 f4 3d
       0.06719143 -0.23738714 0.26128986 0.1193563
0003e0 7b e5 df 3e b2 59 e3 3e 9f f9 bd 3e c6 2d dc 3e
       0.43729767 0.4440437 0.37104508 0.43003672
0003f0 fb b0 f0 bd 3d c5 a1 3d 32 7a 65 3e 56 fd 49 3e
       -0.11752506 0.07898948 0.22409895 0.19725546

layers.0.bias f4 [192]
000000 e2 7e d5 be ee 8c 26 bf 41 d7 09 3f 34 95 83 be
       -0.41698366 -0.6505879 0.53844076 -0.2569977
000010 b9 ae 66 3e f5 8f 72 3e 49 25 06 bf 44 b3 07 bf
       0.22527589 0.23687728 -0.5240064 -0.5300791
000020 97 d2 b0 be e2 93 a1 bd 00 12 dc 3e 9c 26 b4 3e
       -0.34535667 -0.078895345 0.42982483 0.35185707
000030 dd b4 05 3f cd 46 c7 be fe e6 d4 3d 71 06 0b 3f
       0.522291 -0.38921204 0.10395621 0.54306704
000040 bb 44 18 3f 54 2c 5c bc 1a 10 09 3f d8 bf 27 3c
       0.59479874 -0.013438303 0.53540194 0.01023861
000050 fe 73 ae be 62 15 c4 3d 91 da 0c 3f a5 91 09 3f
       -0.3407287 0.09574391 0.55021006 0.5373786
000060 da 22 bf be 75 46 e5 3e 77 5c 18 be ee 8b a8 3e
       -0.37331277 0.44780317 -0.14879023 0.32919258
000070 48 40 a8 3e 31 21 29 be 0b f0 b6 bd 8c d5 69 3d
       0.32861543 -0.16516568 -0.08932503 0.05708842
000080 8a 51 22 3c 7a de 92 3e 03 17 cd bd c8 00 18 3f
       0.009907136 0.2868536 -0.10014155 0.5937619
000090 7d 04 00 bf 05 2d 7b be 25 d2 86 be 85 af b3 bc
       -0.5000685 -0.24528892 -0.26332203 -0.02193428
0000a0 1f 12 a7 be 1d 19 3f 3e dc 5a 8b be 87 df f5 3d
       -0.32631013 0.18661924 -0.27217758 0.12005525
0000b0 38 7a fb bc 0b 6d bd 3e 36 92 db 3e 28 45 83 3c
       -0.030697927 0.36997256 0.42884988 0.016024187
0000c0 c7 ac b9 3d f4 34 b6 bd 67 0e ea 3c be e9 23 be
       0.09066158 -0.08896819 0.02857132 -0.16007134
0000d0 94 3e f0 be 51 b2 de 3e af a5 5b 3e 50 ea c8 be
       -0.46922743 0.4349542 0.21449922 -0.39241266
0000e0 fa 95 0a 3f 94 e9 9f 3e 9d d7 23 bf 86 33 b9 3e
       0.54135096 0.31232893 -0.64000875 0.36172122
0000f0 d4 73 95 be 20 2e ed 3e ac df 80 3e ac 98 d3 be
       -0.29189932 0.46324253 0.25170648 -0.41327417
000100 3e eb 80 be a6 a5 02 be ae 8b bd bd ef 7a c7 be
       -0.25179476 -0.12758502 -0.092551574 -0.38960978
000110 4b 44 10 3f 02 8e 28 3d 11 8f 8c 3e 5b e7 3e bd
       0.56354207 0.041151054 0.274529 -0.046607357
000120 71 1a 01 3f 7f 08 ef 3e 23 34 87 be 77 61 d7 3d
       0.5043097 0.4668617 -0.26406965 0.10516637
000130 72 36 7d be 94 cf 41 be c4 e0 f4 3e 00 35 68 be
       -0.247278 -0.18926841 0.47827733 -0.22676468
000140 1a 76 52 be 2a 8f 0b 3f 5f 9b fa be 2e 0a 21 3f
       -0.20552865 0.54515326 -0.48946664 0.6290616
000150 57 d6 f0 3e b6 b8 3c be 38 f2 8e 3e b5 a9 10 3f
       0.47038528 -0.18429837 0.27919173 0.5650895
000160 bf b3 a2 3e c6 f3 b4 bc d2 03 09 be 4c 54 92 be
       0.3177776 -0.022088896 -0.13380364 -0.28579938
000170 7a 08 c1 be 83 41 0f bf 45 ce 8f be 5f 20 62 be
       -0.3770178 -0.5595934 -0.2808706 -0.22082661
000180 7a 32 07 bf 36 e7 0c bf 7b bc 24 be 71 e4 3a be
       -0.52811396 -0.550403 -0.16087525 -0.18251206
000190 fa e4 a3 be 24 d3 de be 30 6a 49 3e b7 8d 79 be
       -0.32010633 -0.43520463 0.19669414 -0.24370466
0001a0 6f 4e 65 3e b1 5f 80 3e 27 5d 63 3e c4 11 de 3e
       0.22393201 0.25073007 0.22203504 0.4337293
0001b0 df 6d eb be 45 db 96 3e 5e 33 e3 be 60 1e fe be
       -0.45982262 0.29464164 -0.44375128 -0.4963255
0001c0 ce 3d fb bc 4c 1e c7 3e 8a a4 3e be 9c 7e cf bc
       -0.03066912 0.38890302 -0.18617454 -0.025328927
0001d0 2f 8a 1c 3f 04 29 f0 be 05 f0 84 be 94 be c5 3e
       0.6114835 -0.46906292 -0.2596437 0.38621962
0001e0 16 cc 27 bd 31 32 0e 3f c3 4c db bd 19 9c 35 bd
       -0.040966116 0.55545336 -0.107080005 -0.04433832
0001f0 5e 43 a0 3e 3b 1a 54 be 86 e8 15 3f fa 53 ed be
       0.31301397 -0.20713131 0.5855793 -0.46353132
000200 22 c5 44 bc 9f 63 31 bd 65 f7 99 3e b5 4b 41 bd
       -0.012009891 -0.043307897 0.3007156 -0.04719134
000210 2b 03 c0 be 1b 4e 6b 3e da 63 7a 3d 7a 7b da 3d
       -0.37502417 0.22979014 0.061130382 0.106680825
000220 71 f1 e4 3e fb 42 8c be fe 6f fc be d5 d7 da 3d
       0.44715455 -0.27394852 -0.49304193 0.10685698
000230 59 42 8c be 19 d9 b6 3e 80 09 81 bd dc 58 22 be
       -0.2739437 0.35712507 -0.0630064 -0.1585421
000240 7f b2 fe 3e 19 77 91 3d 59 63 02 bf a8 61 11 bf
       0.49745557 0.07102794 -0.5093284 -0.56789637
000250 02 d8 c2 3e e4 3a c6 be ac e8 8c be 5a 6b 4e be
       0.38055426 -0.38716805 -0.27521265 -0.20158139
000260 d3 d1 b6 be de 45 de 3e 4f 54 0b 3f 8e 14 53 be
       -0.35706958 0.4341268 0.5442552 -0.2061331
000270 6c b2 94 be ff 33 9e be 13 72 96 3d 79 c4 13 bf
       -0.29042375 -0.30899045 0.07345977 -0.5772167
000280 42 d0 de 3d 7d ee 34 be 78 d2 02 bf 78 f7 17 bf
       0.10879566 -0.17669101 -0.511024 -0.5936198
000290 e9 18 3b 3e f8 cc cd be e1 79 32 bf 34 7b bb be
       0.18271221 -0.4019544 -0.6971722 -0.36617434
0002a0 c5 bc 9b 3e 74 50 b7 3e 61 29 d9 3d 50 ae b1 be
       0.30417457 0.35803568 0.106035955 -0.34703302
0002b0 08 7b fa 3d 99 60 82 3e 92 53 c1 be e7 73 03 3f
       0.122304976 0.25464323 -0.37759072 0.5134873
0002c0 0d ce 4b 3a dc fa 98 3c d1 3e 0b 3d b4 07 f9 bd
       0.00077745394 0.018674307 0.033995453 -0.121596724
0002d0 8e 5e f1 be f7 a6 a5 3d e5 07 37 3e 04 64 bc bd
       -0.47142452 0.08088487 0.17874105 -0.09198764
0002e0 a5 52 db be 98 38 94 be 66 fb a3 3e ef 54 1a be
       -0.4283649 -0.28949428 0.3202774 -0.15071462
0002f0 66 78 be be b1 b8 94 3e c3 b0 d8 3e aa 01 9c be
       -0.37201232 0.29047158 0.42322358 -0.3047002

layers.1.weight f4 [192, 192]
000000 6e c0 d7 bc d7 d9 78 3b 16 45 04 bd 9c 99 fa bc
       -0.026336875 0.003797164 -0.032292448 -0.030590825
000010 b4 25 7d 3d 50 2c 30 bd 28 7d 49 bd 84 c5 ed bc
       0.061803535 -0.04301101 -0.049191624 -0.029024847
000020 3d dd 4f bd 1c e3 35 bd 7c a1 c9 bb 0d ab bf bb
       -0.0507481 -0.04440604 -0.0061532836 -0.0058492483
000030 4c 1e 9e 3c 33 c9 90 bd ae f1 5e 3d c6 48 49 bd
       0.019301556 -0.07069626 0.054429702 -0.049141668
000040 60 50 52 bd 4d 27 7e bd 04 1b 69 bd 98 bb 11 3d
       -0.051346183 -0.0620492 -0.05691053 0.035579294
000050 64 23 7b bd 5c c3 42 bd 03 48 be 3c 69 83 95 bd
       -0.061313048 -0.04754959 0.023227697 -0.07300455
000060 63 01 91 bd 7e 75 82 3c 75 8d 05 bc 4f 8e ec 3c
       -0.070803426 0.015925165 -0.008151402 0.028876452
000070 ea 2e 1c bb 40 8a cd 3c 19 7f d8 3c 94 57 c9 bc
       -0.0023831674 0.025090337 0.026427792 -0.024577893
000080 b4 9c 6d 3d 07 f5 ac 3c 9a 71 48 3d 41 ba 99 bb
       0.058010772 0.021112932 0.048936464 -0.0046913926
000090 09 53 12 3c f7 0e 7e bd b2 dc d0 bb ce 9c 9a 3c
       0.00893093 -0.06202599 -0.006373965 0.018873598
0000a0 64 ac e2 3c 82 10 e5 bc a9 9a 31 3d db 35 26 3d
       0.027670093 -0.027961973 0.043360386 0.040578704
0000b0 3b 9a 8d 3d 0a 37 6b bd f8 30 e6 bc 67 e5 e1 bc
       0.06914183 -0.057425536 -0.028099522 -0.027575208
0000c0 90 a5 bc bc 92 a5 47 3d b3 77 1f 3d da f2 34 bd
       -0.023028165 0.048741885 0.038932513 -0.044176914
0000d0 67 f9 e3 ba 16 8d 09 bd 4f 0d 29 bd bd 51 ee 3c
       -0.0017393053 -0.033581816 -0.041272458 0.02909171
0000e0 8c c7 25 bd 50 8b bc 3c e4 77 26 bd 22 b3 0a bd
       -0.040473506 0.023015648 -0.04064168 -0.03386224
0000f0 5c 3f 11 3d 3a 94 78 3c de 4c 1d 3d a3 6c 36 bd
       0.035460815 0.015172059 0.038403384 -0.044537198
000100 b2 05 eb 3c 2e 28 b0 bc 7b ca 83 bd 42 41 64 3c
       0.02868924 -0.021503534 -0.064351045 0.013931574
000110 47 9b 4e 3b dc e4 b3 bb 03 e7 8d bd af 1a fe bc
       0.0031525658 -0.0054899286 -0.069288276 -0.031018583
000120 52 d4 9f bc f8 8f 6f bd 0a 84 27 3d 4b 4a 25 bb
       -0.019510422 -0.05848691 0.040897407 -0.0025221284
000130 c5 3f f0 bc 84 63 1f bd e8 a9 1d bd 2d 8b 0a bd
       -0.029327283 -0.038913265 -0.038492113 -0.033824135
000140 fa fa da ba 07 9b 24 3c 2d a3 70 3d 5f db 37 3d
       -0.0016706877 0.010046727 0.058749367 0.044886943
000150 6e 2f 16 3d 4f 64 8f 3d 74 a1 c3 bc 5b 3f 42 3d
       0.036666326 0.07001554 -0.023880698 0.0474237
000160 ef 9a ed bc 76 50 7a bd 54 09 7e bd b1 fb 77 bd
       -0.029004542 -0.06111189 -0.062020615 -0.060542766
000170 9c 78 93 bd a1 95 80 bb ca af 4c 3d 33 db 0b 3c
       -0.07200739 -0.003924087 0.049972333 0.008536148
000180 59 eb 86 bd 78 1b c9 bb 89 d7 48 3d aa 3e b1 bc
       -0.06587858 -0.0061373077 0.049033675 -0.021636326
000190 0c cd 9e bc 18 a8 5b bd 68 f9 58 3d 06 19 39 3b
       -0.019384883 -0.053627104 0.052972227 0.0028243675
0001a0 3f ed 25 bd 41 d8 76 3d 14 39 40 3c f7 93 9b bc
       -0.04050946 0.06026483 0.0117323585 -0.018991454
0001b0 2a 11 b7 bb 9b c3 93 bc ca ee 27 3d 67 00 b7 bc
       -0.005586763 -0.018037608 0.04099921 -0.022339059
0001c0 6b 2d 6a 3c 1a b4 35 bd 95 f1 e1 3c a0 76 fc bc
       0.014293055 -0.04436121 0.027581016 -0.030818284
0001d0 2c fa 88 bd a6 80 b8 3b c4 32 69 bd f8 e4 a9 bc
       -0.066883415 0.0056305705 -0.05693318 -0.020739064
0001e0 69 a8 20 bd eb 2c ba 3c 16 8a 72 bd 12 74 20 bd
       -0.03922311 0.022726497 -0.05921372 -0.039173193
0001f0 e5 ec e5 3c b0 bf ba 3c b2 be 84 3d 02 00 97 bd
       0.028067062 0.022796482 0.06481685 -0.07373048
000200 7c 77 a4 3b b0 fd 12 3d fd b5 e3 bc d4 18 f7 3c
       0.0050191265 0.035886467 -0.02779674 0.030163206
000210 ef a4 fd 3b a6 1c b7 bb aa b4 fc bc a2 a9 ba 3b
       0.007740609 -0.005588132 -0.030847866 0.0056964913
000220 f4 73 93 bb 91 42 5a 3d 03 e2 38 bd 66 5f 43 bd
       -0.0044999067 0.05328614 -0.045137417 -0.0476984
000230 7c c1 ed bb ed bd 3e bb 78 4a ca bc 93 39 0c bd
       -0.007255731 -0.0029104904 -0.024693713 -0.034234595
000240 80 c3 06 bd 73 dc 4c 3d a2 0d 88 3d 04 97 33 bc
       -0.032901287 0.050014924 0.06643225 -0.010961298
000250 e4 c9 7b bd 96 9a 19 bd b7 66 e7 bb cc 20 21 bd
       -0.061471835 -0.03750094 -0.007061805 -0.03933792
000260 e0 c7 40 3d 80 2f 76 bd 01 f1 44 bd 19 79 16 bd
       0.047065616 -0.060103893 -0.0480814 -0.03673658
000270 f2 bc 6c bd 13 71 1d 3c 9f e7 df 3c 26 63 5b 3d
       -0.05779738 0.0096094785 0.027332125 0.053561352
000280 3a 87 ff bb 80 63 0e 3d cf 0b 68 3d 34 2a 34 3a
       -0.0077981027 0.03476286 0.056651887 0.0006872744
000290 cf 18 d4 bc 01 24 0a bd a2 51 8d 3d 89 23 92 3d
       -0.025890736 -0.033725742 0.06900336 0.07135684
0002a0 da 46 8f bd cc c0 2d bd 93 95 eb bb 1e e2 24 3d
       -0.06995936 -0.042420194 -0.0071894615 0.040254705
0002b0 56 0c 8c bd 72 f4 8a 3d ef ef bd 3b 87 5c f9 bc
       -0.068382904 0.067849055 0.0057964246 -0.030439628
0002c0 ca 3e 07 bc d4 a4 67 3d 01 4f 08 3d ab 61 31 3d
       -0.008254716 0.056553677 0.03327847 0.043306034
0002d0 4c 1a 64 3d f7 6b b5 bb 60 01 c1 bb 79 80 46 bc
       0.05568914 -0.005536552 -0.0058900565 -0.012115591
0002e0 de e8 51 3d 3e 39 0f bc dd 68 d1 3b 25 24 7c 3d
       0.05124747 -0.008741675 0.0063906745 0.061557908
0002f0 7f d0 4a 3d 20 b0 ab 3c 43 03 1f 3d 6e 3a 7f 3d
       0.049515244 0.020958006 0.03882147 0.062311582
000300 89 f1 16 3d 6b 03 d5 3c 8a 30 46 bd 56 02 33 be
       0.03685144 0.026002606 -0.048386134 -0.1748136
000310 04 6c d2 bc b1 2c 00 3d 0a 00 58 bd 29 b4 17 be
       -0.025686271 0.03129262 -0.052734412 -0.1481482
000320 63 5e 46 bd e8 e5 a0 bc 80 81 25 3d aa aa 77 bd
       -0.048429858 -0.019640878 0.040406704 -0.060465492
000330 4d 1d 43 3c 95 7a 81 bc 24 01 82 3c ca 35 89 bd
       0.011908841 -0.015805522 0.015869685 -0.066997126
000340 42 bc cb 3c d7 76 f6 3b a8 83 8c 3d ee ba 9e bd
       0.024870042 0.007521491 0.06861049 -0.07750498
000350 1f 52 d6 bc 57 66 39 3b 26 80 07 bc ea f6 05 3d
       -0.026162205 0.002828976 -0.008270299 0.03270618
000360 ac 36 b3 3d 87 cd 1c 3d 00 25 c5 bd 7b c0 75 bd
       0.08750662 0.038281944 -0.09626198 -0.059998017
000370 60 17 72 bd 00 ce 81 3b a4 b8 e0 3c c7 75 6f bc
       -0.059104323 0.0039613247 0.027431794 -0.014615483
000380 2c cf af bd 06 12 80 bd ed 77 d5 3c a1 0b 5c 3d
       -0.08584437 -0.06253438 0.026058162 0.053722028
000390 3f b3 05 3d a7 8b 9d bc 80 87 aa bd 3b ed 8f bd
       0.032641646 -0.01923163 -0.08326626 -0.0702767
0003a0 26 7f ca bd a3 8b d9 3c bd ee e9 3c 36 9d 56 3c
       -0.09887533 0.026555842 0.028556222 0.013099005
0003b0 db b3 91 bc fc 12 98 bd dc 64 d3 bc da 9b 98 bd
       -0.017785957 -0.07425496 -0.02580493 -0.07451601
0003c0 c7 95 7b bd cc bf e6 3c aa c5 d6 bc ff 99 eb 3c
       -0.061422136 0.028167628 -0.0262173 0.028759954
0003d0 47 a2 fa 3c c7 9b b5 3c 3b 53 73 3d 1f f8 ed 3b
       0.030594958 0.022169007 0.059405547 0.0072622444
0003e0 4d 67 8e 3c dc 90 b3 3a 16 d2 b9 3d 06 7b ac bd
       0.017383242 0.0013699788 0.09073274 -0.08421902
0003f0 72 91 37 bd b6 3d 5b 3d fa 30 6a 3b e8 f4 ca 39
       -0.04481644 0.05352565 0.0035734759 0.00038710912

layers.1.bias f4 [192]
000000 6d e0 8b bd b4 06 54 3d a9 08 11 3c f3 b2 9a 3d
       -0.06829915 0.051764205 0.008852162 0.07553663
000010 21 0f 15 bc 98 e4 29 3d f8 41 fb ba 0c 95 8f bc
       -0.009097845 0.04147777 -0.001916944 -0.017527126
000020 e2 7c b0 bd df f1 99 3c ca 09 b4 bd c3 b4 80 3d
       -0.086175695 0.018792091 -0.087909296 0.062844776
000030 2d 8a a4 3c 8e 27 a2 3b 95 ea ac bd 96 64 8d 3d
       0.020085419 0.004948563 -0.084431805 0.06903951
000040 d0 3f 21 bd d6 5f 2c bc b0 72 c6 bd 1b f2 00 3d
       -0.039367497 -0.010520896 -0.09689844 0.03148089
000050 40 54 08 3d ea f5 91 bd 9c c7 f3 3d 4e 58 9a bd
       0.033283472 -0.071269825 0.11903307 -0.07536374
000060 e5 81 33 bd 1d ac 38 bc c5 35 ea bc 26 28 ce 3c
       -0.04382505 -0.011271504 -0.028590092 0.025165629
000070 49 59 39 3d f9 fc df 3c 5c 19 3b 3d 94 18 f7 3c
       0.045251165 0.027342306 0.04567848 0.030163087
000080 25 d8 ad 3c c0 24 b0 3d a4 d3 9a 3c b9 64 49 3d
       0.02122123 0.086007595 0.018899746 0.049168322
000090 e4 13 17 bd 6c 6f 67 3d 4f c0 7f 3c aa d8 9b 3c
       -0.036884204 0.056502745 0.015609815 0.019024212
0000a0 44 a5 47 bd fc 52 71 3d 56 90 15 3d a7 ab b6 3d
       -0.048741594 0.05891703 0.036514603 0.08919459
0000b0 40 b7 90 bd c4 70 06 3c ef 0b 9c 3c ad 05 b4 3c
       -0.07066202 0.008205596 0.01904866 0.021975363
0000c0 06 d0 b0 3d 82 36 2a bc 49 2c aa bc 16 02 58 37
       0.08633427 -0.010388972 -0.02077307 1.2875089e-05
0000d0 f6 eb ab bc b1 6f ab bc 1d 5a 92 3c 92 c4 9d bc
       -0.020986538 -0.020927282 0.017865235 -0.019258771
0000e0 5a e1 df bc 3c 8a 61 3d 0d 9a 3b bd 8f 45 1d bc
       -0.027329136 0.05506347 -0.04580121 -0.009599104
0000f0 69 bc 53 bd cc 02 06 bd eb 31 19 ba c5 34 6f 3c
       -0.051693354 -0.03271751 -0.0005843925 0.014599984
000100 f0 ed c1 bd 54 f8 44 bd e9 5f a0 3d d9 aa 61 3d
       -0.09469211 -0.048088387 0.078307934 0.055094574
000110 f4 02 1f 3d 69 d8 d8 bc 84 fc 9b bc 8f 84 2f bd
       0.038821176 -0.02647038 -0.019041307 -0.042851027
000120 a4 af 95 3c d9 9e 8a 3a f5 85 65 bc cc f8 1e 3d
       0.018272229 0.0010575905 -0.014008989 0.03881149
000130 d8 1b a7 3d ad 64 4e 3d 94 52 26 3b 51 ca 3b 3d
       0.08159608 0.05038898 0.002537881 0.04584724
000140 29 81 3f 3d 0c 02 02 3d c7 77 bb 3c 8d 52 7a 3d
       0.046754036 0.031740233 0.022884263 0.061113883
000150 a2 f7 55 bc 21 a4 45 bd 0d 61 01 bc 5a 3f 46 3c
       -0.013059529 -0.04825223 -0.007896674 0.012100065
000160 8d b0 11 bd cd ae e2 3b c5 2b 22 bd 33 1c 86 bd
       -0.035568763 0.0069178105 -0.039592523 -0.06548347
000170 2c 85 1f 3d eb 29 97 bd ee 0c cf bc 2c de 46 3d
       0.038945362 -0.07381042 -0.02527472 0.048551723
000180 6b 97 87 bc 0a f0 e0 3c 71 4c 12 bd f7 76 1f bd
       -0.016551694 0.02745821 -0.03571743 -0.038931813
000190 f2 47 a5 bd 92 46 d0 bc 46 8f 2e bd 9c 99 0b bd
       -0.08070363 -0.025424276 -0.042617105 -0.03408204
0001a0 3c 40 91 3d ce a5 20 bd 23 f1 28 3d ce 9a 80 bd
       0.0709233 -0.039220624 0.04124559 -0.06279527
0001b0 39 0b 8f 3d 19 d2 c9 3d 2a 32 8b 3b 7c 44 91 bd
       0.069845624 0.09854526 0.0042479234 -0.070931405
0001c0 a6 19 d8 3b 65 eb f4 3d b5 42 71 bd 49 27 46 bd
       0.0065948544 0.119589604 -0.058901507 -0.04837731
0001d0 d2 18 64 3d ef 55 93 bd 13 f6 2c 3d 74 1f 07 3d
       0.055687733 -0.07194125 0.042226862 0.03298898
0001e0 4e 68 d6 3d 14 20 06 3d 71 c4 0a bb 51 c1 fa 3c
       0.10469113 0.032745436 -0.0021174217 0.030609759
0001f0 ff 6e 08 3c 67 f5 84 3c 2d 38 37 3d a8 85 15 bd
       0.008327245 0.016230298 0.044731308 -0.036504418
000200 99 ed 87 bd e1 d9 6f 3d aa 64 a2 bc c8 db 9f bc
       -0.06637115 0.058557395 -0.019823391 -0.01951398
000210 3b cb de bb 43 c0 0c 3d 09 63 8a 3d 48 76 77 3d
       -0.0067991293 0.034363043 0.06757171 0.060415536
000220 3b c4 45 bd 3a 84 75 bc 57 c0 a0 bd a9 08 81 bd
       -0.048282843 -0.014985139 -0.07849186 -0.0630048
000230 e3 e0 d2 3d 96 bf 92 bc 7d ca 58 3d 37 ad 4c 3d
       0.102968 -0.01791362 0.052927483 0.049969878
000240 85 a7 f4 bc a6 1f 97 3d 63 96 0b 3c d0 4d 9b bc
       -0.029865036 0.07379083 0.008519742 -0.018958002
000250 49 81 31 3c a9 f7 77 bc 1d 93 0f bc 12 46 83 3d
       0.010834047 -0.01513473 -0.008763102 0.06409849
000260 b5 27 9d bc 2f 00 b5 bd fe 6f 57 3d d5 5b 86 bc
       -0.019183973 -0.08837926 0.05259704 -0.01640121
000270 dc 54 5b 3d 76 30 ee bc 9e 5e d1 3b 43 29 ab 3d
       0.053547725 -0.029075842 0.006389453 0.083574794
000280 9f b6 fc bb 1f 2b 3a bb 78 19 0d bd 53 48 9c bd
       -0.0077122 -0.002840705 -0.034448117 -0.07630982
000290 ff 80 aa 3a da 62 33 bd 37 e7 54 3c b2 54 92 3c
       0.0013008415 -0.043795444 0.012994579 0.017862651
0002a0 91 09 12 bd 07 d9 e1 3c 8c cd d5 bb 0e 56 8b bc
       -0.035653654 0.027569307 -0.0065247472 -0.017008808
0002b0 7f 45 29 bd 07 e3 d7 bc 7f 57 5c 3d f0 80 42 bc
       -0.041326042 -0.026353372 0.05379438 -0.011871561
0002c0 98 76 8c bd d7 d5 e1 bc 14 19 47 3d e6 97 f9 3c
       -0.068585575 -0.027567787 0.0486079 0.030467939
0002d0 fd 0d 62 3c 3e 7c a8 3d e8 7d 51 3d 8d 6f 2d bd
       0.01379728 0.08226822 0.051145464 -0.04234271
0002e0 ba 34 76 3d 71 de ab 3b 79 2a 88 3d ad 9f a6 bb
       0.060108878 0.005245023 0.06648726 -0.005084953
0002f0 be 99 91 3d 72 e0 4e bd 33 02 8f 3b c7 d4 4a 3d
       0.07109402 -0.050507016 0.004364276 0.049519327

layers.2.weight f4 [192, 192]
000000 0f c5 8b bd be e9 25 bd 7a 9e 01 bd 61 71 99 3d
       -0.06824695 -0.040506117 -0.031645276 0.074923284
000010 ec ae 02 39 66 64 f2 bc d6 c8 35 ba 4f 00 a9 bd
       0.0001246293 -0.02958889 -0.0006934529 -0.08252012
000020 32 ee 5b bc 01 c6 d2 3d d3 8f f8 bc ba a0 0d 3d
       -0.013423489 0.102916725 -0.030342018 0.03457711
000030 b0 1e 8a 3d 4c 48 12 bc f3 b3 f8 3d c2 ab 60 3d
       0.067441344 -0.00892837 0.121436976 0.0548513
000040 6d 53 39 bd 9b b2 d7 3d c6 43 4a bc d7 1b f0 3c
       -0.045245577 0.10532113 -0.01234526 0.02931015
000050 7e e7 08 3e 21 a7 95 3d 10 0f 88 3d f3 7f fc bc
       0.13369557 0.07307268 0.06643498 -0.03082273
000060 50 15 0b bd 6c 0c 90 3c bd df 92 bd ee 52 57 3d
       -0.033955872 0.017584048 -0.07171581 0.052569322
000070 61 65 b9 3d f0 21 0b bc 1f ac dc 3d d7 1a 7f bc
       0.090525396 -0.008491978 0.10775017 -0.015570364
000080 c2 b2 76 3b dd af 31 3d 17 c1 64 3c a9 d9 58 bd
       0.003764317 0.043380607 0.013962052 -0.052941952
000090 fe 68 0c 3d 88 9c aa bb c3 ab 0b 3d 01 48 a4 3d
       0.034279816 -0.0052066483 0.03409935 0.08021546
0000a0 6d 7b e3 3c b7 b6 9f 3d 2b 05 c8 bc 9f ad 01 3c
       0.027768815 0.07798522 -0.024416527 0.00791493
0000b0 35 b1 8c 3c 59 d9 9c bc 10 5b 91 3d 41 55 a7 3b
       0.017174343 -0.019146608 0.07097447 0.0051065986
0000c0 3f a7 c8 bc fc b2 36 bb 9f f8 7e 3d 9e 32 e9 bc
       -0.024493812 -0.002787768 0.062248822 -0.028466519
0000d0 a7 21 d6 bc e7 d2 ef 3c 50 26 b3 bc 29 02 a9 3c
       -0.026139094 0.02927537 -0.021868855 0.020630913
0000e0 c3 23 1f 3c d8 34 dd bc e2 d0 bf 3c 46 1c 85 bb
       0.009713116 -0.027002737 0.023415033 -0.0040622083
0000f0 6a ec d5 bc 18 01 67 3d a8 33 c7 3d f9 80 0c bd
       -0.026113708 0.056397527 0.097266495 -0.034302685
000100 0d c8 6c 3c da fd e3 bd bf 5e 82 3d 4b 55 e3 bc
       0.014451993 -0.11132403 0.06365728 -0.027750632
000110 da 70 6d 3d ef a5 29 bd 17 ed b8 3d 6b ae 74 bd
       0.05796895 -0.041418012 0.09029596 -0.05973665
000120 30 f6 3c 3d fe 41 14 bc 8f aa 91 bb 13 cc 50 3b
       0.04613322 -0.009048937 -0.004445381 0.003185992
000130 bd d0 9d 3d 2f 52 76 bd 36 c4 83 3d 57 7e 6b bc
       0.07705829 -0.06013697 0.06433909 -0.0143733835
000140 4c c0 17 3d 86 a5 45 3d fb b7 97 bc 88 96 85 3c
       0.037048623 0.04825356 -0.018520346 0.01630713
000150 17 c8 cc 3d 8b 69 c5 3c 6a fc 3d bd 12 68 56 bc
       0.099991016 0.024098178 -0.0463833 -0.013086336
000160 bb 67 91 3d 92 43 a2 3d fa 35 8b bb fa c3 4e 3d
       0.07099863 0.07923044 -0.004248378 0.050479867
000170 e8 88 52 3d f3 fa b0 ba 62 19 55 3d 4a af 63 3c
       0.051400095 -0.0013502523 0.05202616 0.013896773
000180 8d 2f 25 bc 47 fb 88 3d ee 47 c3 bc cd 10 43 bd
       -0.010082138 0.06688552 -0.02383801 -0.047623444
000190 03 33 19 3e 70 9e 38 bd d9 a4 8b 3d ba a6 18 bd
       0.14960866 -0.045072973 0.068185516 -0.037268378
0001a0 d4 2f 93 3d 5f 10 8a bc 6b 25 22 bd ec 4c 93 bb
       0.07186857 -0.01685351 -0.039586466 -0.004495254
0001b0 b8 5a 97 3d 31 b9 6d 3d 6f 9a 23 bd 92 06 7c bc
       0.0739035 0.05803794 -0.0399422 -0.015382426
0001c0 2f cc 37 3c 34 35 61 3d 00 87 62 bd e0 e1 c4 3c
       0.011218115 0.05498238 -0.055304527 0.024033487
0001d0 55 ec cc 3b 30 97 fe 3a 74 eb ab 37 c9 df f1 3c
       0.006253759 0.001942372 2.049443e-05 0.029525654
0001e0 2c e9 8e 3d fa f4 c8 3c d5 b1 55 3d 91 a0 3b bd
       0.06978068 0.024530876 0.052171547 -0.045807425
0001f0 5b e2 87 bc 3b c7 5f bd f7 84 f9 bc 5b b4 89 bb
       -0.016587427 -0.05463336 -0.03045891 -0.0042024083
000200 ca 4a f4 bc 5f 73 cc bb ef 40 ff bc 06 ef 3b bd
       -0.029820818 -0.0062393392 -0.031158892 -0.045882247
000210 4a 44 d6 3c 1d d8 d8 bc e0 c8 de bc 3d 34 91 bd
       0.02615561 -0.026470238 -0.027195394 -0.07090042
000220 5a 7a 71 3d 43 7d 9d bc eb 05 aa 3d 02 91 37 bc
       0.058954574 -0.019224769 0.0830191 -0.011204006
000230 35 2b 21 bd a6 16 04 bd 2b 89 87 3d 1f 29 70 3c
       -0.039347846 -0.03224816 0.066179596 0.0146582415
000240 58 fb 40 3d 4d e2 7c 3d d1 65 5f 3d b8 cb 18 3c
       0.0471147 0.061739255 0.05454046 0.009325914
000250 e6 18 35 bd 50 d6 de bb 0c d8 9c 3d 93 ed 69 3c
       -0.044213198 -0.0068004504 0.07658395 0.0142778335
000260 7f dc ab bc 54 85 05 be 54 82 05 3e 1f 28 3d bc
       -0.020979164 -0.13039142 0.13037997 -0.01154521
000270 df 9b 90 bc 66 38 7f 3d 96 31 25 bd 82 9b 3d bd
       -0.01765245 0.062309645 -0.040330492 -0.046290882
000280 da f1 0d bc 4a 6e 6c 3d df f5 30 bd 49 f1 bd bc
       -0.008663619 0.057722367 -0.04320323 -0.023186343
000290 43 6b 56 bd d0 f8 7b 39 3c 57 c0 3c a4 3a 75 3d
       -0.052348386 0.00024029915 0.023479097 0.059870377
0002a0 7a 32 4f 3d d5 5a 91 3d 04 f8 a1 bb 43 fd e1 bc
       0.050585248 0.07097403 -0.004942896 -0.027586585
0002b0 d2 fb 7b bc 82 d1 96 3c f2 dc 98 bd ec b5 8c bc
       -0.015379863 0.018410448 -0.07464017 -0.01717659
0002c0 88 98 5f bd e8 83 eb bd 52 3c ab bb 84 41 ec 3c
       -0.054588825 -0.114997685 -0.0052256966 0.028839834
0002d0 4a bf 26 bd 6c b8 db 3d be 81 e9 bb 82 b2 d0 bc
       -0.04070977 0.10728535 -0.007126062 -0.025475744
0002e0 ef 0d c5 3c b1 4a 36 bc 96 a8 f2 bc 89 6f 66 3c
       0.024054496 -0.011126206 -0.029621404 0.014064678
0002f0 e9 d9 a3 3a 27 80 c2 bb 45 c0 06 bd 8a d3 4d bd
       0.0012500855 -0.005935687 -0.032898206 -0.050250567
000300 4d 32 7a 3c c6 bc 51 bd 67 9d 82 bd cb 78 07 be
       0.015270782 -0.05120542 -0.06377678 -0.13229673
000310 9d 44 3f bd 78 09 53 bc 43 b6 7e 3d 7e 0c 80 bc
       -0.046696294 -0.0128806755 0.062185537 -0.015630957
000320 79 c7 3c 3f 48 c6 39 bd fd a8 95 3d 62 94 28 3d
       0.7374187 -0.04535511 0.073076226 0.041157134
000330 b2 1d c1 bd c6 ff 8f 3d 44 a7 3d 40 fd ab 8a 3c
       -0.09429492 0.07031207 2.963334 0.016927714
000340 cb f5 31 bd 65 f9 1e be e5 06 2a 3c 04 11 10 be
       -0.043447297 -0.15524824 0.01037762 -0.14068991
000350 47 a4 16 bd 93 08 bd 3c ec 28 c5 3d ba 7d 67 bc
       -0.03677776 0.023075378 0.09626946 -0.014129097
000360 c0 57 f2 39 a7 51 08 bc b4 ca c9 bb 87 fa c2 3c
       0.00046223216 -0.008320249 -0.0061581973 0.023801101
000370 03 94 ba bd be fd 90 bd fc 5e e3 bb 23 df eb bd
       -0.09110262 -0.070796475 -0.0069388133 -0.11517169
000380 8b 91 6e 3d cb 1b 0b bd 03 4d a7 3c 2c a0 d3 bc
       0.05824427 -0.033962052 0.020422464 -0.025833212
000390 9b 63 6b 3d 87 64 c4 ba 9c 63 ca 3c be 31 10 bd
       0.057468038 -0.0014983573 0.0247057 -0.035203688
0003a0 cf cd 0e 3d d0 94 a9 bd aa 87 05 3d 05 89 b8 bc
       0.034864243 -0.08280337 0.032600082 -0.022526274
0003b0 c9 ab 7b 3b e6 f3 69 3c d2 02 0c bd 10 0f 80 3b
       0.0038401952 0.014279341 -0.034182377 0.0039080456
0003c0 13 12 dc bd 91 96 8c 3c 13 21 55 3d 9a bd 9f 3d
       -0.10745635 0.01716164 0.052033495 0.077998355
0003d0 b0 51 a2 bb b8 64 92 bd 31 ad 69 bd ab 74 24 3d
       -0.0049535856 -0.07148117 -0.057049934 0.040150326
0003e0 7f 93 81 bc 56 d0 9c 3b 32 e8 2e 3c be 84 80 bc
       -0.015817402 0.0047855778 0.010675477 -0.015688296
0003f0 53 17 93 bc 72 50 ef 3c 66 74 4d 3d 6d 01 03 3e
       -0.017955458 0.029213164 0.050159834 0.12793513

layers.2.bias f4 [192]
000000 69 f4 ac 3d 63 6a 65 bc 62 93 c0 3c 71 4e 52 bd
       0.08445055 -0.014002415 0.023507778 -0.05134434
000010 e8 18 4c bd 83 33 b4 bb 80 a8 8c bd a0 e3 16 3e
       -0.04982844 -0.0054993047 -0.06868076 0.1473527
000020 cf 12 75 3d 80 44 d6 bc b2 ff 90 bc c9 d8 57 bd
       0.05983239 -0.02615571 -0.01770005 -0.052696977
000030 7a 71 80 bc eb 3b 9e 3d 11 5b 35 bd f5 aa ac bc
       -0.01567911 0.07726272 -0.0442763 -0.021077612
000040 06 58 32 3c f8 13 83 3d 9a 2e 04 3d f4 4c fd 3d
       0.010885244 0.06400293 0.032271005 0.12368193
000050 47 03 87 bd 6f bd bc 3c f3 51 29 3e 7e 9e c9 3d
       -0.06592422 0.023039548 0.16535167 0.09844683
000060 9c 68 7e bc c3 00 5b bb 97 e2 92 3d 8e 0e 05 bd
       -0.0155278705 -0.0033417202 0.07172125 -0.032484584
000070 0a 4d b7 bb 60 82 ca 3d 3e 9e c9 3d 0f fc 66 3d
       -0.0055939006 0.09888148 0.098446354 0.056392726
000080 ce 5c 70 bb cc b7 6e 3c db 28 12 bb e5 84 4b 3d
       -0.003667641 0.014570188 -0.0022302184 0.049687285
000090 6b 84 89 3c 9a 5a 89 3d 49 71 e3 3c 1b f5 05 3c
       0.016786775 0.06706734 0.02776398 0.0081761135
0000a0 8e 3c 8a 3b 12 23 3f 3d be 08 53 3d 91 7f 07 3e
       0.0042186445 0.046664305 0.05152201 0.13232256
0000b0 09 20 43 bd bd c1 8f bc 80 02 05 bd a3 79 46 bd
       -0.047637973 -0.017548436 -0.032473087 -0.048455846
0000c0 9d 90 bf 3d eb 92 57 3d ab ad e0 3d 53 74 08 3e
       0.09353755 0.052630346 0.109706245 0.13325624
0000d0 cf 1b c7 3d 6f f8 01 3d 7f 2d ca 3d a8 52 00 be
       0.09722101 0.031731065 0.09871959 -0.12531531
0000e0 b1 d6 25 bd 23 03 65 bd 3d bc 87 3d f9 1f 96 3c
       -0.04048795 -0.055911195 0.066277005 0.018325793
0000f0 95 40 d1 3d df 1d b3 3d 0e eb 48 3d 41 d0 cf 3d
       0.10217396 0.08745932 0.04905229 0.10147143
000100 cd 11 e7 bb 40 9d 82 bd 03 83 96 bd c8 30 ba 3d
       -0.0070516826 -0.06377649 -0.07349207 0.090913355
000110 6a c3 d3 3c 91 69 1f 3e 10 4c 82 3c 83 5c 6d 3d
       0.025850017 0.15567614 0.01590541 0.057949554
000120 ba 58 04 3c 63 0e 91 bd 09 c3 88 3d 22 71 48 bd
       0.008077795 -0.07082822 0.06677825 -0.048936017
000130 8b da a2 3d 70 fc 88 bc da 9e b5 bd 1f 88 79 3d
       0.0795184 -0.016721934 -0.08868189 0.06092083
000140 83 7c 56 bc 04 20 d9 bd 6a d0 9c bd 11 5d 13 bd
       -0.013091209 -0.106018096 -0.07656939 -0.035977427
000150 b7 5b 59 bd ac 7c 39 3c bb e1 80 bd 9e d1 e7 3d
       -0.05306598 0.011321228 -0.06293055 0.11319278
000160 29 d3 84 3c 92 4a 97 bc 4c 8b 42 bd 53 e6 73 3d
       0.01621397 -0.018468175 -0.047496125 0.059545826
000170 eb a9 60 bc 76 a3 ba 3c 5e ad 20 3d 36 da d2 bc
       -0.013712387 0.022783022 0.039227836 -0.025738817
000180 2d 25 aa bc 0a d8 2f bd ee 58 19 3e 3f ac 30 bd
       -0.02076968 -0.04293064 0.1497533 -0.043133017
000190 b2 7a c7 bd c8 8f a7 bd 80 c0 9f bc 1e 65 a5 3d
       -0.09740199 -0.08181721 -0.01950097 0.08075927
0001a0 76 8b 2d bd 3f fd e6 3c 1b 31 50 3d 23 7a c1 bc
       -0.04236933 0.028196929 0.05082808 -0.02361781
0001b0 cb d8 6e bc 91 a1 10 3c c6 3b 29 bc f1 54 38 3c
       -0.014578055 0.008827583 -0.0103291925 0.01125072
0001c0 c4 68 17 bd e6 5d 88 bb 98 b5 7c 3d 6e 0f 70 3d
       -0.036965147 -0.004161584 0.06169662 0.058608465
0001d0 55 29 14 bd fd da a0 bd 24 f4 03 3e ec 23 42 bb
       -0.03617223 -0.07854269 0.12886101 -0.0029623462
0001e0 37 97 34 bc 61 8e 6d 3d fb 65 ca 3d 6f 5f 7c 3b
       -0.011022381 0.05799711 0.098827325 0.0038509031
0001f0 17 2e 0a 3d 51 17 bb bc e2 dd 1f bd ab 71 9d bd
       0.03373536 -0.022838267 -0.039029963 -0.07687696
000200 31 7a b8 3d 33 df 33 3d 8b bd 47 bc ae 56 5c ba
       0.09007681 0.04391403 -0.012191187 -0.000840525
000210 e5 8e 4e 3d 08 b7 c3 3d ec f0 a8 3b a1 ab 54 bc
       0.050429244 0.09556395 0.0051556733 -0.012980373
000220 18 84 41 3d 8a 40 c6 bc 0b 36 47 3d 52 c9 a4 3c
       0.047245115 -0.024200696 0.048635524 0.020115528
000230 e3 ca cf 3c 47 c9 8a 3c 63 b4 94 3d 93 ca 6c bd
       0.025365299 0.01694168 0.072609685 -0.057810377
000240 6c 00 9f 3c 87 b2 c4 3c c1 c7 b8 bc b7 5c 6a 3b
       0.01940938 0.02401091 -0.022556188 0.0035760829
000250 0f d1 62 3d 52 6f 64 bd 53 7d cb 3d 59 c1 80 bd
       0.055375155 -0.055770226 0.09936013 -0.06286878
000260 f0 c9 a2 3d 1e 7b d5 3d 1b 73 a4 ba 4f 5f 10 3d
       0.07948673 0.10423873 -0.0012546511 0.035247143
000270 79 3f c0 3c 34 d9 71 bd cd 21 ca 3c 07 72 1a 39
       0.023467766 -0.05904503 0.02467432 0.00014729063
000280 04 bc 16 bd 00 f6 62 3d fc 11 0e 3d 68 da 6a 3d
       -0.0368004 0.055410385 0.03468512 0.057337195
000290 96 f9 d7 3c e7 39 ae 3d d9 7a e6 3c 58 fb 99 3c
       0.026364129 0.08507138 0.02813475 0.018796608
0002a0 a7 ac 0f 3c c2 bb 3e bd 31 1f 35 3d ae d1 0f 3e
       0.008769191 -0.04656578 0.0442192 0.1404483
0002b0 18 93 da 3d 48 11 07 bd 34 b3 fb bc 62 cc 90 3d
       0.10672587 -0.032975465 -0.0307251 0.07070233
0002c0 46 ff f5 3c 13 8d dc ba 45 f6 3b bd 4d b8 1a 3e
       0.03002895 -0.0016826711 -0.045889158 0.15109368
0002d0 0c 43 1f 3e fd cb 1c 3c 0f f2 00 bc 0e aa 69 bd
       0.1555292 0.009570119 -0.007870211 -0.057046942
0002e0 f2 cc 2c 3d 07 58 bb 3d 48 1c 42 bd 5f bc 79 3d
       0.04218764 0.09147649 -0.047390252 0.06097066
0002f0 c5 81 43 bd ff 88 b1 3d f1 41 8b 3d f2 50 39 3d
       -0.04773118 0.08668708 0.06799687 0.04524321

layers.3.weight f4 [192, 192]
000000 75 7b 96 3c ec 64 2d 3c 41 23 67 bb c5 33 19 bd
       0.018369416 0.010583144 -0.0035268816 -0.037402887
000010 30 c7 ea 3c b0 2d 80 3d 1e 7a 92 ba 16 07 4d 3d
       0.028659433 0.06258714 -0.001117531 0.050055586
000020 2f f8 64 bd 3d b2 90 3c e0 8c 85 3b 64 64 67 3d
       -0.05590075 0.017663116 0.0040756315 0.056492224
000030 5b dd 11 3d f7 15 92 3c 86 2c 02 3c 11 2a 46 3d
       0.03561149 0.01783274 0.0079451855 0.04837996
000040 e8 60 82 bd f5 d9 1f bd 44 c1 6a 3d 54 62 a2 3d
       -0.0636614 -0.03902622 0.05731322 0.07928911
000050 63 3a 73 bd a6 d0 87 bd 48 f4 df 3d eb b8 ec 3c
       -0.059381854 -0.066315934 0.10935265 0.02889677
000060 a3 60 cc 3c 73 b7 83 bb a4 5d 00 3e ec cd 4c bc
       0.024948424 -0.0040196716 0.12535721 -0.0125002675
000070 97 c0 f9 bc 80 02 28 3d 9c 90 61 3d 63 c0 8b bd
       -0.030487342 0.04101801 0.05506955 -0.06823804
000080 66 f2 a1 bd eb 34 2e bf c9 58 84 3d 57 65 de bc
       -0.07907562 -0.68049496 0.06462247 -0.027147932
000090 f9 08 43 bd b3 22 d9 3d 28 2f e6 bc 94 ff 23 3d
       -0.04761598 0.106023215 -0.028098658 0.04003866
0000a0 27 0c 64 3d f0 06 45 3d e7 25 08 bd 0b 0b db 3d
       0.055675652 0.04810232 -0.03323927 0.10695466
0000b0 d5 f4 84 bd 95 72 c4 bb 82 64 00 3d 40 2e 73 3d
       -0.064920105 -0.0059951046 0.03134585 0.05937028
0000c0 f2 ff 41 3d db fc b3 3b f7 c5 72 3d c1 af bd 3c
       0.04736323 0.005492789 0.059270825 0.023155095
0000d0 15 86 9c bc 58 58 c3 bb 75 d9 c1 bc cb 8b 32 3c
       -0.019106904 -0.005961459 -0.023663262 0.010897587
0000e0 55 b5 0b be 67 69 e7 bc 58 fd 77 3c 97 f3 1b 3d
       -0.13643391 -0.028248502 0.015136085 0.038074102
0000f0 08 f5 77 3d 6f fe b8 3c 2b 59 94 3c 73 07 d7 3d
       0.060536414 0.02258226 0.018108925 0.10499468
000100 16 18 df bc 2f 10 3f bd 8c 6d 36 3d 26 b0 85 3d
       -0.027233165 -0.046646293 0.044538066 0.06527738
000110 d0 7a cd bb 02 c4 84 3d 83 86 4f ba c5 1e 32 3c
       -0.006270744 0.06482698 -0.0007916467 0.010871594
000120 ed 64 e9 3c 9a dd f0 3c 34 d3 3e 3d eb 49 83 3d
       0.028490508 0.029402543 0.046588138 0.06410583
000130 e1 71 76 bd 5e 29 cf 3c 5c 6b aa be 3e 76 88 bc
       -0.060167197 0.02528828 -0.33285034 -0.016657945
000140 5d 93 83 bd 08 95 34 bc 41 02 e3 bd 0f be 72 bd
       -0.06424592 -0.01102186 -0.11084414 -0.059263285
000150 8f 05 62 bb de 92 3f bd 7b 45 7f bd 39 31 b3 bb
       -0.0034488176 -0.046770923 -0.06232212 -0.0054685143
000160 71 04 00 3b 7c a6 3c bd e2 70 7b 3d f4 e4 70 bc
       0.0019533897 -0.04605721 0.06138695 -0.014703024
000170 dc e5 b4 3c 37 ea 56 3a a5 38 6e bd 08 75 05 bd
       0.022082262 0.0008198353 -0.05815949 -0.032582313
000180 55 70 95 3c 94 a8 8f bc f5 64 82 3d df b1 bf bc
       0.01824204 -0.017536439 0.06366912 -0.023400245
000190 61 be 94 3d 11 6f 11 3d bb 87 19 3c ff 1c b7 3d
       0.072628744 0.03550631 0.00937074 0.089410774
0001a0 e4 a0 14 3d b3 aa 0f 3d a6 73 0e bc cc d8 b6 bc
       0.03628625 0.0350749 -0.008694565 -0.022320174
0001b0 b2 98 ad bc a0 57 41 3d eb 56 38 3d 63 08 cc 3c
       -0.021190975 0.047202706 0.045004766 0.024906343
0001c0 c0 45 0b 3d 86 95 a2 bd 45 02 5f bd 16 df 0b 3d
       0.034002066 -0.079386756 -0.054445524 0.0341483
0001d0 cb 07 21 bf 3b 5f 82 3d ce 19 2b 3d 05 82 26 bc
       -0.62902516 0.0636582 0.041772656 -0.010162835
0001e0 4e f3 38 bd 98 39 22 3c 2b 4f 06 3d 45 18 ab bc
       -0.04515391 0.009901427 0.032790344 -0.020885596
0001f0 cd 6f 10 bd e9 7f 8d 3d 89 02 1f bd 56 96 b3 3d
       -0.03526287 0.069091626 -0.038820777 0.08768909
000200 02 4f c2 3d 37 38 85 bd 8a 84 3c bc 0a 6d 41 3c
       0.09487726 -0.06504863 -0.011506209 0.011805782
000210 be 76 16 bd 68 7b 44 bd 9f 87 8a be 09 89 a2 3c
       -0.036734335 -0.047969252 -0.27056596 0.019840734
000220 b7 08 83 ba 3c 29 69 3b 67 33 7e bd 90 02 51 ba
       -0.0009997104 0.0035577556 -0.06206074 -0.0007973099
000230 10 a1 95 3d d5 ba 8b 3c a2 bd 43 3d 65 dc 77 bc
       0.07306111 0.017056862 0.04778827 -0.01512823
000240 0c 30 71 bc a8 29 94 3d 9e eb 83 bd 05 f0 06 bc
       -0.014720928 0.07234508 -0.06441425 -0.008235936
000250 d9 fa 75 bd ad 92 1d 3d 0c f0 87 3d 73 18 5f bd
       -0.06005368 0.03846996 0.06637582 -0.054466676
000260 96 c2 b4 3c 35 cc 0e 3c 72 f1 45 bc 06 2d 5c bd
       0.022065442 0.008715679 -0.012081491 -0.053753875
000270 b1 54 5e 3d 52 97 3c 3d 29 90 b2 bc 53 ed 2d 3d
       0.054279987 0.046042748 -0.021797257 0.042462658
000280 a8 38 16 3d 37 21 60 3d a8 57 82 3d b8 d1 7a 3d
       0.036675125 0.054719176 0.06364375 0.06123516
000290 5a 6c de bc d9 e5 24 3c 0e 00 7c bb ef 3f fc bc
       -0.027151275 0.010064566 -0.003845218 -0.030792205
0002a0 64 18 a5 bb 7c 5e 30 3d 2a d2 c3 bc 20 f3 21 3d
       -0.005038308 0.043058857 -0.023903925 0.039538503
0002b0 ae f6 86 3d 91 01 e4 bc 0c db 43 3d 8e e7 a0 bc
       0.06590019 -0.027832778 0.04781632 -0.019641664
0002c0 ae b5 db bc 2c 56 5c bd bb ea 91 3d ee 5d f4 3b
       -0.02682003 -0.053793117 0.071248494 0.0074574864
0002d0 93 e0 e9 3d e8 60 6a 3d 2b ce 9f 3d f3 5e ce 3c
       0.11419787 0.057221323 0.07802995 0.02519176
0002e0 34 30 95 3c 74 cd 9b 3d 65 7d f6 bb ee a1 60 bc
       0.018211462 0.076075464 -0.0075222724 -0.013710482
0002f0 44 41 7b bd 7a a8 96 bd fa 56 26 bd af 1c 7d 3d
       -0.06134154 -0.07356353 -0.04061029 0.061794933
000300 ec b4 05 3d 5c 73 90 3d 28 6a dc bb b2 aa 57 3d
       0.032643244 0.07053253 -0.006726522 0.052653022
000310 42 87 bf 3c 78 9c 3e 3d d9 00 29 bd 9a 93 36 3d
       0.023379926 0.04653594 -0.041260574 0.044574358
000320 56 0c 2f 3d 35 d1 a5 3d 8b 0d a0 3c a2 db 29 3d
       0.042736374 0.08096544 0.019537708 0.041469224
000330 5d 90 24 3d ae 82 fe 3c b3 b3 8a be c8 f2 08 bc
       0.040176738 0.031068172 -0.27090225 -0.008358665
000340 c1 72 5a bd 56 cb 56 3c ee 40 f1 bc d1 f6 bb bd
       -0.053332094 0.0131100025 -0.029449906 -0.09177936
000350 75 a8 73 3d e8 32 af bc a7 c1 96 3c 11 f3 57 bd
       0.059486825 -0.021386579 0.018402888 -0.05272204
000360 e8 68 24 bd 4c df 09 3d 55 74 d3 3a 75 e0 27 3d
       -0.04013911 0.033660218 0.0016132692 0.040985543
000370 b0 5f 05 3d b0 3e d3 3d 1e 89 3b 3c 4f 0e 6c 3d
       0.032561958 0.10314691 0.0114462655 0.057630833
000380 82 bb 51 3d c4 bd b6 3f 80 98 28 bc a6 9d 42 3d
       0.051204212 1.4276662 -0.010290265 0.047513627
000390 8d 3b 8d bb 37 ec fe 3a 1f 6d 5d bd c0 ec 84 3d
       -0.0043100775 0.001944906 -0.054059144 0.06490469
0003a0 b5 c4 da 3c db 84 68 3d 1b 26 1c bd 5a a7 80 bb
       0.026705125 0.056767326 -0.038122278 -0.0039262
0003b0 b1 1d be 3c 4a cb 23 3c e6 07 a2 3c 96 b0 15 bd
       0.023207517 0.009997198 0.019779157 -0.03654536
0003c0 d4 45 60 bd b7 20 2c 3c d7 f7 1b 3b c3 c8 02 be
       -0.054754093 0.010505847 0.0023798847 -0.12771897
0003d0 04 78 ee 3b a5 95 7e 3d d2 15 59 bd 87 32 1b be
       0.0072774906 0.06215443 -0.052999325 -0.15155993
0003e0 2b 13 7a 3e e6 1b c1 3d 14 a7 1f bd 2d 27 a6 3e
       0.24421374 0.09429149 -0.038977697 0.32451764
0003f0 40 cb d1 3c a8 f7 d9 bc 9b c4 e8 3c 7f 84 03 3d
       0.025609612 -0.02660735 0.028414061 0.03210878

layers.3.bias f4 [192]
000000 ad fb e7 3d 4c f4 88 3d 50 ea 25 be d8 17 b6 bc
       0.113273 0.06687221 -0.16202664 -0.022228166
000010 47 36 ca 3d fc 85 68 bd ea 77 49 bd 95 73 20 3e
       0.09873634 -0.056768402 -0.049186625 0.15669091
000020 39 8e 09 3e 35 54 61 3d c3 c2 47 3d da 66 8b 3d
       0.1343316 0.055011947 0.048769724 0.06806727
000030 7a 5d 08 3e 43 0f d1 3d 91 f2 a6 bd e3 67 38 bb
       0.13316908 0.10207989 -0.081517346 -0.0028138093
000040 ec 6d 95 3d be ec 35 3e 2d 8a bd 3d bd f8 c5 bb
       0.072963566 0.17766091 0.092548706 -0.006041615
000050 99 51 28 bd 61 77 55 3e b9 1f bd bd 69 62 f3 3d
       -0.041093443 0.2084632 -0.09234566 0.118840046
000060 52 f0 d0 3d 3e 39 a4 3c a8 5f be 3c b2 0f 01 3e
       0.102020875 0.020046826 0.023238972 0.12603644
000070 b8 e2 9c 3d bf 3b e1 3b 04 11 84 bd df 21 8d 3d
       0.07660431 0.0068735774 -0.06448558 0.06891226
000080 4a 35 36 3d ef 67 a8 bd df ff 31 3e cd 42 0d 3e
       0.044484414 -0.08222949 0.17382763 0.13795014
000090 a5 2a a5 3d 66 99 52 bd 85 44 82 3d d9 9b 9d bd
       0.080647744 -0.051415823 0.06360725 -0.07695741
0000a0 0d 2f 13 bd 32 e3 80 bd d9 40 06 3d 60 17 22 bc
       -0.035933543 -0.06293334 0.032776687 -0.009893268
0000b0 2c 35 59 bd 35 3e 0d 3e 7d 16 8e bd ae cc 83 3d
       -0.053029224 0.13793261 -0.06937883 0.06435524
0000c0 58 5b 01 3e 26 40 15 3c 4f 61 02 3e dc af 82 3d
       0.12632501 0.009109532 0.12732433 0.06381199
0000d0 de 50 e6 bc 6e a0 35 bd bf d7 01 3d de 0f e7 bc
       -0.028114732 -0.04434245 0.031699892 -0.028205808
0000e0 6f 4a 69 3c d6 9d ab 3d 6f a5 b8 3d dd 5a 41 3e
       0.014238938 0.08379714 0.09015929 0.18882318
0000f0 32 d7 fb 3c 6a 03 5b 3c 36 3d ee 3c 51 b1 04 3d
       0.030742262 0.013367513 0.029081922 0.032395665
000100 24 65 b9 3d 9a b0 25 3e 34 e2 26 3d 6c de 54 3d
       0.09052494 0.1618065 0.040743068 0.05196993
000110 9b 15 0b be 58 87 46 bc bf 7e d1 bd 05 3d 6c 3d
       -0.1358246 -0.012117229 -0.10229253 0.05767538
000120 4d 7d fe 3d 17 a9 8d bd 61 e9 0c 3e c2 cc 62 3e
       0.12426243 -0.06917017 0.13760902 0.22148421
000130 38 d1 e3 bd b7 a7 1e bd a4 de 02 bd d5 0c 09 3e
       -0.1112389 -0.038734164 -0.031950608 0.13383801
000140 9e e7 9e bd 26 e7 8f bc c0 71 b6 3a 04 95 f6 3d
       -0.07759021 -0.017566275 0.0013919398 0.12040141
000150 01 98 24 3d 58 02 41 3d 0e 02 b0 ba 7a 1e 8c 3d
       0.040184025 0.047121376 -0.0013428347 0.068417504
000160 21 89 56 3d 5d f4 39 bd 19 fb b9 3d 8f ac a8 bd
       0.05237687 -0.04539906 0.09081096 -0.08236038
000170 08 cc ad 3d a1 64 e8 3c 94 81 cf 3c 6b 27 1d 3d
       0.084861815 0.028368296 0.025330342 0.03836767
000180 d3 41 c0 bd 1f 9a d5 ba b3 5b a3 3d ba 62 4d bd
       -0.09387555 -0.0016296542 0.079764746 -0.05014298
000190 7c b5 68 3e 94 9a f7 3d 7f 2b 0f bd e6 66 73 3d
       0.22725481 0.1209003 -0.03495359 0.059424303
0001a0 c0 50 89 3c 07 d3 71 3c 8f 3f 3c bd 5c 3f ab bc
       0.016762137 0.0147597855 -0.04595905 -0.020904236
0001b0 3d 1c 75 3c 66 23 0b 3e 5a ee 26 3d 06 ab b8 bb
       0.014960346 0.13587722 0.040754654 -0.005635622
0001c0 3c 73 de 3d 35 42 c6 bc 74 60 f1 3d d5 c6 46 3e
       0.10861823 -0.024201492 0.11785975 0.19411786
0001d0 39 69 6e 3d 5c 79 c3 3b ee 84 48 bd e0 ff 14 3e
       0.058205817 0.005965395 -0.048954897 0.14550734
0001e0 80 ff 03 3d b5 42 0e 3d 38 c5 27 3e 02 fb 39 3e
       0.032226086 0.034731586 0.16383827 0.18162158
0001f0 b6 e2 34 bd a7 cf 98 3c e6 b7 a8 bc 5e c8 e0 3d
       -0.04416152 0.018653704 -0.020595502 0.10975717
000200 44 77 af 3d 48 17 88 bd 5a d5 4e 3d 5b c2 88 bd
       0.0856767 -0.066450655 0.050496437 -0.06677695
000210 8b c8 88 bd d8 9e 1b be a2 9c 02 bd 35 18 27 bc
       -0.066788755 -0.15197313 -0.031887658 -0.0101986425
000220 ca 42 c9 39 91 08 15 3e 6a 2e 96 3c a6 02 58 3d
       0.0003838747 0.14554049 0.018332679 0.0527369
000230 0f 9d 1c bd 4f 5e 8d bd 89 b9 e5 bc b4 0f 29 bd
       -0.03823572 -0.069027536 -0.028042572 -0.04127474
000240 cc bf b4 bd c0 c0 98 bd 9f 81 91 3b 49 72 af 3d
       -0.08825645 -0.07458639 0.004440501 0.0856672
000250 78 58 2b 3d f7 9c 65 3e ea 0c d7 3d 56 22 34 bd
       0.041832417 0.22423159 0.1050051 -0.043978058
000260 92 f9 cd 3c e8 33 11 3e 43 c2 a1 3b 43 72 93 bd
       0.025143418 0.14179957 0.004936488 -0.07199528
000270 77 21 b8 3d 2c a2 87 bd 24 fd d5 bc de 3d bc bc
       0.08990758 -0.06622729 -0.026121683 -0.02297872
000280 4e ef 3c bd c6 ef 5a bd af 53 75 3d a6 a9 62 3d
       -0.046126656 -0.053451322 0.05989426 0.05533757
000290 8a cf 42 3d f2 39 62 bc bf 38 25 3d a6 e7 ff 3d
       0.047561206 -0.013807761 0.04033732 0.12495355
0002a0 53 ec fa bc a1 7d 2c 3d 20 64 d7 3c 86 24 72 bd
       -0.030630266 0.042111997 0.02629286 -0.059116863
0002b0 3d e1 80 3d ed 02 8e bd ae 5b 1e 3d 59 05 7f bc
       0.06292961 -0.06934152 0.03866165 -0.01556524
0002c0 e9 03 bc 3b c1 04 cc ba d8 99 de 3c 3f 49 f1 3d
       0.005737771 -0.0015565382 0.027172968 0.11781549
0002d0 12 c0 a3 bd 73 ec 5f bc ec c0 8d bd 93 2a 44 3d
       -0.07995619 -0.013667214 -0.069215626 0.047892164
0002e0 ec 75 11 bd 2d 14 a2 bd d3 3f 63 bd f1 89 8a bc
       -0.03551285 -0.079140045 -0.05548079 -0.016911479
0002f0 e3 3e 0b 3d 76 22 48 bd ab f2 c6 3d 87 98 a7 3d
       0.03399552 -0.04886099 0.09714254 0.08183389
