deployment_models/model_(192, 192, 192, 192)_bs_64_mse_0.05367_mae_0.02480.pth (torch, 455175 bytes, 10 tensors)

layers.0.weight f4 [192, 3]
00000000: 7cf7 bdbe a06c 9dbe c860 f2be f123 ce3e
00000010: 2b52 2dbf 18f2 95be 5dc2 d5bd 08d4 c53e
00000020: 1f10 ebbe 58d9 d1be aa87 653a edca 68bd
00000030: a737 073f 3118 593e 5cf9 e93e 802b 3abe
00000040: 0ace 54be 6e2d a2bc 0095 ffbe 0a53 04bf
00000050: 112a 7d3e 14b6 bb3c bb7a 36bf da5a 393e
00000060: 44ec 51bc e363 b03e 5e93 a43e ee68 ea3e
00000070: 8dce fcbc 6ccb dfbe 21c3 d13e 5d39 a03e
00000080: 541d f53e bac8 55be 4ae5 a8be ee78 0ebe
00000090: 4f9b 013f 0936 063d 41a0 dcbe 0b75 093e
000000a0: d532 253e c5af 993e 35ca bfbe af48 acbd
000000b0: 9859 80be 8553 733e 9a53 18bf 2620 253e
000000c0: a09d 81be 8802 a3bd 72a1 9fbd b8d4 da3e
000000d0: a3c0 b63e b7d2 05bf d4b5 27bd 136f 383f
000000e0: 2689 c0bd 30dc 22bf 33c3 c7bd d4de f03e
000000f0: c8d1 21bf 5b03 66bc 5e9c cd3e e2f3 fbbe
00000100: 1267 b4bd 3f2b 503e 7245 073f 9d23 c53e
00000110: be0c d53e 8584 393e 357b 55be 65ec a93e
00000120: a794 a1be add6 793e 3355 c7bd e20f e0bd
00000130: 51db 1dbf c945 483d ae93 b7be 7359 da3a
00000140: 8c46 a0bd a418 a33e 916b 233f 2786 863e
00000150: f290 8f3e 6293 293e 7193 9e3e 10a4 163e
00000160: 5249 4fbe ca7a ca3e 5095 77bd f4fe fcbe
00000170: 5347 d2bd 89d7 a03d 11a3 8f3e e168 43be
00000180: b436 ce3e bcf6 f3be bac2 68bc 4341 173d
00000190: de81 14be dee8 3a3d 59ce 6c3a 919c fb3b
000001a0: 4ea4 57bd 0ebe 0bbe c82b ea3e 92cb 51be
000001b0: 282d 9d3e 8fb1 b83e 1141 f9be f2cb 15bf
000001c0: 8b5e b9be 2434 823e b664 943e 11e9 5c3d
000001d0: 5d91 d2be 2bae 7abe 0e68 333d bf6c de3e
000001e0: b39c 27bd 5bb7 28bf 3150 38be f5db 15bb
000001f0: 8b31 2a3e 6d4d 17be 1ecf d13d 9755 853e
00000200: 92bb 393c adcc 093e 91eb 0fbf 8580 bc3e
00000210: 1f7b 8abd 4e2a babe 3d08 cfbe 00b0 133e
00000220: 2645 aabe 6b22 d33e e731 26bd 25ef 7dbe
00000230: e1d5 c5be df58 ae3d 0e92 e33e 5d8d e73e
00000240: 6d2f c53e 26f2 d5be 9b34 4c3e 35f7 e6be
00000250: 1c48 593d 18d3 02bf b360 ac3e 4872 993e
00000260: d711 4dbe 5c41 113f 5e2f 093d 0638 d43e
00000270: 13af a73e 82d3 a33e 7ca4 583b 853b 5abd
00000280: b5bf c73e 137e ebbe 4635 a03d bff3 cfbe
00000290: 6e36 81be 6fe7 39be e15d 51bd a424 62bc
000002a0: b670 cd3e 71b2 c33d 61a7 0e3d b25b 26be
000002b0: 41de 383e 55cc 12bf 6729 673d 3e28 003f
000002c0: 927b 81be b219 8cbe e5ca 28bf e37d 27be
000002d0: b25d 91be cd6c b03e c6fa a63d 612d d63d
000002e0: f437 073e 667c 07be b8ff d23e 510a 5e3e
000002f0: 79d8 08be a8d0 17be 3a51 813d a54b c33b
00000300: 7844 e3bd 077b f73e 7751 ea3e fa46 5abe
00000310: 1ee3 59be f11f 173e 4b45 9bbe c29e 9b3d
00000320: 0082 da3d c0ed cfbe 8748 0cbd 9d11 a33e
00000330: 5f0e b3be 560c 0a3f 7978 923e 0854 a7be
00000340: 00d2 b33e 1049 c33e 58c7 843e 95e2 293e
00000350: 5af5 b43e bccc 953e a5c4 933e 8b5a af3e
00000360: d07b f93e 877b 1a3f a66f b53d 0c70 0d3e
00000370: 4b62 b83e 2ee1 8ebe 8502 84be 38ea e93e
00000380: 3eff 36be 5736 04bf 052f bd3e ed90 d0be
00000390: b08e 0c3f 325d 20be bcc1 fdbe 4a91 0fbf
000003a0: 3f98 c9bd f1d1 a33e ea44 143e 42c7 523e
000003b0: 1ee6 e33e 58b6 d83e b55a 1d3f 26fe e93d
000003c0: 56b5 d5be 6c5b f5be 88ad abbe 0b24 00bd
000003d0: f1b8 8e3d bd4f 71be dc2e 853e 06aa f03d
000003e0: 656b df3e 2bb9 e23e 0a4a bd3e 5e21 de3e
000003f0: c26b e9bd 19b1 a03d e30e 633e efc5 473e
-0.37102878 -0.30746937 -0.47339463 0.40261796 -0.67703503 -0.29286265 -0.104374625 0.3863833
-0.45910737 -0.40986133 0.0008755872 -0.05683415 0.52819294 0.21200635 0.4569806 -0.18180656
-0.20781723 -0.019797053 -0.49918365 -0.5168921 0.24723078 0.02291397 -0.7128102 0.18101063
-0.012812678 0.34451208 0.32143682 0.4578318 -0.03086021 -0.43709886 0.40969184 0.31293765
0.47873938 -0.20877352 -0.32987434 -0.13913319 0.5062761 0.032766376 -0.43091014 0.13423555
0.16132672 0.30016914 -0.3745896 -0.08412301 -0.25068355 0.23762329 -0.59502566 0.16125545
-0.2531557 -0.07959467 -0.07794465 0.42740417 0.35693845 -0.5227465 -0.04094489 0.72044486
-0.09401159 -0.6361723 -0.09754028 0.47045004 -0.63210726 -0.014038886 0.4015836 -0.49209505
-0.088087216 0.20328997 0.5284034 0.38503733 0.41611284 0.18116958 -0.20847781 0.33188167
-0.31558725 0.24398299 -0.09733047 -0.109405294 -0.61662775 0.048894677 -0.35854858 0.0016658738
-0.07825956 0.31854737 0.6383601 0.26274225 0.28040272 0.16560128 0.30971864 0.14711022
-0.20242813 0.39546806 -0.06044513 -0.49413264 -0.1026751 0.0785361 0.28054097 -0.19082977
0.4027611 -0.4764918 -0.014206583 0.036927473 -0.14502665 0.045632236 0.0009033434 0.0076785763
-0.052646928 -0.13646719 0.45736527 -0.20487812 0.30698514 0.36072966 -0.48682454 -0.5851432
-0.36204943 0.25430405 0.28983086 0.053933207 -0.41126528 -0.24480502 0.043800406 0.43442342
-0.040920924 -0.6590478 -0.1799934 -0.00228667 0.16620462 -0.1477563 0.102445826 0.26041862
0.011336224 0.13456984 -0.5621882 0.36816803 -0.06761765 -0.363604 -0.40435973 0.14422607
-0.3325588 0.41237196 -0.040574934 -0.24798258 -0.3863974 0.085130446 0.44447368 0.4522504
0.38512745 -0.41786307 0.19941942 -0.4511048 0.053047284 -0.51103354 0.33667526 0.29970002
-0.20026337 0.56740355 0.03349244 0.41448992 0.3275076 0.31997305 0.0033057025 -0.05327942
0.39013448 -0.45994624 0.07822661 -0.4061565 -0.2523684 -0.18154691 -0.05111492 -0.013802681
0.40125054 0.09555519 0.034827594 -0.16245916 0.18053533 -0.57343036 0.05643597 0.50061405
-0.2528959 -0.27363354 -0.6593459 -0.16356616 -0.28391796 0.34458008 0.081533 0.10457874
0.13204938 -0.13231048 0.41210723 0.21683623 -0.13363828 -0.1482569 0.06314321 0.0059599453
-0.11097044 0.4833605 0.45765278 -0.21316138 -0.21278045 0.14758278 -0.30326304 0.0759864
0.10669327 -0.40611076 -0.034248855 0.31849375 -0.34971902 0.53925073 0.28607538 -0.32681298
0.35121155 0.3814168 0.25933337 0.1659034 0.35343438 0.29257762 0.28860965 0.34248766
0.48727274 0.6034474 0.08859186 0.13812274 0.36012492 -0.27906173 -0.25783172 0.45686507
-0.17870805 -0.51645416 0.36949936 -0.4073557 0.54905224 -0.15660551 -0.4956187 -0.5608107
-0.09843492 0.3199611 0.14479414 0.20583823 0.44511503 0.42326617 0.6146653 0.11425428
-0.4173991 -0.47921312 -0.3353083 -0.031284373 0.069688685 -0.23565574 0.26012313 0.117511794
0.43636623 0.44281897 0.3697055 0.43384832 -0.11397506 0.07846279 0.22173648 0.195091

layers.0.bias f4 [192]
00000000: 80c8 d3be 4e97 27bf 9737 093f 8e32 82be
00000010: 6e7a 643e cfd1 6f3e 93ec 05bf 669b 07bf
00000020: 9427 b1be c88e a8bd 42f8 da3e 87c2 b13e
00000030: 3362 043f 2761 c4be 3eb4 e13d f791 0a3f
00000040: 664c 183f 8001 30bc ceee 0c3f a2b0 373c
00000050: 54f1 adbe d791 c63d 7280 0c3f 0d85 083f
00000060: b177 bdbe 8266 e33e e1e0 1cbe 3e66 ac3e
00000070: 3246 a83e 0426 2bbe a793 c6bd 8441 793d
00000080: 949b a73b 5a69 923e 0317 cdbd afd7 183f
00000090: eef0 fcbe c612 7bbe f796 87be 871a a8bc
000000a0: 4ec6 abbe 1897 3d3e b895 89be f747 f33d
000000b0: 1baa 08bd a196 bc3e 1e0e d93e edca 963c
000000c0: 619c bd3d e810 babd aaa7 f73c 7c76 20be
000000d0: 63aa efbe 3bd8 df3e 0db2 583e 50ea c8be
000000e0: 727d 0a3f 9cbe 9f3e c36f 24bf f935 b73e
000000f0: 96f5 94be 8097 ec3e 2ad5 7d3e ac98 d3be
00000100: 5145 83be 1ba4 febd 5605 bdbd 1b55 c7be
00000110: 190b 113f 22c1 1b3d 406c 8b3e b6d7 44bd
00000120: ef61 023f 956b ec3e 0635 86be da04 de3d
00000130: e100 81be 7d51 40be b9a5 f43e d402 66be
00000140: c810 51be da41 0b3f ddfc fbbe c7a2 203f
00000150: 1bb2 f03e 0ff4 3abe 59f0 8e3e b358 113f
00000160: 8d0c a23e be6d dbbc 0809 0fbe 6a19 93be
00000170: b745 c6be e1f1 0fbf 32a1 8dbe 2806 61be
00000180: 30fe 06bf 282a 0dbf 2593 23be 55b4 37be
00000190: b37a a0be d9e3 ddbe d3b2 453e 775d 7bbe
000001a0: c795 613e 0a54 7f3e 6bab 673e 1564 dc3e
000001b0: b9dc ecbe 5964 973e 0917 e4be 85d2 fdbe
000001c0: 5637 13bd bf45 c73e 981e 7abe 0cb8 a8bc
000001d0: 69a0 1c3f c285 f0be bd24 80be 1c64 c53e
000001e0: 7ad6 1cbd d233 0e3f 4de7 d1bd a6d4 35bd
000001f0: 58b0 9f3e 246d 5bbe 82ea 183f 9456 ecbe
00000200: 3384 17bc 2c3d 2fbd 994a 9c3e 8d56 28bd
00000210: 2e5c c0be abc5 6b3e 6a34 883d 668d e03d
00000220: 53d9 e33e c1a2 8dbe 7b2d 01bf cce2 d63d
00000230: 92bd 8abe 5045 b83e f256 85bd 1999 1ebe
00000240: d1ae fd3e 9a10 8b3d 0c84 02bf efe4 11bf
00000250: 4302 c23e 4821 cabe e0bf 8cbe 3083 52be
00000260: df4a b6be 4b4c eb3e c190 0a3f b035 5abe
00000270: 8e31 92be ff68 9ebe 2a58 973d 54f3 12bf
00000280: d5c6 e33d ea1a 33be 77df 01bf 793a 19bf
00000290: 6d9c 3c3e 4960 cbbe d227 33bf 39ec bdbe
000002a0: 5c61 993e b0c7 b63e a606 d43d 67f6 b1be
000002b0: 4b6e ff3d 5ede 823e 89d7 bebe baf5 033f
000002c0: 8fcb 0d3b b0d5 973c 2edb 043d 6892 ecbd
000002d0: bb69 f0be 3482 a23d 40f3 3a3e 56de bbbd
000002e0: ad7a dcbe 4f3e 94be e99f a43e f96e 19be
000002f0: aac8 bebe 0d07 963e 717b d93e 3787 9cbe
-0.41363907 -0.6546525 0.5360045 -0.25429195 0.22312328 0.2341988 -0.5231411 -0.52971494
-0.34600508 -0.08230358 0.4276753 0.34718725 0.5171234 -0.3835537 0.110207066 0.54128975
0.59491575 -0.010742545 0.5505189 0.011211546 -0.3397318 0.096957855 0.5488349 0.5332802
-0.3700538 0.44414145 -0.1532016 0.33671755 0.32866055 -0.1671372 -0.09696131 0.060853496
0.005114982 0.28596002 -0.10014155 0.5970411 -0.49402565 -0.2451888 -0.26482365 -0.020520462
-0.33549732 0.18514669 -0.2687204 0.118789606 -0.03336535 0.3683367 0.42393583 0.01840731
0.092583425 -0.09085256 0.030231316 -0.15670198 -0.46809682 0.43719658 0.21161671 -0.39241266
0.54097664 0.3120011 -0.64233035 0.35783365 -0.29093617 0.46209335 0.24788347 -0.41327417
-0.25638822 -0.124336444 -0.092295334 -0.38932118 0.5665756 0.038025983 0.27231026 -0.04805728
0.50930685 0.4617583 -0.2621233 0.10840769 -0.25195983 -0.18781085 0.47782686 -0.22462016
-0.20416558 0.54397357 -0.49216357 0.6274838 0.47010884 -0.18257163 0.27917746 0.5677597
0.316502 -0.026785728 -0.13968289 -0.28730327 -0.38725063 -0.5622845 -0.27662045 -0.21975005
-0.5273161 -0.5514245 -0.159741 -0.17939885 -0.31343612 -0.43337896 0.19306497 -0.24547373
0.22029792 0.24934402 0.22623985 0.43045107 -0.46262148 0.29568747 -0.44548824 -0.49574676
-0.035941444 0.389204 -0.24425733 -0.020595573 0.61182266 -0.4697705 -0.2502803 0.3855294
-0.03829048 0.5554782 -0.10249195 -0.04439225 0.31189227 -0.21428353 0.5973283 -0.46159804
-0.009247827 -0.042782947 0.30525663 -0.041098166 -0.37570328 0.23024623 0.06650622 0.109644696
0.44501743 -0.27663234 -0.5046002 0.10492477 -0.27097756 0.3599038 -0.06510724 -0.1548809
0.49547437 0.06790276 -0.5098274 -0.5698995 0.3789235 -0.39478517 -0.2749014 -0.20557857
-0.35603997 0.45956644 0.54127127 -0.21309543 -0.28553432 -0.3093948 0.07389863 -0.5740254
0.111219086 -0.17490736 -0.50731605 -0.5985485 0.18419047 -0.39721897 -0.69982636 -0.37094286
0.29957092 0.35699224 0.103528306 -0.34758303 0.124722086 0.25560278 -0.37273815 0.51546824
0.0021636223 0.018534511 0.03243559 -0.11551362 -0.46955666 0.079349905 0.18256855 -0.091732666
-0.43062344 -0.28953788 0.32153252 -0.14983739 -0.3726247 0.29302254 0.4247699 -0.3057191

layers.1.weight f4 [192, 192]
00000000: 6ec0 d7bc d7d9 783b 1645 04bd 9c99 fabc
00000010: b425 7d3d 502c 30bd 287d 49bd 84c5 edbc
00000020: 3ddd 4fbd 1ce3 35bd 7ca1 c9bb 0dab bfbb
00000030: 4c1e 9e3c 33c9 90bd aef1 5e3d c648 49bd
00000040: 6050 52bd 4d27 7ebd 041b 69bd 98bb 113d
00000050: 6423 7bbd 5cc3 42bd 0348 be3c 6983 95bd
00000060: 6301 91bd 7e75 823c 758d 05bc 4f8e ec3c
00000070: ea2e 1cbb 408a cd3c 197f d83c 9457 c9bc
00000080: b49c 6d3d 07f5 ac3c 9a71 483d 41ba 99bb
00000090: 0953 123c f70e 7ebd b2dc d0bb ce9c 9a3c
000000a0: 64ac e23c 8210 e5bc a99a 313d db35 263d
000000b0: 3b9a 8d3d 0a37 6bbd f830 e6bc 67e5 e1bc
000000c0: 90a5 bcbc 92a5 473d b377 1f3d daf2 34bd
000000d0: 67f9 e3ba 168d 09bd 4f0d 29bd bd51 ee3c
000000e0: 8cc7 25bd 508b bc3c e477 26bd 22b3 0abd
000000f0: 5c3f 113d 3a94 783c de4c 1d3d a36c 36bd
00000100: b205 eb3c 2e28 b0bc 7bca 83bd 4241 643c
00000110: 479b 4e3b dce4 b3bb 03e7 8dbd af1a febc
00000120: 52d4 9fbc f88f 6fbd 0a84 273d 4b4a 25bb
00000130: c53f f0bc 8463 1fbd e8a9 1dbd 2d8b 0abd
00000140: fafa daba 079b 243c 2da3 703d 5fdb 373d
00000150: 6e2f 163d 4f64 8f3d 74a1 c3bc 5b3f 423d
00000160: ef9a edbc 7650 7abd 5409 7ebd b1fb 77bd
00000170: 9c78 93bd a195 80bb caaf 4c3d 33db 0b3c
00000180: 59eb 86bd 781b c9bb 89d7 483d aa3e b1bc
00000190: 0ccd 9ebc 18a8 5bbd 68f9 583d 0619 393b
000001a0: 3fed 25bd 41d8 763d 1439 403c f793 9bbc
000001b0: 2a11 b7bb 9bc3 93bc caee 273d 6700 b7bc
000001c0: 6b2d 6a3c 1ab4 35bd 95f1 e13c a076 fcbc
000001d0: 2cfa 88bd a680 b83b c432 69bd f8e4 a9bc
000001e0: 69a8 20bd eb2c ba3c 168a 72bd 1274 20bd
000001f0: e5ec e53c b0bf ba3c b2be 843d 0200 97bd
00000200: 7c77 a43b b0fd 123d fdb5 e3bc d418 f73c
00000210: efa4 fd3b a61c b7bb aab4 fcbc a2a9 ba3b
00000220: f473 93bb 9142 5a3d 03e2 38bd 665f 43bd
00000230: 7cc1 edbb edbd 3ebb 784a cabc 9339 0cbd
00000240: 80c3 06bd 73dc 4c3d a20d 883d 0497 33bc
00000250: e4c9 7bbd 969a 19bd b766 e7bb cc20 21bd
00000260: e0c7 403d 802f 76bd 01f1 44bd 1979 16bd
00000270: f2bc 6cbd 1371 1d3c 9fe7 df3c 2663 5b3d
00000280: 3a87 ffbb 8063 0e3d cf0b 683d 342a 343a
00000290: cf18 d4bc 0124 0abd a251 8d3d 8923 923d
000002a0: da46 8fbd ccc0 2dbd 9395 ebbb 1ee2 243d
000002b0: 560c 8cbd 72f4 8a3d efef bd3b 875c f9bc
000002c0: ca3e 07bc d4a4 673d 014f 083d ab61 313d
000002d0: 4c1a 643d f76b b5bb 6001 c1bb 7980 46bc
000002e0: dee8 513d 3e39 0fbc dd68 d13b 2524 7c3d
000002f0: 7fd0 4a3d 20b0 ab3c 4303 1f3d 6e3a 7f3d
00000300: 89f1 163d 6b03 d53c 8a30 46bd 5602 33be
00000310: 046c d2bc b12c 003d 0a00 58bd 29b4 17be
00000320: 635e 46bd e8e5 a0bc 8081 253d aaaa 77bd
00000330: 4d1d 433c 957a 81bc 2401 823c ca35 89bd
00000340: 42bc cb3c d776 f63b a883 8c3d eeba 9ebd
00000350: 1f52 d6bc 5766 393b 2680 07bc eaf6 053d
00000360: ac36 b33d 87cd 1c3d 0025 c5bd 7bc0 75bd
00000370: 6017 72bd 00ce 813b a4b8 e03c c775 6fbc
00000380: 2ccf afbd 0612 80bd ed77 d53c a10b 5c3d
00000390: 3fb3 053d a78b 9dbc 8087 aabd 3bed 8fbd
000003a0: 267f cabd a38b d93c bdee e93c 369d 563c
000003b0: dbb3 91bc fc12 98bd dc64 d3bc da9b 98bd
000003c0: c795 7bbd ccbf e63c aac5 d6bc ff99 eb3c
000003d0: 47a2 fa3c c79b b53c 3b53 733d 1ff8 ed3b
000003e0: 4d67 8e3c dc90 b33a 16d2 b93d 067b acbd
000003f0: 7291 37bd b63d 5b3d fa30 6a3b e8f4 ca39
-0.026336875 0.003797164 -0.032292448 -0.030590825 0.061803535 -0.04301101 -0.049191624 -0.029024847
-0.0507481 -0.04440604 -0.0061532836 -0.0058492483 0.019301556 -0.07069626 0.054429702 -0.049141668
-0.051346183 -0.0620492 -0.05691053 0.035579294 -0.061313048 -0.04754959 0.023227697 -0.07300455
-0.070803426 0.015925165 -0.008151402 0.028876452 -0.0023831674 0.025090337 0.026427792 -0.024577893
0.058010772 0.021112932 0.048936464 -0.0046913926 0.00893093 -0.06202599 -0.006373965 0.018873598
0.027670093 -0.027961973 0.043360386 0.040578704 0.06914183 -0.057425536 -0.028099522 -0.027575208
-0.023028165 0.048741885 0.038932513 -0.044176914 -0.0017393053 -0.033581816 -0.041272458 0.02909171
-0.040473506 0.023015648 -0.04064168 -0.03386224 0.035460815 0.015172059 0.038403384 -0.044537198
0.02868924 -0.021503534 -0.064351045 0.013931574 0.0031525658 -0.0054899286 -0.069288276 -0.031018583
-0.019510422 -0.05848691 0.040897407 -0.0025221284 -0.029327283 -0.038913265 -0.038492113 -0.033824135
-0.0016706877 0.010046727 0.058749367 0.044886943 0.036666326 0.07001554 -0.023880698 0.0474237
-0.029004542 -0.06111189 -0.062020615 -0.060542766 -0.07200739 -0.003924087 0.049972333 0.008536148
-0.06587858 -0.0061373077 0.049033675 -0.021636326 -0.019384883 -0.053627104 0.052972227 0.0028243675
-0.04050946 0.06026483 0.0117323585 -0.018991454 -0.005586763 -0.018037608 0.04099921 -0.022339059
0.014293055 -0.04436121 0.027581016 -0.030818284 -0.066883415 0.0056305705 -0.05693318 -0.020739064
-0.03922311 0.022726497 -0.05921372 -0.039173193 0.028067062 0.022796482 0.06481685 -0.07373048
0.0050191265 0.035886467 -0.02779674 0.030163206 0.007740609 -0.005588132 -0.030847866 0.0056964913
-0.0044999067 0.05328614 -0.045137417 -0.0476984 -0.007255731 -0.0029104904 -0.024693713 -0.034234595
-0.032901287 0.050014924 0.06643225 -0.010961298 -0.061471835 -0.03750094 -0.007061805 -0.03933792
0.047065616 -0.060103893 -0.0480814 -0.03673658 -0.05779738 0.0096094785 0.027332125 0.053561352
-0.0077981027 0.03476286 0.056651887 0.0006872744 -0.025890736 -0.033725742 0.06900336 0.07135684
-0.06995936 -0.042420194 -0.0071894615 0.040254705 -0.068382904 0.067849055 0.0057964246 -0.030439628
-0.008254716 0.056553677 0.03327847 0.043306034 0.05568914 -0.005536552 -0.0058900565 -0.012115591
0.05124747 -0.008741675 0.0063906745 0.061557908 0.049515244 0.020958006 0.03882147 0.062311582
0.03685144 0.026002606 -0.048386134 -0.1748136 -0.025686271 0.03129262 -0.052734412 -0.1481482
-0.048429858 -0.019640878 0.040406704 -0.060465492 0.011908841 -0.015805522 0.015869685 -0.066997126
0.024870042 0.007521491 0.06861049 -0.07750498 -0.026162205 0.002828976 -0.008270299 0.03270618
0.08750662 0.038281944 -0.09626198 -0.059998017 -0.059104323 0.0039613247 0.027431794 -0.014615483
-0.08584437 -0.06253438 0.026058162 0.053722028 0.032641646 -0.01923163 -0.08326626 -0.0702767
-0.09887533 0.026555842 0.028556222 0.013099005 -0.017785957 -0.07425496 -0.02580493 -0.07451601
-0.061422136 0.028167628 -0.0262173 0.028759954 0.030594958 0.022169007 0.059405547 0.0072622444
0.017383242 0.0013699788 0.09073274 -0.08421902 -0.04481644 0.05352565 0.0035734759 0.00038710912

layers.1.bias f4 [192]
00000000: 6de0 8bbd b406 543d a908 113c 0a77 9c3d
00000010: 6695 0abc 5e50 2a3d efe7 dbba 86ba 8ebc
00000020: 65de bebd 8d0e 9d3c d6c6 b4bd c3b4 803d
00000030: 2264 ac3c 8e27 a23b 3c26 c6bd abe2 8b3d
00000040: d03f 21bd 59f9 20bc cf4d c7bd 892a 043d
00000050: 5969 0f3d eaf5 91bd e687 f83d 4e58 9abd
00000060: e581 33bd eaef 38bc c535 eabc 2628 ce3c
00000070: 8dce 3e3d 0cc5 ea3c b8fe 3c3d dbcc f43c
00000080: 25d8 ad3c ffa7 b13d 6795 a33c b964 493d
00000090: e413 17bd 6c6f 673d 4fc0 7f3c 92c6 a53c
000000a0: 44a5 47bd fc52 713d 5690 153d a5e2 b83d
000000b0: 4095 8dbd c470 063c ef0b 9c3c ad05 b43c
000000c0: 2941 bb3d ea14 15bc 492c aabc 807f 153b
000000d0: 4eee abbc b16f abbc 1d5a 923c e876 93bc
000000e0: 7d8e e2bc 46e0 643d 0d9a 3bbd 8f45 1dbc
000000f0: 69bc 53bd 2c28 fdbc 7c08 5b3a 413d 833c
00000100: f0ed c1bd 94f3 44bd fd5e 9f3d 45bf 663d
00000110: 45f1 223d 20cb d2bc 002d 94bc 2e42 2fbd
00000120: ffbd 893c d99e 8a3a b281 36bc ccf8 1e3d
00000130: 35a2 ad3d ad64 4e3d 9452 263b 51ca 3b3d
00000140: 2981 3f3d 0c02 023d b1bb c53c 8d52 7a3d
00000150: 9a25 46bc c730 3bbd 95cf 12bc a321 633c
00000160: 8db0 11bd 0012 043c 784d 1cbd 331c 86bd
00000170: 2c85 1f3d 4eb2 99bd 3072 c5bc 3b2d 443d
00000180: 6b97 87bc 0af0 e03c c5cc 13bd f776 1fbd
00000190: 0663 a7bd f144 d0bc 3297 2cbd e8e0 02bd
000001a0: f7c0 923d cea5 20bd 23f1 283d 159c 80bd
000001b0: 5814 913d 8047 cd3d ac6e b13b 7c44 91bd
000001c0: 15bb 0e3c 3a68 f83d b542 71bd 4927 46bd
000001d0: 4a00 633d ef55 93bd 1039 373d 741f 073d
000001e0: 7758 db3d 6cf5 0c3d 71c4 0abb 51c1 fa3c
000001f0: dcfe 073c e0e1 7e3c 2d38 373d a885 15bd
00000200: 9ed5 88bd 748d 763d aa64 a2bc c8db 9fbc
00000210: 3bcb debb 6b16 163d 987c 8b3d 29a0 803d
00000220: 3bc4 45bd da1a 59bc 27b6 a4bd 72a1 81bd
00000230: def8 d43d e1e5 83bc 7dca 583d 84b0 4f3d
00000240: 85a7 f4bc 8820 9d3d 6396 0b3c c33c 99bc
00000250: 4981 313c a9f7 77bc 8298 02bc 668d 863d
00000260: e3f3 98bc 2324 b4bd bd13 5c3d 3b54 8ebc
00000270: dc54 5b3d 7630 eebc 415b b73b 0298 ac3d
00000280: 9fb6 fcbb 1f2b 3abb 7819 0dbd 5348 9cbd
00000290: ff80 aa3a da62 33bd 6390 653c 3f42 8c3c
000002a0: 9109 12bd 07d9 e13c 1045 a2bb 0e56 8bbc
000002b0: 7f45 29bd 07e3 d7bc a0db 603d f080 42bc
000002c0: 8331 8bbd 912b e3bc 16a5 493d 6698 ff3c
000002d0: fd0d 623c 60dd aa3d a2ed 503d e681 27bd
000002e0: debd 713d 7b40 d03b 12c6 8b3d e0d4 aebb
000002f0: be99 913d 72e0 4ebd 3302 8f3b 53bc 4b3d
-0.06829915 0.051764205 0.008852162 0.076398924 -0.008458471 0.04158055 -0.0016777496 -0.017422926
-0.09319762 0.019171977 -0.088269874 0.062844776 0.02104384 0.004948563 -0.096752614 0.06830343
-0.039367497 -0.009825074 -0.09731638 0.032267127 0.035012577 -0.071269825 0.121352956 -0.07536374
-0.04382505 -0.011287669 -0.028590092 0.025165629 0.0465837 0.028658412 0.046141356 0.029882839
0.02122123 0.08674621 0.019968702 0.049168322 -0.036884204 0.056502745 0.015609815 0.020236287
-0.048741594 0.05891703 0.036514603 0.09027604 -0.06913233 0.008205596 0.01904866 0.021975363
0.09143288 -0.009099225 -0.02077307 0.0022811592 -0.020987656 -0.020927282 0.017865235 -0.018001035
-0.027655834 0.055877946 -0.04580121 -0.009599104 -0.051693354 -0.030902945 0.0008355451 0.01602042
-0.09469211 -0.048083857 0.077817895 0.056334753 0.039780874 -0.025731623 -0.018087864 -0.042787723
0.01681423 0.0010575905 -0.01113932 0.03881149 0.08478204 0.05038898 0.002537881 0.04584724
0.046754036 0.031740233 0.02413735 0.061113883 -0.012093926 -0.045700815 -0.008960624 0.013863
-0.035568763 0.008060932 -0.038159817 -0.06548347 0.038945362 -0.07504712 -0.0241023 0.047894698
-0.016551694 0.02745821 -0.036083955 -0.038931813 -0.08173184 -0.025423499 -0.04213638 -0.03195277
0.071657114 -0.039220624 0.04124559 -0.0627977 0.070839584 0.10023403 0.0054148044 -0.070931405
0.008711596 0.12129255 -0.058901507 -0.04837731 0.055420198 -0.07194125 0.044732153 0.03298898
0.10710233 0.03441374 -0.0021174217 0.030609759 0.008300509 0.0155567825 0.044731308 -0.036504418
-0.06681369 0.060193494 -0.019823391 -0.01951398 -0.0067991293 0.036642473 0.06810874 0.06280548
-0.048282843 -0.013251031 -0.08042555 -0.063296214 0.1039903 -0.016100826 0.052927483 0.050705448
-0.029865036 0.076722205 0.008519742 -0.018705731 0.010834047 -0.01513473 -0.007970931 0.06569938
-0.018670982 -0.08795955 0.05372976 -0.017374149 0.053547725 -0.029075842 0.005595595 0.08427431
-0.0077122 -0.002840705 -0.034448117 -0.07630982 0.0013008415 -0.043795444 0.014011475 0.017121432
-0.035653654 0.027569307 -0.0049520805 -0.017008808 -0.041326042 -0.026353372 0.05489695 -0.011871561
-0.06796553 -0.027730735 0.049229704 0.031200599 0.01379728 0.08343005 0.051007874 -0.040895365
0.059018962 0.006355343 0.06824888 -0.0053354353 0.07109402 -0.050507016 0.004364276 0.049740147

layers.2.weight f4 [192, 192]
00000000: 0fc5 8bbd bee9 25bd 7a9e 01bd a8a5 983d
00000010: 2d25 fcba 1341 f7bc f924 dcba b880 a7bd
00000020: ead9 cabc c97a d23d a763 04bd baa0 0d3d
00000030: 758b 893d 4c48 12bc 3bf6 063e d928 5e3d
00000040: 6d53 39bd 939e d13d b798 89bc c116 ec3c
00000050: 18a6 083e 21a7 953d b107 873d f37f fcbc
00000060: 5015 0bbd 070c 8d3c bddf 92bd ee52 573d
00000070: 6ea0 b63d e508 dfbb 4865 db3d 94eb 8cbc
00000080: c2b2 763b d364 2c3d df95 4f3c a9d9 58bd
00000090: fe68 0c3d 889c aabb c3ab 0b3d a74c a43d
000000a0: 6d7b e33c b7b6 9f3d 2b05 c8bc a7f0 c53b
000000b0: 7b66 543c 59d9 9cbc 105b 913d 4155 a73b
000000c0: 663a c1bc ec27 4abb 9ff8 7e3d 03b4 edbc
000000d0: a721 d6bc e7d2 ef3c 5026 b3bc edaa 933c
000000e0: 2efe e63b f7d5 e4bc e2d0 bf3c 461c 85bb
000000f0: 6aec d5bc 97d4 693d d315 c63d dd7a 0bbd
00000100: 0dc8 6c3c 075b e3bd 9985 7c3d aadf e2bc
00000110: 5cb1 763d 0014 2cbd 51b0 b63d 22ed 7fbd
00000120: ed4e 433d fe41 14bc 8cb8 c5bb 13cc 503b
00000130: cee7 9b3d 2f52 76bd 36c4 833d 577e 6bbc
00000140: 4cc0 173d 86a5 453d 1ad4 99bc 8896 853c
00000150: e38c cb3d e661 d03c faed 48bd 8c62 5cbc
00000160: bb67 913d 9302 a63d 5962 9fbb fac3 4e3d
00000170: e888 523d 39a4 4eba 11fa 533d 9c59 723c
00000180: 8d2f 25bc 47fb 883d 3a4a bbbc cd10 43bd
00000190: 04d9 1c3e 709e 38bd bc8c 8a3d d4f4 29bd
000001a0: 48f2 913d 5f10 8abc 6b25 22bd ec4c 93bb
000001b0: 4ebe 963d 8c45 6c3d 6e65 dfbc 9206 7cbc
000001c0: 2d49 463c 643b 603d 0087 62bd e0e1 c43c
000001d0: a00a bd3b 3097 fe3a de74 3a3c c9df f13c
000001e0: 7253 8f3d d1a6 c33c d5b1 553d 91a0 3bbd
000001f0: 44e4 86bc 7763 5bbd f784 f9bc 5bb4 89bb
00000200: ae82 d8bc a12e c6bb ef40 ffbc 06ef 3bbd
00000210: 4a44 d63c d83f 04bd 41e8 d9bc bb50 84bd
00000220: 5a7a 713d 0abe 9fbc b004 b83d e3ed 3dbc
00000230: 0850 20bd c7f0 05bd 2b89 873d fa14 683c
00000240: 58fb 403d 1fcd 7b3d d165 5f3d 1b06 113c
00000250: e618 35bd 50d6 debb df68 9c3d eff4 723c
00000260: 3cc9 a1bc 0ee0 04be cca6 053e e141 0cbc
00000270: df9b 90bc 6638 7f3d a995 2ebd 73b5 3ebd
00000280: daf1 0dbc 4a6e 6c3d dff5 30bd 49f1 bdbc
00000290: 436b 56bd d0f8 7b39 980e bc3c 6f7d 773d
000002a0: 7a32 4f3d d55a 913d 3a5f a3bb 43fd e1bc
000002b0: d2fb 7bbc 82d1 963c b4fb 97bd ecb5 8cbc
000002c0: 7ed4 63bd 10fc eabd 34e9 c0bb 93da d53c
000002d0: 4abf 26bd 4291 da3d 94d3 04bc ed98 c8bc
000002e0: cff9 c33c e036 23bc 6eba eabc 27c2 513c
000002f0: e9d9 a33a 2780 c2bb 45c0 06bd 60d5 55bd
00000300: 4d32 7a3c c6bc 51bd 679d 82bd f97f 07be
00000310: a9e2 31bd 8c51 60bc 50cf 803d 435e 83bc
00000320: 03e4 3c3f f8ca 34bd 2485 983d 6294 283d
00000330: 4f0c c9bd c6ff 8f3d f6c9 3b40 fdab 8a3c
00000340: cbf5 31bd 06be 24be 92a0 15bd 9ce2 00be
00000350: d8f8 1abd 9308 bd3c 492d c73d ba7d 67bc
00000360: c057 f239 bb5d ecbb b4ca c9bb 87fa c23c
00000370: d680 bfbd 3eaf 99bd 5612 f7b8 278c dfbd
00000380: 8b91 6e3d 3e8a 05bd 4786 9f3c 2ca0 d3bc
00000390: 9b63 6b3d 8764 c4ba 9c63 ca3c fb86 11bd
000003a0: cfcd 0e3d d094 a9bd aa87 053d be9c c5bc
000003b0: f3f7 263c e6f3 693c d202 0cbd 100f 803b
000003c0: 074f cebd 4fa8 933c 1321 553d c72f a13d
000003d0: b051 a2bb b864 92bd 31ad 69bd 4f0e 4b3d
000003e0: 1525 acbc 6dbc a73b 32e8 2e3c be84 80bc
000003f0: 5317 93bc bbf3 d13c 9026 503d da47 023e
-0.06824695 -0.040506117 -0.031645276 0.074534714 -0.0019237153 -0.030182397 -0.0016795687 -0.08178848
-0.024762113 0.10277326 -0.0323216 0.03457711 0.067160524 -0.00892837 0.13179867 0.054238174
-0.045245577 0.10235324 -0.016796453 0.028819444 0.1334461 0.07307268 0.06593264 -0.03082273
-0.033955872 0.01721765 -0.07171581 0.052569322 0.08917318 -0.00680648 0.10712677 -0.017202176
0.003764317 0.04208834 0.012670009 -0.052941952 0.034279816 -0.0052066483 0.03409935 0.08022433
0.027768815 0.07798522 -0.024416527 0.006040651 0.012963886 -0.019146608 0.07097447 0.0051065986
-0.023587417 -0.003084655 0.062248822 -0.0290165 -0.026139094 0.02927537 -0.021868855 0.01802584
0.0070493435 -0.027934058 0.023415033 -0.0040622083 -0.026113708 0.057087507 0.096721314 -0.03405272
0.014451993 -0.111013465 0.061650846 -0.027694542 0.060227737 -0.04201126 0.089203484 -0.062482007
0.04768269 -0.009048937 -0.0060339626 0.003185992 0.076125726 -0.06013697 0.06433909 -0.0143733835
0.037048623 0.04825356 -0.018777896 0.01630713 0.099389814 0.025437307 -0.049055077 -0.01345123
0.07099863 0.0810596 -0.004864019 0.050479867 0.051400095 -0.00078827474 0.051752154 0.014791872
-0.010082138 0.06688552 -0.022862542 -0.047623444 0.1531716 -0.045072973 0.06765124 -0.041493252
0.071262896 -0.01685351 -0.039586466 -0.004495254 0.073605165 0.057683513 -0.027270045 -0.015382426
0.012102407 0.05474414 -0.055304527 0.024033487 0.005769089 0.001942372 0.011380402 0.029525654
0.06998338 0.023883255 0.052171547 -0.045807425 -0.016466267 -0.053561654 -0.03045891 -0.0042024083
-0.0264295 -0.006048039 -0.031158892 -0.045882247 0.02615561 -0.03228745 -0.026600005 -0.064607106
0.058954574 -0.019499797 0.08985269 -0.011592361 -0.039138824 -0.032700326 0.066179596 0.014165157
0.0471147 0.061474916 0.05454046 0.008851553 -0.044213198 -0.0068004504 0.0763719 0.0148289045
-0.019749276 -0.12976095 0.13051909 -0.008560629 -0.01765245 0.062309645 -0.042623196 -0.046559762
-0.008663619 0.057722367 -0.04320323 -0.023186343 -0.052348386 0.00024029915 0.022956178 0.060422357
0.050585248 0.07097403 -0.004985717 -0.027586585 -0.015379863 0.018410448 -0.074210554 -0.01717659
-0.05562257 -0.11473858 -0.005887175 0.0261052 -0.04070977 0.10672237 -0.008107085 -0.024486983
0.023922829 -0.009961814 -0.02865335 0.012802637 0.0012500855 -0.005935687 -0.032898206 -0.052205443
0.015270782 -0.05120542 -0.06377678 -0.13232411 -0.04342905 -0.013691317 0.06289542 -0.016036158
0.7378542 -0.04413888 0.074472696 0.041157134 -0.09816801 0.07031207 2.9342017 0.016927714
-0.043447297 -0.16088113 -0.036530085 -0.12586445 -0.037834972 0.023075378 0.09725434 -0.014129097
0.00046223216 -0.007213322 -0.0061581973 0.023801101 -0.093507454 -0.07504128 -0.00011781293 -0.10915404
0.05824427 -0.03260254 0.019473208 -0.025833212 0.057468038 -0.0014983573 0.0247057 -0.035529118
0.034864243 -0.08280337 0.032600082 -0.024122592 0.010190952 0.014279341 -0.034182377 0.0039080456
-0.10073667 0.018024592 0.052033495 0.07870441 -0.0049535856 -0.07148117 -0.057049934 0.049574193
-0.021013776 0.0051188977 0.010675477 -0.015688296 -0.017955458 0.025628915 0.050818026 0.12722722

layers.2.bias f4 [192]
00000000: c7d9 b03d 685b 70bc 0ee9 be3c 0de2 53bd
00000010: 67e3 4cbd 7e6e 96bb df28 8dbd 9130 193e
00000020: cf12 753d 3309 d8bc 89f5 99bc c9d8 57bd
00000030: 29c7 86bc 1417 a33d c674 33bd f5aa acbc
00000040: 0658 323c 7514 833d 9a2e 043d e64e 003e
00000050: 4703 87bd 0fed b43c c207 2c3e 0c00 cd3d
00000060: 9c68 7ebc c300 5bbb 4ac5 933d 8527 ecbc
00000070: 2c19 84bb c3d8 cb3d da4d cc3d 76db 643d
00000080: 8046 48bb 4721 813c db28 12bb e584 4b3d
00000090: e73c 8a3c 444f 8a3d 686f c93c 2d19 1e3c
000000a0: b89d 8a3b 977e 413d ae0f 583d e9b0 083e
000000b0: 76f0 44bd f8d1 86bc cc06 06bd 7774 47bd
000000c0: 0342 c13d be47 5d3d 5770 e23d 70e6 093e
000000d0: e1ba c93d a8e9 073d c3e9 cb3d 95d8 00be
000000e0: b1d6 25bd cdb3 66bd 3d70 893d 72c3 c03c
000000f0: bb9c d13d 7f88 b43d 50d8 4a3d 1d55 d33d
00000100: e8a6 d9bb 409d 82bd 0383 96bd 28bc bd3d
00000110: bcfb d63c 7a63 223e 7557 883c 6dfe 6d3d
00000120: ba58 043c 6b84 91bd d88c 8b3d 4d1c 48bd
00000130: 8be2 a53d 7eb8 88bc da9e b5bd 05eb 643d
00000140: cffd 57bc 55b4 dabd 5873 9abd b5ae 14bd
00000150: 7624 5dbd 1593 233c f0ef 82bd 0667 eb3d
00000160: b4d3 7f3c be18 a4bc e842 44bd 8592 703d
00000170: eba9 60bc c6b6 be3c 5ead 203d 36da d2bc
00000180: 1327 b6bc 0ad8 2fbd 05f6 1a3e 43c5 38bd
00000190: 558c c8bd c88f a7bd 80c0 9fbc 08d9 a83d
000001a0: 768b 2dbd 3ffd e63c 5958 513d 1652 bdbc
000001b0: cbd8 6ebc b6a6 1d3c c63b 29bc 0c5f 463c
000001c0: 0027 17bd b2ba 6abb d141 803d 2add 6d3d
000001d0: 3ed2 18bd fdda a0bd 7da3 043e 8584 74bb
000001e0: 486f 32bc dcdd 703d f391 ca3d aced 913b
000001f0: 6dcd 113d 5117 bbbc ca6c 20bd 674c a2bd
00000200: d790 bc3d 1013 363d 8bbd 47bc e59a deb9
00000210: 94a3 533d 8d6a c43d 09e6 cf3b eba7 56bc
00000220: a37b 443d 8a40 c6bc 0b36 473d e0a3 ab3c
00000230: e3ca cf3c 2afd 953c b5ab 973d 60d9 6fbd
00000240: 6c00 9f3c d1bf d53c c1c7 b8bc a890 4f3b
00000250: c73f 683d 526f 64bd 4b1f ce3d aeaa 81bd
00000260: 3dba a23d 897d d83d d779 32ba 3937 113d
00000270: a5c1 b93c 34d9 71bd cd21 ca3c 0772 1a39
00000280: bc5f 16bd a31d 663d fc11 0e3d 437a 6b3d
00000290: 96f9 d73c 15ed b03d 897a ef3c 1c54 9b3c
000002a0: 81b3 043c c2bb 3ebd a07e 393d 2b0d 113e
000002b0: dce8 db3d d4bf 0dbd 34b3 fbbc 6e0e 943d
000002c0: b31d f63c 138d dcba 45f6 3bbd c385 1c3e
000002d0: 0a8b 213e b46c 093c 2159 9bbb 46ad 5ebd
000002e0: 46e6 2e3d 9d46 be3d fab3 3fbd 4549 753d
000002f0: cb4c 53bd 222e b13d 1d48 8d3d 341d 493d
0.08635288 -0.01467023 0.023304489 -0.05172925 -0.050021555 -0.0045908084 -0.06892561 0.14959933
0.05983239 -0.026371574 -0.018793838 -0.052696977 -0.016452389 0.07963386 -0.043812536 -0.021077612
0.010885244 0.06400386 0.032271005 0.12530097 -0.06592422 0.022085695 0.16799834 0.100097746
-0.0155278705 -0.0033417202 0.07215364 -0.028827438 -0.004031321 0.099534534 0.099757865 0.055873357
-0.00305596 0.015762938 -0.0022302184 0.049687285 0.016874744 0.067534 0.024589255 0.009649557
0.0042302273 0.047239866 0.05274933 0.13348736 -0.048080884 -0.016457543 -0.032721326 -0.048695054
0.09436419 0.054023497 0.110565834 0.13466811 0.098500974 0.033181816 0.09956696 -0.1258262
-0.04048795 -0.056323815 0.06710861 0.023530696 0.10234972 0.08815097 0.049522698 0.103189684
-0.006642211 -0.06377649 -0.07349207 0.092644036 0.026243083 0.1585826 0.016643265 0.058103967
0.008077795 -0.07105335 0.06813973 -0.048855115 0.0809985 -0.016689535 -0.08868189 0.055888195
-0.013183071 -0.10678927 -0.07541531 -0.036299426 -0.05398985 0.009983798 -0.06393421 0.114942595
0.015614439 -0.02003133 -0.04791537 0.058733482 -0.013712387 0.023280513 0.039227836 -0.025738817
-0.022235429 -0.04293064 0.15132912 -0.04511 -0.09792391 -0.08181721 -0.01950097 0.082445204
-0.04236933 0.028196929 0.051109646 -0.02311043 -0.014578055 0.0096222665 -0.0103291925 0.012107622
-0.036902428 -0.0035816845 0.062625535 0.058072247 -0.037309878 -0.07854269 0.12952991 -0.0037310433
-0.010890789 0.05880533 0.09891119 0.0044533815 0.0355963 -0.022838267 -0.03916625 -0.07924729
0.092073135 0.044451773 -0.012191187 -0.00042458545 0.051669672 0.095906354 0.006344561 -0.013101558
0.04796947 -0.024200696 0.048635524 0.020952165 0.025365299 0.018309195 0.074057974 -0.058556914
0.01940938 0.026092442 -0.022556188 0.0031671915 0.056701448 -0.055770226 0.100645624 -0.06331383
0.079456784 0.10570819 -0.00068083167 0.035453055 0.022675345 -0.05904503 0.02467432 0.00014729063
-0.036712393 0.056180608 0.03468512 0.057489645 0.026364129 0.0863897 0.029233234 0.018961005
0.008099438 -0.04656578 0.045286775 0.1416518 0.10737774 -0.03460677 -0.0307251 0.07229315
0.030043459 -0.0016826711 -0.045889158 0.15285401 0.15775695 0.008387733 -0.0047408496 -0.054364465
0.042700075 0.09290812 -0.0468025 0.05988433 -0.051586907 0.08651377 0.0689852 0.049100116

layers.3.weight f4 [192, 192]
00000000: cd57 943c 306e 313c 2110 63bb a81c 0bbd
00000010: 616f ef3c a29e 813d 7e16 2aba 367b 4e3d
00000020: 2ff8 64bd c8bc 7d3c 3ebd 853b 6464 673d
00000030: 5d2d 0e3d 9f4f 9e3c b9a7 383b 112a 463d
00000040: e860 82bd f5d9 1fbd 44c1 6a3d e74b a13d
00000050: 633a 73bd aed5 86bd f045 e03d 1f09 eb3c
00000060: a360 cc3c 73b7 83bb db17 fe3d 5aef adbc
00000070: 199b f5bc fe9f 283d 5963 643d 44bf 8bbd
00000080: cc50 a1bd fde6 2cbf c958 843d 5765 debc
00000090: 4571 43bd 75ea d93d c417 f5bc 5bdb 223d
000000a0: 7f17 663d ab4c 463d 19a3 08bd 5daa db3d
000000b0: 3bb3 84bd 8573 fdbb 9a3e fd3c fb2a 743d
000000c0: 2af0 3f3d 4d27 c03b 6050 6f3d dc63 ac3c
000000d0: 4272 a2bc d7cd c2bb 76b1 b6bc 6aab 303c
000000e0: 55b5 0bbe 02c3 e0bc eaa5 723c 2fd7 af3c
000000f0: c989 773d d4fd b43c be8f 953c cdb6 d63d
00000100: 2aab ddbc 2f10 3fbd 8c6d 363d ad04 863d
00000110: bd1d c9bb 8a8c 853d da51 29ba f280 5a3c
00000120: ed64 e93c bea6 f53c ef1b 3b3d e32f 843d
00000130: ecc6 7ebd d41d d43c 5c6b aabe e8ac 1dbc
00000140: 9ee2 83bd 8f1c 38bc f834 e8bd 1c45 70bd
00000150: c9f0 4fbb d36c 3fbd e45d 7bbd 352a bcbb
00000160: 4c15 463b df9f 37bd 76d9 723d 3981 2c3c
00000170: dce5 b43c 4d76 863b a538 6ebd 0875 05bd
00000180: 51eb 9a3c 94a8 8fbc 1f6a 833d 86dd b7bc
00000190: f6ff 933d 116f 113d bb87 193c f1bd b63d
000001a0: e4a0 143d b3aa 0f3d 90e8 08bc bf93 b2bc
000001b0: b298 adbc 941a 413d eb56 383d 7a78 c93c
000001c0: 219c 0a3d 113c a2bd c175 5ebd 2f36 0d3d
000001d0: 9014 20bf 3b5f 823d f4f7 223d d8e0 19bc
000001e0: 9f84 39bd 0ad8 1e3c 2233 0b3d 3e0c aebc
000001f0: f370 0ebd e97f 8d3d db9a 16bd 48da bb3d
00000200: 4940 c23d f101 85bd 8a84 3cbc c21f 403c
00000210: 6b1e 12bd 2443 6abd bc54 9dbe f844 b33c
00000220: 1f8f 5eba 3c29 693b 6733 7ebd dbeb 73ba
00000230: 10a1 953d 8689 8e3c e7e9 423d bbcd 73bc
00000240: 0c30 71bc 90b2 933d 9eeb 83bd e3f3 f3bb
00000250: 8210 76bd ad92 1d3d 6b33 873d 56e0 5bbd
00000260: 7186 b43c 559f 133c 35b4 40bc add4 4ebd
00000270: f9d5 623d 5297 3c3d 2990 b2bc 53ed 2d3d
00000280: 2a91 163d 7fca 603d a857 823d 54e1 7b3d
00000290: 5a6c debc 20c4 1e3c 7f66 72bb fed6 fcbc
000002a0: 7122 98bb 7c5e 303d 97ee c3bc 5e4d 213d
000002b0: 17e9 863d 909c debc 0cdb 433d f1a6 a2bc
000002c0: 96b5 dbbc 2c56 5cbd bbea 913d aca4 d63b
000002d0: 8714 ea3d 3d3c 603d d27f a63d f240 103d
000002e0: abeb 973c dae0 993d b8eb 4ebc be41 48bc
000002f0: a106 5fbd 8661 99bd ab8d 26bd 0e09 623d
00000300: 0063 053d d48c 8e3d 7313 febb c1a9 4c3d
00000310: 82e5 bc3c 9cb9 3b3d 78d6 29bd b472 413d
00000320: 560c 2f3d 853c a53d 2b0d 9c3c a2db 293d
00000330: 3ac0 133d b0bf 163d 022e 8bbe c8f2 08bc
00000340: c172 5abd eeca 563c ee40 f1bc a2e3 bcbd
00000350: 75a8 733d e832 afbc 3027 9e3c 4220 5abd
00000360: e868 24bd 4cdf 093d ed85 56ba e704 763d
00000370: 5b26 023d 74d3 d13d 8b09 2f3c 8a3c 6c3d
00000380: 88dc 513d b854 b53f 8098 28bc a69d 423d
00000390: da81 a5bb 445f 5b3b 0178 65bd 167f 833d
000003a0: 52ec d43c f723 663d cea0 1fbd 5a39 a5bb
000003b0: ae18 1dbd 1b0f 193c 1b48 a23c 71ec 16bd
000003c0: d047 63bd 02f8 293c 83d3 c6ba d12f 07be
000003d0: 02c9 f53b b896 7c3d f25d 58bd a062 1fbe
000003e0: 2b13 7a3e 4b7e bf3d a191 24bd fe52 a73e
000003f0: 012f d13c 0741 d4bc 201d e43c dd03 023d
0.018108273 0.010829493 -0.0034647065 -0.033962876 0.029227914 0.06329085 -0.0006488337 0.05041047
-0.05590075 0.0154869035 0.0040813973 0.056492224 0.03471123 0.019325076 0.0028176142 0.04837996
-0.0636614 -0.03902622 0.05731322 0.07875805 -0.059381854 -0.06583725 0.109508395 0.028690873
0.024948424 -0.0040196716 0.12406894 -0.021232296 -0.029981183 0.041168205 0.055758808 -0.068235904
-0.07876739 -0.6753996 0.06462247 -0.027147932 -0.047715444 0.10640422 -0.029918559 0.039759975
0.05617475 0.04841296 -0.033358667 0.107258536 -0.06479498 -0.0077347183 0.03091364 0.059611302
0.046859898 0.00586406 0.05842626 0.02104371 -0.019829873 -0.005944948 -0.022301417 0.010783056
-0.13643391 -0.027436737 0.014810065 0.021464912 0.060434137 0.022093691 0.018257018 0.10484085
-0.027059156 -0.046646293 0.044538066 0.065438606 -0.0061375783 0.06520946 -0.0006459035 0.013336407
0.028490508 0.029986735 0.045680936 0.06454446 -0.062201425 0.02589313 -0.33285034 -0.009623744
-0.06439708 -0.011237278 -0.11338228 -0.058659658 -0.0031729212 -0.046734642 -0.061368838 -0.005742336
0.0030225096 -0.0448302 0.05928942 0.010528856 0.022082262 0.004103458 -0.05815949 -0.032582313
0.018911036 -0.017536439 0.06416725 -0.022444498 0.07226555 0.03550631 0.00937074 0.08922947
0.03628625 0.0350749 -0.0083562285 -0.021798966 -0.021190975 0.047144488 0.045004766 0.02459358
0.033840302 -0.07921613 -0.054311518 0.0344755 -0.62531376 0.0636582 0.039787248 -0.009391986
-0.045292493 0.009695062 0.03398431 -0.021246072 -0.034775686 0.069091626 -0.036768775 0.09172493
0.09484918 -0.06494511 -0.011506209 0.011726322 -0.03567354 -0.057192937 -0.3072871 0.021883473
-0.00084899546 0.0035577556 -0.06206074 -0.00093048596 0.07306111 0.01739956 0.047586348 -0.014880593
-0.014720928 0.072117925 -0.06441425 -0.007444845 -0.060074337 0.03846996 0.06601604 -0.05368074
0.022036763 0.009010156 -0.011761715 -0.050495792 0.05537984 0.046042748 -0.021797257 0.042462658
0.036759533 0.054880615 0.06364375 0.061494187 -0.027151275 0.0096903145 -0.0036987362 -0.030864235
-0.0046427776 0.043058857 -0.02391748 0.039380424 0.06587427 -0.027174264 0.04781632 -0.019854994
-0.026819985 -0.053793117 0.071248494 0.006550392 0.114296965 0.054744948 0.081298485 0.035218187
0.018544992 0.0751359 -0.012629442 -0.012222705 -0.05444968 -0.07489304 -0.04066245 0.055184416
0.032565117 0.069604546 -0.0077537834 0.049966577 0.023058657 0.045831308 -0.0414643 0.04722853
0.042736374 0.08068184 0.019049248 0.041469224 0.036071993 0.0368039 -0.2718354 -0.008358665
-0.053332094 0.013109906 -0.029449906 -0.09223105 0.059486825 -0.021386579 0.019305795 -0.05325342
-0.04013911 0.033660218 -0.00081834086 0.06006327 0.03177486 0.102454096 0.010683428 0.057674922
0.051235706 1.4166479 -0.010290265 0.047513627 -0.00505088 0.003347353 -0.056022648 0.06420724
0.025991593 0.056186642 -0.038971715 -0.005042237 -0.038353615 0.00934198 0.019809773 -0.03684658
-0.055488408 0.010374071 -0.0015169237 -0.13201834 0.0075007686 0.061667174 -0.05282397 -0.15564966
0.24421374 0.0935026 -0.040177945 0.32680506 0.025535109 -0.025909914 0.02784592 0.031741966

layers.3.bias f4 [192]
00000000: 3fe7 ed3d 784a 8a3d 3e85 26be d817 b6bc
00000010: 9ca9 cb3d 7ca0 6abd ea77 49bd cb69 223e
00000020: b24d 0c3e 3b25 5f3d 631a 483d 0fff 8b3d
00000030: ae64 0b3e e574 d33d acc8 a8bd 4006 33bb
00000040: 0070 953d 1aac 393e 7202 bf3d bdf8 c5bb
00000050: 5b5a 2cbd ebf7 583e 39b2 bfbd 5779 f73d
00000060: bf60 d23d e8bf 9b3c a85f be3c f6d9 023e
00000070: ff68 9f3d bf3b e13b 0411 84bd cbd6 8f3d
00000080: 4a35 363d ef67 a8bd 7e0b 353e 7ae7 103e
00000090: b8f2 a53d 6699 52bd b580 7b3d 84f0 a1bd
000000a0: 0d2f 13bd 32e3 80bd 51d1 033d 6017 22bc
000000b0: 2c35 59bd 0d7a 0e3e 0b15 8fbd 0976 863d
000000c0: ddf1 023e a31f 303c 1d49 043e dcaf 823d
000000d0: df90 eebc af21 38bd bfd7 013d de0f e7bc
000000e0: 4190 763c fdab ae3d 77ad bf3d 49a1 443e
000000f0: 49d8 fb3c 6a03 5b3c 8a83 ec3c 1eda 033d
00000100: 3a7a ba3d a434 293e 34e2 263d 51da 523d
00000110: 93a2 0cbe 5887 46bc d369 d6bd 2bb6 6b3d
00000120: 6809 023e 17a9 8dbd a158 103e 5a12 663e
00000130: 8931 e4bd 54a6 2bbd a4de 02bd 5a56 0a3e
00000140: 9ee7 9ebd 178f 91bc 3932 e43a 49db f53d
00000150: 0198 243d 5802 413d 0e02 b0ba 3546 8d3d
00000160: 2a9b 583d 63cf 36bd 266d bd3d 033c a7bd
00000170: 9059 af3d a164 e83c f910 ce3c 6b27 1d3d
00000180: a53e bfbd 8559 a8ba 629e a33d ba62 4dbd
00000190: 8635 6b3e 12e7 fb3d fde3 10bd 05ba 6b3d
000001a0: 7bcc 8f3c b00a 783c 24c1 3bbd 5c3f abbc
000001b0: 1e86 803c e205 0b3e 5aee 263d 807a a8bb
000001c0: 27a4 e13d c04a d6bc f9a9 f33d 1f6b 493e
000001d0: 3969 6e3d 7fff cd3b c044 48bd db1b 173e
000001e0: e62b 083d e8a7 113d d291 2a3e a2fd 3b3e
000001f0: b6e2 34bd c686 a13c e6b7 a8bc 175f e63d
00000200: 2f3c b33d 4817 88bd edfd 543d 2cea 87bd
00000210: c1f0 88bd 41ae 1dbe ea97 09bd 43c8 18bc
00000220: 7834 46ba 79d3 173e af00 9c3c a602 583d
00000230: 0f9d 1cbd 4f5e 8dbd 068b ebbc b40f 29bd
00000240: 86ba b7bd c0c0 98bd ab08 ba3b 5310 ae3d
00000250: 7858 2b3d 4a41 683e a577 de3d e276 38bd
00000260: 92f9 cd3c 0831 143e 43c2 a13b d8c8 96bd
00000270: 7301 bb3d 2ca2 87bd 5d70 d1bc a127 c6bc
00000280: c4df 3ebd c6ef 5abd af53 753d d09d 653d
00000290: af61 403d f239 62bc 34c1 283d 31f6 013e
000002a0: 53ec fabc 82d0 323d 2064 d73c 8624 72bd
000002b0: e71a 823d ed02 8ebd 93d8 1d3d b370 80bc
000002c0: 45ef b23b 9b8f f3ba d39c de3c bf04 f43d
000002d0: 12c0 a3bd 73ec 5fbc ecc0 8dbd 932a 443d
000002e0: b3c1 1cbd 2d14 a2bd d33f 63bd f189 8abc
000002f0: d159 0e3d 7622 48bd f19a c93d 8940 a63d
0.11616372 0.06752485 -0.16261765 -0.022228166 0.0994446 -0.057281956 -0.049186625 0.1586067
0.13701513 0.054478865 0.04885329 0.06835758 0.13612625 0.1032503 -0.082414 -0.0027316958
0.07296753 0.18132058 0.09326638 -0.006041615 -0.042078357 0.21188323 -0.09360165 0.120836906
0.10272359 0.019012406 0.023238972 0.12778458 0.07783698 0.0068735774 -0.06448558 0.070233904
0.044484414 -0.08222949 0.17680165 0.14150801 0.081029356 -0.051415823 0.06140204 -0.07907203
-0.035933543 -0.06293334 0.03218204 -0.009893268 -0.053029224 0.13913746 -0.069864355 0.06565482
0.12787576 0.01074973 0.12918516 0.06381199 -0.029121814 -0.044954 0.031699892 -0.028205808
0.015049041 0.08528898 0.09359258 0.1920215 0.030742781 0.013367513 0.028871316 0.032190435
0.09105344 0.16523987 0.040743068 0.051477734 -0.13733892 -0.012117229 -0.10469403 0.057546776
0.126989 -0.06917017 0.14096309 0.22467938 -0.111422606 -0.04190667 -0.031950608 0.13509503
-0.07759021 -0.017768426 0.0017409987 0.12004716 0.040184025 0.047121376 -0.0013428347 0.068981566
0.05288235 -0.044631373 0.09249334 -0.08165743 0.085620046 0.028368296 0.025154578 0.03836767
-0.0933812 -0.0012844062 0.079891935 -0.05014298 0.22969636 0.122999325 -0.035373677 0.05755045
0.017553559 0.015139267 -0.04583849 -0.020904236 0.015688952 0.13576463 0.040754654 -0.0051415563
0.11017638 -0.02615869 0.11897654 0.1966977 0.058205817 0.006286561 -0.04889369 0.1475672
0.03324499 0.03556052 0.16657189 0.18358472 -0.04416152 0.019717585 -0.020595502 0.11248606
0.087517135 -0.066450655 0.051999975 -0.066364616 -0.06686545 -0.15398504 -0.033592142 -0.00932509
-0.0007560919 0.14826764 0.019043295 0.0527369 -0.03823572 -0.069027536 -0.028752815 -0.04127474
-0.089711234 -0.07458639 0.005677303 0.08499207 0.041832417 0.22681156 0.10862664 -0.04503525
0.025143418 0.14471829 0.004936488 -0.07362527 0.09131136 -0.06622729 -0.025566274 -0.024188818
-0.04660012 -0.053451322 0.05989426 0.056058705 0.04696816 -0.013807761 0.041199878 0.12691571
-0.030630266 0.04365588 0.02629286 -0.059116863 0.063527875 -0.06934152 0.03853662 -0.01567874
0.005460652 -0.0018582226 0.027174389 0.11914968 -0.07995619 -0.013667214 -0.069215626 0.047892164
-0.038270663 -0.079140045 -0.05548079 -0.016911479 0.034753624 -0.04886099 0.09844006 0.08117778
