deployment_models/model_(192, 192, 192, 192)_bs_64_mse_0.03705_mae_0.03885.pth (torch, 455175 bytes, 10 tensors)

layers.0.weight f4 [192, 3]
-0.37998128 -0.27167007 -0.48850462 0.4096382 -0.6491079 -0.29895994 -0.09810621 0.36889872
-0.48475146 -0.38909432 0.013759911 -0.07696879 0.53758496 0.22183657 0.46007326 -0.27423233
-0.3344878 -0.014953121 -0.4892101 -0.49761495 0.25015137 0.0015901084 -0.6842566 0.19149572
-0.02725731 0.37248525 0.318451 0.47511676 -0.027863817 -0.4647563 0.41784215 0.30329642
0.47538847 -0.20734552 -0.36503452 -0.14791611 0.54054683 0.0037309441 -0.46178916 0.07946306
0.23444702 0.3462155 -0.44808602 -0.08040483 -0.3174516 0.23577857 -0.5927297 0.16336088
-0.2772671 -0.10958152 -0.08526337 0.46090212 0.35116452 -0.5349303 -0.048159536 0.66926384
-0.102275744 -0.6306075 -0.1075109 0.5039331 -0.60957557 -0.043204866 0.42564997 -0.5094905
-0.08937705 0.19766915 0.5434428 0.37177953 0.4254499 0.2015047 -0.21244264 0.34470138
-0.27436906 0.24297304 -0.08993747 -0.107447706 -0.6084244 0.043826874 -0.35908297 0.013922333
-0.05275443 0.3232807 0.6063213 0.26976052 0.29369068 0.15412807 0.31732696 0.15794946
-0.1811242 0.42355505 -0.06865911 -0.45141134 -0.099659786 0.086747535 0.26958707 -0.19022185
0.42151675 -0.4721519 -0.015808081 0.046277314 -0.1534881 0.040511157 -0.048901714 0.0063851583
-0.12123187 -0.13811424 0.41801602 -0.21567349 0.33551008 0.37864244 -0.48842487 -0.5787191
-0.36532828 0.26363274 0.3227389 0.064070486 -0.42025062 -0.23968044 0.058856077 0.4841758
-0.04558138 -0.6178517 -0.18240893 0.0065952586 0.13018559 -0.16429783 0.10519345 0.2777024
0.027990606 0.12833032 -0.53988785 0.3777942 -0.07277405 -0.35311922 -0.4202402 0.13698776
-0.35907194 0.44316363 -0.011993582 -0.2740191 -0.43388152 0.06228712 0.44899252 0.4698999
0.39186668 -0.3942881 0.19845463 -0.46963403 0.08106218 -0.52072173 0.35396963 0.30353272
-0.20604464 0.5897562 0.05672479 0.41167656 0.33776787 0.3270646 0.05024627 -0.040274076
0.37028947 -0.48998213 0.094383255 -0.4380197 -0.2649991 -0.18154691 -0.05111492 -0.013802681
0.4033038 0.0823697 0.022723531 -0.18123496 0.15877965 -0.5796954 0.04587154 0.5335062
-0.25452036 -0.27360234 -0.6483626 -0.16423708 -0.27582955 0.34454918 0.09020018 0.111677684
0.111968316 -0.14798148 0.4418366 0.19781049 -0.13390392 -0.1482569 0.06314321 0.0059599453
-0.0953775 0.5291787 0.4830889 -0.20169435 -0.21873519 0.15219153 -0.29076967 0.071515635
0.1070038 -0.38745177 -0.04236391 0.31954896 -0.36774296 0.5351287 0.3065097 -0.28742182
0.3577507 0.42376232 0.26055345 0.15425475 0.3675151 0.28556716 0.29477432 0.34971842
0.5001445 0.5779949 0.08113282 0.14879383 0.33026066 -0.30158362 -0.260252 0.4681057
-0.18117051 -0.5486905 0.3983265 -0.44255787 0.57488245 -0.14789455 -0.49319127 -0.5509364
-0.11887225 0.32374677 0.13524799 0.1861795 0.47065917 0.4315486 0.5965455 0.13630715
-0.4233769 -0.47528744 -0.36777383 -0.020814486 0.03472585 -0.25814 0.23495105 0.108290374
0.4628439 0.45591486 0.3584231 0.42579994 -0.1405128 0.037354637 0.22769244 0.2116292
00000000: e88c c2be 5718 8bbe 471d fabe 19bc d13e
00000010: ef2b 26bf 4711 99be e9eb c8bd 4be0 bc3e
00000020: 5831 f8be 5f37 c7be 4071 613c d0a1 9dbd
00000030: 2b9f 093f 2029 633e b98e eb3e 2e68 8cbe
00000040: fc41 abbe effd 74bc bf79 fabe 63c7 febe
00000050: d713 803e 2f6b d03a 712b 2fbf 7417 443e
00000060: b94a dfbc 63b6 be3e 020c a33e 8142 f33e
00000070: a942 e4bc 8af4 edbe 68ef d53e ab49 9b3e
00000080: 1e66 f33e 6252 54be cee5 babe 5277 17be
00000090: 4761 0a3f db82 743b a16f ecbe 87bd a23d
000000a0: e112 703e 2843 b13e 886b e5be 4aab a4bd
000000b0: 0489 a2be f06f 713e 22bd 17bf 1348 273e
000000c0: f4f5 8dbe 476c e0bd 909e aebd 5dfb eb3e
000000d0: d6cb b33e 31f1 08bf ef42 45bd e054 2b3f
000000e0: f275 d1bd 7e6f 21bf ad2e dcbd c201 013f
000000f0: 250d 1cbf 96f7 30bd cbee d93e f86d 02bf
00000100: 510b b7bd c869 4a3e 111f 0b3f e359 be3e
00000110: 92d4 d93e 4057 4e3e 908a 59be b37c b03e
00000120: 1a7a 8cbe edcd 783e 2331 b8bd 8b0d dcbd
00000130: b4c1 1bbf cf83 333d b9d9 b7be 7f1a 643c
00000140: 0715 58bd 0c85 a53e df37 1b3f 0d1e 8a3e
00000150: a05e 963e c0d3 1d3e ae78 a23e 81bd 213e
00000160: 9f78 39be 35dc d83e 269d 8cbd 631f e7be
00000170: 6e1a ccbd b1a8 b13d 5107 8a3e 84c9 42be
00000180: 0bd1 d73e e5bd f1be f37f 81bc 488d 3d3d
00000190: fc2b 1dbe 07ef 253d 2a4d 48bd 973a d13b
000001a0: 6a48 f8bd d26d 0dbe 3206 d63e 83d9 5cbe
000001b0: fac7 ab3e 6cdd c13e d312 fabe ef26 14bf
000001c0: 4f0c bbbe dffa 863e 083e a53e 6337 833d
000001d0: 172b d7be ca6e 75be 1213 713d e4e5 f73e
000001e0: 8bb3 3abd 872b 1ebf 68c9 3abe 0a1d d83b
000001f0: 5f4f 053e b13d 28be aa6f d73d 022f 8e3e
00000200: 8e4c e53c 0669 033e 1736 0abf 3e6e c13e
00000210: 900a 95bd 0bcc b4be b929 d7be 8546 0c3e
00000220: 47d8 b7be 58e6 e23e bb80 44bc 3b4c 8cbe
00000230: b825 debe c720 7f3d 59e2 e53e b896 f03e
00000240: c0a2 c83e 21e0 c9be b137 4b3e df73 f0be
00000250: ee03 a63d 054e 05bf 823b b53e a468 9b3e
00000260: 5efd 52be 43fa 163f 4158 683d 45c7 d23e
00000270: e9ef ac3e 0375 a73e 08cf 4d3d 6ef6 24bd
00000280: 9596 bd3e f0de fabe 024c c13d 1e44 e0be
00000290: f6ad 87be 6fe7 39be e15d 51bd a424 62bc
000002a0: d67d ce3e 72b1 a83d b326 ba3c a895 39be
000002b0: 2297 223e eb66 14bf cce3 3b3d dd93 083f
000002c0: 7e50 82be 9b15 8cbe 17fb 25bf c42d 28be
000002d0: 8839 8dbe c068 b03e dfba b83d 45b7 e43d
000002e0: a54f e53d 7588 17be 6838 e23e d58e 4a3e
000002f0: 1c1e 09be a8d0 17be 3a51 813d a54b c33b
00000300: 4755 c3bd 4178 073f 6e57 f73e f788 4ebe
00000310: 1efc 5fbe 19d8 1b3e c3df 94be ca76 923d
00000320: cf24 db3d 1460 c6be c785 2dbd ec9b a33e
00000330: ce48 bcbe 32fe 083f d7ee 9c3e f428 93be
00000340: 1a2b b73e 60f7 d83e 4367 853e f5f4 1d3e
00000350: f02a bc3e dc35 923e a9ec 963e 4b0e b33e
00000360: 7809 003f 79f7 133f f728 a63d 695d 183e
00000370: ed17 a93e 2b69 9abe c03f 85be 8dab ef3e
00000380: c384 39be fb76 0cbf 73f1 cb3e f296 e2be
00000390: 7f2b 133f ab71 17be 9183 fcbe 2b0a 0dbf
000003a0: 4b73 f3bd 23c2 a53e 737e 0a3e d7a5 3e3e
000003b0: 3dfa f03e f0f3 dc3e 35b7 183f 1a94 0b3e
000003c0: dbc4 d8be e058 f3be da4c bcbe 2483 aabc
000003d0: b13c 0e3d ed2a 84be 0297 703e 58c7 dd3d
000003e0: e0f9 ec3e ac6d e93e 3c83 b73e 7302 da3e
000003f0: 96e2 0fbe 2d01 193d 3528 693e 53b5 583e

layers.0.bias f4 [192]
-0.41199738 -0.636027 0.54020053 -0.25278598 0.23279634 0.38843125 -0.5288632 -0.52392745
-0.33043313 -0.06666605 0.43252638 0.41348228 0.53956646 -0.3776709 0.12920281 0.55982095
0.6016428 0.0038205432 0.525678 0.017125001 -0.34045163 0.08769268 0.55026025 0.56156397
-0.37971395 0.4705835 -0.11980343 0.31930453 0.32482964 -0.1562141 -0.07304 0.049254738
0.03185172 0.30440837 -0.036483638 0.59328383 -0.48076874 -0.25018218 -0.23078837 -0.016755773
-0.3098657 0.19810697 -0.27998248 0.13436541 -0.019182054 0.39255065 0.483982 0.011204722
0.100302696 -0.09170846 0.021746634 -0.16792944 -0.4466275 0.43413255 0.23666443 -0.39241266
0.5429576 0.31959856 -0.62738085 0.38930568 -0.2759105 0.47336373 0.26456124 -0.41327417
-0.2495772 -0.13115972 -0.08284386 -0.39122215 0.5789788 0.049502924 0.27865234 -0.0605701
0.5000873 0.4810225 -0.25799426 0.118419215 -0.2405764 -0.20454563 0.4786205 -0.22175266
-0.19780052 0.56030923 -0.45551732 0.62196743 0.5113991 -0.16469556 0.2856557 0.5655032
0.3297296 -0.0049026613 -0.1184418 -0.24493968 -0.3627462 -0.56182593 -0.27066526 -0.21347205
-0.53137285 -0.5283394 -0.15342826 -0.19039916 -0.30027384 -0.43486932 0.26224765 -0.22482537
0.2567282 0.27142373 0.26196313 0.46438226 -0.4055751 0.3138408 -0.4475129 -0.4916103
-0.009141568 0.40095028 -0.16422565 -0.0153898345 0.6084537 -0.47614264 -0.25616562 0.40860534
-0.036151614 0.5634371 -0.10188537 -0.013091441 0.3092614 -0.18354926 0.57596767 -0.4531626
-0.0014913103 -0.02403477 0.31754437 -0.024435597 -0.37364656 0.23338977 0.062012974 0.14038835
0.45276853 -0.19858624 -0.476601 0.13172652 -0.26550803 0.35805216 -0.045624174 -0.16560933
0.5192753 0.11941604 -0.49909475 -0.5628253 0.38845825 -0.37360674 -0.26787242 -0.18069845
-0.350472 0.42236778 0.5509688 -0.18458828 -0.28861582 -0.30009368 0.091004536 -0.5906554
0.1198213 -0.15883148 -0.507144 -0.588073 0.1961727 -0.40135416 -0.69512004 -0.35205245
0.31452674 0.41714457 0.13085863 -0.35177213 0.11360005 0.30527872 -0.3833422 0.51726943
-2.5220954e-05 0.038241327 0.11444873 -0.12166523 -0.47059873 0.093066126 0.17001058 -0.083155625
-0.42578623 -0.27142173 0.31917962 -0.10559817 -0.34498003 0.3655766 0.45006117 -0.30097985
00000000: 52f1 d2be aad2 22bf 954a 0a3f 2a6d 81be
00000010: 2a62 6e3e 76e0 c63e 9463 07bf 1c20 06bf
00000020: 882e a9be 3688 88bd 1974 dd3e f3b3 d33e
00000030: 0721 0a3f 155e c1be be4d 043e 6d50 0f3f
00000040: 4305 1a3f 1462 7a3b d592 063f bb49 8c3c
00000050: ad4f aebe 3898 b33d dbdd 0c3f a8c2 0f3f
00000060: de69 c2be 52f0 f03e 805b f5bd e27b a33e
00000070: 1250 a63e 97f6 1fbe ff95 95bd 56bf 493d
00000080: f376 023d 6adb 9b3e de6f 15bd 73e1 173f
00000090: 5227 f6be e117 80be c953 6cbe 6743 89bc
000000a0: b8a6 9ebe 8edc 4a3e dd59 8fbe 1697 093e
000000b0: af23 9dbc 66fc c83e 7dcc f73e 0394 373c
000000c0: 806b cd3d a5d1 bbbd ff25 b23c b2f5 2bbe
000000d0: 5cac e4be 9f46 de3e 2958 723e 50ea c8be
000000e0: 45ff 0a3f 6ca2 a33e 089c 20bf 1353 c73e
000000f0: 2444 8dbe bb5c f23e 9274 873e ac98 d3be
00000100: 2a91 7fbe bc4e 06be 0baa a9bd 454e c8be
00000110: f437 143f 94c3 4a3d 85ab 8e3e 5a18 78bd
00000120: b905 003f 9548 f63e d317 84be c685 f23d
00000130: a959 76be 6974 51be bf0d f53e 2113 63be
00000140: 388c 4abe 6d70 0f3f 9139 e9be 4239 1f3f
00000150: 0deb 023f f4a5 28be 7741 923e d1c4 103f
00000160: 51d2 a83e 81a6 a0bb 9d91 f2bd 78d1 7abe
00000170: dfb9 b9be d3d3 0fbf a394 8abe 6b98 5abe
00000180: 0d08 08bf 4041 07bf 4c1c 1dbe fff7 42be
00000190: 7ebd 99be 31a7 debe 5345 863e 9f38 66be
000001a0: e171 833e 0df8 8a3e 0820 863e 83c3 ed3e
000001b0: 8aa7 cfbe beaf a03e 6920 e5be 58b4 fbbe
000001c0: 84c6 15bc 5b49 cd3e c52a 28be a525 7cbc
000001d0: 9fc3 1b3f f8c8 f3be 2428 83be b834 d13e
000001e0: b713 14bd 6a3d 103f 47a9 d0bd 7c7d 56bc
000001f0: 8357 9e3e 56f4 3bbe 9e72 133f ee04 e8be
00000200: 1278 c3ba 91e4 c4bc 2d95 a23e 292d c8bc
00000210: 9a4e bfbe bafd 6e3e 5101 7e3d f7c1 0f3e
00000220: 47d1 e73e 315a 4bbe 0c05 f4be 51e3 063e
00000230: abf0 87be 9d52 b73e 6ae0 3abd 7e95 29be
00000240: 3aef 043f 6690 f43d 5989 ffbe 5215 10bf
00000250: 00e4 c63e 6249 bfbe 9326 89be 0409 39be
00000260: 1171 b3be 9740 d83e 4b0c 0d3f b604 3dbe
00000270: 74c5 93be e1a5 99be 9660 ba3d 3135 17bf
00000280: df64 f53d b8a4 22be 30d4 01bf f48b 16bf
00000290: 7fe1 483e 4b7e cdbe 63f3 31bf 3840 b4be
000002a0: a609 a13e f993 d53e ceff 053e 7a1b b4be
000002b0: 25a7 e83d 7e4d 9c3e 6e45 c4be c56b 043f
000002c0: 9691 d3b7 f0a2 1c3d 1964 ea3d 9f2b f9bd
000002d0: 51f2 f0be 7499 be3d 4117 2e3e 7f4d aabd
000002e0: a700 dabe caf7 8abe 836b a33e da43 d8bd
000002f0: 39a1 b0be db2c bb3e 6b6e e63e 081a 9abe

layers.1.weight f4 [192, 192]
-0.026336875 0.003797164 -0.032292448 -0.030590825 0.061803535 -0.04301101 -0.049191624 -0.029024847
-0.0507481 -0.04440604 -0.0061532836 -0.0058492483 0.019301556 -0.07069626 0.054429702 -0.049141668
-0.051346183 -0.0620492 -0.05691053 0.035579294 -0.061313048 -0.04754959 0.023227697 -0.07300455
-0.070803426 0.015925165 -0.008151402 0.028876452 -0.0023831674 0.025090337 0.026427792 -0.024577893
0.058010772 0.021112932 0.048936464 -0.0046913926 0.00893093 -0.06202599 -0.006373965 0.018873598
0.027670093 -0.027961973 0.043360386 0.040578704 0.06914183 -0.057425536 -0.028099522 -0.027575208
-0.023028165 0.048741885 0.038932513 -0.044176914 -0.0017393053 -0.033581816 -0.041272458 0.02909171
-0.040473506 0.023015648 -0.04064168 -0.03386224 0.035460815 0.015172059 0.038403384 -0.044537198
0.02868924 -0.021503534 -0.064351045 0.013931574 0.0031525658 -0.0054899286 -0.069288276 -0.031018583
-0.019510422 -0.05848691 0.040897407 -0.0025221284 -0.029327283 -0.038913265 -0.038492113 -0.033824135
-0.0016706877 0.010046727 0.058749367 0.044886943 0.036666326 0.07001554 -0.023880698 0.0474237
-0.029004542 -0.06111189 -0.062020615 -0.060542766 -0.07200739 -0.003924087 0.049972333 0.008536148
-0.06587858 -0.0061373077 0.049033675 -0.021636326 -0.019384883 -0.053627104 0.052972227 0.0028243675
-0.04050946 0.06026483 0.0117323585 -0.018991454 -0.005586763 -0.018037608 0.04099921 -0.022339059
0.014293055 -0.04436121 0.027581016 -0.030818284 -0.066883415 0.0056305705 -0.05693318 -0.020739064
-0.03922311 0.022726497 -0.05921372 -0.039173193 0.028067062 0.022796482 0.06481685 -0.07373048
0.0050191265 0.035886467 -0.02779674 0.030163206 0.007740609 -0.005588132 -0.030847866 0.0056964913
-0.0044999067 0.05328614 -0.045137417 -0.0476984 -0.007255731 -0.0029104904 -0.024693713 -0.034234595
-0.032901287 0.050014924 0.06643225 -0.010961298 -0.061471835 -0.03750094 -0.007061805 -0.03933792
0.047065616 -0.060103893 -0.0480814 -0.03673658 -0.05779738 0.0096094785 0.027332125 0.053561352
-0.0077981027 0.03476286 0.056651887 0.0006872744 -0.025890736 -0.033725742 0.06900336 0.07135684
-0.06995936 -0.042420194 -0.0071894615 0.040254705 -0.068382904 0.067849055 0.0057964246 -0.030439628
-0.008254716 0.056553677 0.03327847 0.043306034 0.05568914 -0.005536552 -0.0058900565 -0.012115591
0.05124747 -0.008741675 0.0063906745 0.061557908 0.049515244 0.020958006 0.03882147 0.062311582
0.03513166 0.024790334 -0.047028683 -0.08107136 -0.002198405 0.041643087 -0.05982174 -0.113942586
-0.058392677 -0.01246906 0.07299061 -0.051928487 0.020468779 -0.01577818 0.007678247 -0.0444586
0.03840465 0.006140396 0.073056 -0.044692483 -0.031564377 0.010927962 0.028092103 0.06545624
0.056174412 0.054792184 -0.112350926 -0.031278554 -0.022456065 0.041138075 0.046420526 -0.025522416
-0.056986514 -0.042620998 0.025503742 0.058870863 0.01386136 0.020637227 -0.085500345 -0.051537924
-0.033060264 0.02968093 0.003036797 0.04829717 -0.02463008 -0.034583762 -0.02249345 -0.052059747
-0.030458203 0.018222667 -0.00975303 0.056274027 0.010834554 0.017855348 0.06661255 0.0072622444
0.038630582 -0.011056029 0.03987611 -0.07374558 -0.05186609 0.06613217 0.018831626 0.00038710912
00000000: 6ec0 d7bc d7d9 783b 1645 04bd 9c99 fabc
00000010: b425 7d3d 502c 30bd 287d 49bd 84c5 edbc
00000020: 3ddd 4fbd 1ce3 35bd 7ca1 c9bb 0dab bfbb
00000030: 4c1e 9e3c 33c9 90bd aef1 5e3d c648 49bd
00000040: 6050 52bd 4d27 7ebd 041b 69bd 98bb 113d
00000050: 6423 7bbd 5cc3 42bd 0348 be3c 6983 95bd
00000060: 6301 91bd 7e75 823c 758d 05bc 4f8e ec3c
00000070: ea2e 1cbb 408a cd3c 197f d83c 9457 c9bc
00000080: b49c 6d3d 07f5 ac3c 9a71 483d 41ba 99bb
00000090: 0953 123c f70e 7ebd b2dc d0bb ce9c 9a3c
000000a0: 64ac e23c 8210 e5bc a99a 313d db35 263d
000000b0: 3b9a 8d3d 0a37 6bbd f830 e6bc 67e5 e1bc
000000c0: 90a5 bcbc 92a5 473d b377 1f3d daf2 34bd
000000d0: 67f9 e3ba 168d 09bd 4f0d 29bd bd51 ee3c
000000e0: 8cc7 25bd 508b bc3c e477 26bd 22b3 0abd
000000f0: 5c3f 113d 3a94 783c de4c 1d3d a36c 36bd
00000100: b205 eb3c 2e28 b0bc 7bca 83bd 4241 643c
00000110: 479b 4e3b dce4 b3bb 03e7 8dbd af1a febc
00000120: 52d4 9fbc f88f 6fbd 0a84 273d 4b4a 25bb
00000130: c53f f0bc 8463 1fbd e8a9 1dbd 2d8b 0abd
00000140: fafa daba 079b 243c 2da3 703d 5fdb 373d
00000150: 6e2f 163d 4f64 8f3d 74a1 c3bc 5b3f 423d
00000160: ef9a edbc 7650 7abd 5409 7ebd b1fb 77bd
00000170: 9c78 93bd a195 80bb caaf 4c3d 33db 0b3c
00000180: 59eb 86bd 781b c9bb 89d7 483d aa3e b1bc
00000190: 0ccd 9ebc 18a8 5bbd 68f9 583d 0619 393b
000001a0: 3fed 25bd 41d8 763d 1439 403c f793 9bbc
000001b0: 2a11 b7bb 9bc3 93bc caee 273d 6700 b7bc
000001c0: 6b2d 6a3c 1ab4 35bd 95f1 e13c a076 fcbc
000001d0: 2cfa 88bd a680 b83b c432 69bd f8e4 a9bc
000001e0: 69a8 20bd eb2c ba3c 168a 72bd 1274 20bd
000001f0: e5ec e53c b0bf ba3c b2be 843d 0200 97bd
00000200: 7c77 a43b b0fd 123d fdb5 e3bc d418 f73c
00000210: efa4 fd3b a61c b7bb aab4 fcbc a2a9 ba3b
00000220: f473 93bb 9142 5a3d 03e2 38bd 665f 43bd
00000230: 7cc1 edbb edbd 3ebb 784a cabc 9339 0cbd
00000240: 80c3 06bd 73dc 4c3d a20d 883d 0497 33bc
00000250: e4c9 7bbd 969a 19bd b766 e7bb cc20 21bd
00000260: e0c7 403d 802f 76bd 01f1 44bd 1979 16bd
00000270: f2bc 6cbd 1371 1d3c 9fe7 df3c 2663 5b3d
00000280: 3a87 ffbb 8063 0e3d cf0b 683d 342a 343a
00000290: cf18 d4bc 0124 0abd a251 8d3d 8923 923d
000002a0: da46 8fbd ccc0 2dbd 9395 ebbb 1ee2 243d
000002b0: 560c 8cbd 72f4 8a3d efef bd3b 875c f9bc
000002c0: ca3e 07bc d4a4 673d 014f 083d ab61 313d
000002d0: 4c1a 643d f76b b5bb 6001 c1bb 7980 46bc
000002e0: dee8 513d 3e39 0fbc dd68 d13b 2524 7c3d
000002f0: 7fd0 4a3d 20b0 ab3c 4303 1f3d 6e3a 7f3d
00000300: 37e6 0f3d 1915 cb3c 26a1 40bd be08 a6bd
00000310: 1e13 10bb f191 2a3d a407 75bd bb5a e9bd
00000320: 292d 6fbd 074b 4cbc 1a7c 953d f7b2 54bd
00000330: 24ae a73c 3e41 81bc ce99 fb3b 391a 36bd
00000340: 324e 1d3d 6035 c93b 629e 953d 770f 37bd
00000350: a649 01bd 320b 333c 6921 e63c ec0d 863d
00000360: 2417 663d c56d 603d 3e18 e6bd f11d 00bd
00000370: c8f5 b7bc 6680 283d 7323 3e3d 6314 d1bc
00000380: b16a 69bd 5b93 2ebd 39ed d03c 9322 713d
00000390: c21a 633c 670f a93c ce1a afbd 6e19 53bd
000003a0: 336a 07bd 6c25 f33c 0005 473b 41d3 453d
000003b0: 06c5 c9bc b4a7 0dbd 2f44 b8bc 9a3c 55bd
000003c0: 7b83 f9bc b447 953c 2ccb 1fbc 987f 663d
000003d0: 6a83 313c 6145 923c 296c 883d 1ff8 ed3b
000003e0: 1a3b 1e3d 5924 35bc 2255 233d ec07 97bd
000003f0: 8a71 54bd 4e70 873d c844 9a3c e8f4 ca39

layers.1.bias f4 [192]
-0.06829915 0.06941415 0.008852162 0.0686406 -0.0072034327 0.038256466 -0.005541632 -0.01708991
-0.07598806 0.020754121 -0.09041562 0.062844776 0.023413783 0.004948563 -0.075198844 0.06903951
-0.030250462 -0.008168793 -0.09203724 0.031795837 0.022469392 -0.071269825 0.104675 -0.07536374
-0.04382505 -0.016837407 -0.028590092 0.034692865 0.035064425 0.023344163 0.04980747 0.028698377
0.02122123 0.083953775 0.019680142 0.049168322 -0.036884204 0.056502745 0.015609815 0.00984998
-0.048741594 0.07697284 0.036514603 0.083161145 -0.067512065 0.036151115 0.024233144 0.03150269
0.075371996 -0.018978523 -2.0854772e-05 -0.009240161 -0.009483356 -0.020927282 0.023956532 -0.0127854645
-0.00924836 0.048141878 -0.024489937 -0.009599104 -0.051693354 -0.03175674 -0.013235875 0.006552565
-0.08519132 -0.04864824 0.073539004 0.04846596 0.04383487 -0.027325911 -0.02496201 -0.01922378
0.014735981 0.01631944 -0.0010203539 0.042561084 0.09869096 0.075889885 0.002537881 0.04584724
0.06562528 0.03975998 0.015061973 0.07779813 -0.019938834 -0.05115924 -0.011483259 0.0027748626
-0.019265138 0.008863674 -0.02012063 -0.06548347 0.048468363 -0.06956742 -0.026199624 0.05974111
-0.016551694 0.02745821 -0.043072715 -0.038931813 -0.070455246 -0.025424276 -0.025986673 -0.03323161
0.0632506 -0.039220624 0.04124559 -0.06279527 0.06158924 0.087309465 0.012168421 -0.070931405
0.0055587958 0.10788652 -0.058901507 -0.04837731 0.054475162 -0.059459597 0.058782373 0.03298898
0.09253356 0.022275507 0.0008780521 0.030609759 0.0069559542 0.017480332 0.05915718 -0.036504418
-0.036567666 0.05102095 -0.019823391 -0.0027880156 0.0024674318 0.029313985 0.05998895 0.05517942
-0.048282843 -0.025483154 -0.04411544 -0.060627133 0.097687855 -0.030497447 0.052927483 0.047494225
-0.021168644 0.079938516 0.008519742 -0.02068757 0.019184548 -0.01513473 -0.01675178 0.0566005
-0.023807675 -0.079182215 0.045294818 -0.022869702 0.053547725 -0.029075842 0.019870263 0.07791583
0.00173971 -0.002840705 -0.034448117 -0.07630982 0.0013008415 -0.043795444 0.0069882018 0.015133104
-0.02615641 0.027569307 -0.013768809 -0.017008808 -0.021926373 -0.026353372 0.053917095 -0.002483457
-0.067998864 -0.018684106 0.052713983 0.028094094 0.01379728 0.075857796 0.049586 -0.04168306
0.057401232 0.008651013 0.061613802 -0.005775971 0.09792251 -0.024361417 0.004364276 0.058176484
00000000: 6de0 8bbd 0229 8e3d a908 113c 7193 8c3d
00000010: c60a ecbb d0b2 1c3d 9496 b5bb 2400 8cbc
00000020: a19f 9bbd 8c04 aa3c d32b b9bd c3b4 803d
00000030: 43ce bf3c 8e27 a23b da01 9abd 9664 8d3d
00000040: d1cf f7bc 67d6 05bc 057e bcbd 5a3c 023d
00000050: bb11 b83c eaf5 91bd d95f d63d 4e58 9abd
00000060: e581 33bd 9aee 89bc c535 eabc 1b1a 0e3d
00000070: b79f 0f3d 423c bf3c eb02 4c3d dc18 eb3c
00000080: 25d8 ad3c f5ef ab3d 4038 a13c b964 493d
00000090: e413 17bd 6c6f 673d 4fc0 7f3c cf61 213c
000000a0: 44a5 47bd f0a3 9d3d 5690 153d 6450 aa3d
000000b0: c443 8abd 3113 143d 9684 c63c f708 013d
000000c0: a25c 9a3d d978 9bbc 48f1 aeb7 0b64 17bc
000000d0: 1460 1bbc b16f abbc 7d40 c43c 207a 51bc
000000e0: 6f86 17bc 6b30 453d 1f9f c8bc 8f45 1dbc
000000f0: 69bc 53bd 5b13 02bd 49db 58bc e6b6 d63b
00000100: c978 aebd 6043 47bd 9e9b 963d 3e84 463d
00000110: 318c 333d 97da dfbc 217d ccbc 307b 9dbc
00000120: 2f6f 713c 59b0 853c 65bd 85ba 8854 2e3d
00000130: 7c1e ca3d 286c 9b3d 9452 263b 51ca 3b3d
00000140: 8c66 863d 5cdb 223d 7ec6 763c a054 9f3d
00000150: c456 a3bc 5a8c 51bd 4724 3cbc 78da 353b
00000160: ecd1 9dbc f138 113c 05d4 a4bc 331c 86bd
00000170: c386 463d 5d79 8ebd 98a0 d6bc 18b3 743d
00000180: 6b97 87bc 0af0 e03c 046d 30bd f776 1fbd
00000190: d74a 90bd 9246 d0bc 01e2 d4bc de1d 08bd
000001a0: 8889 813d cea5 20bd 23f1 283d ce9a 80bd
000001b0: 0045 7c3d 4ecf b23d 0f5e 473c 7c44 91bd
000001c0: 8f26 b63b 9cf3 dc3d b542 71bd 4927 46bd
000001d0: 5921 5f3d e88b 73bd c9c5 703d 741f 073d
000001e0: 3c82 bd3d 207b b63c 142d 663a 51c1 fa3c
000001f0: c6ee e33b ea32 8f3c cd4e 723d a885 15bd
00000200: fac7 15bd 58fb 503d aa64 a2bc 24b7 36bb
00000210: a3b4 213b e223 f03c f9b6 753d d103 623d
00000220: 3bc4 45bd 0cc2 d0bc 64b2 34bd 2854 78bd
00000230: 9210 c83d c8d5 f9bc 7dca 583d 4e89 423d
00000240: dd69 adbc ceb6 a33d 6396 0b3c fb78 a9bc
00000250: ea28 9d3c a9f7 77bc 073b 89bc edd5 673d
00000260: 5008 c3bc 492a a2bd 0f87 393d 3e59 bbbc
00000270: dc54 5b3d 7630 eebc f6c6 a23c 5692 9f3d
00000280: fb06 e43a 1f2b 3abb 7819 0dbd 5348 9cbd
00000290: ff80 aa3a da62 33bd 49fd e43b d7f0 773c
000002a0: f845 d6bc 07d9 e13c 9296 61bc 0e56 8bbc
000002b0: f09e b3bc 07e3 d7bc 2cd8 5c3d 7fc1 22bb
000002c0: fd42 8bbd 690f 99bc 9eea 573d 9625 e63c
000002d0: fd0d 623c 555b 9b3d b11a 4b3d dbbb 2abd
000002e0: 8e1d 6b3d fabc 0d3c c15e 7c3d 5b44 bdbb
000002f0: 998b c83d 9891 c7bc 3302 8f3b 774a 6e3d

layers.2.weight f4 [192, 192]
-0.06824695 -0.006172276 -0.031645276 0.05946563 -0.009110872 -0.03264497 0.0023156414 -0.076504886
0.10735345 0.10903308 -0.033351094 0.03457711 0.08857772 -0.00892837 0.20520908 0.0548513
-0.056246825 0.101315305 -0.044435043 0.031344786 0.126105 0.07307268 0.055834614 -0.03082273
-0.033955872 0.02683172 -0.07171581 0.050808225 0.08706527 -0.020394655 0.10684377 -0.014407967
0.003764317 0.0527123 0.017856805 -0.052941952 0.034279816 -0.0052066483 0.03409935 0.07340379
0.027768815 0.075145386 -0.024416527 0.009184345 -0.024601594 -0.0053178403 0.07331425 0.0104708625
-0.037755948 -0.007975237 0.07308007 -0.03396675 -0.019595316 0.02927537 -0.012280216 0.033155676
-0.0070162453 -0.025123972 0.03237545 -0.0040622083 -0.026113708 0.048377343 0.09304082 -0.039346535
0.022042137 -0.10354935 0.087160245 -0.03321775 0.060636282 -0.047524538 0.08647513 0.017205955
0.047167126 0.00994777 0.015334327 -0.005144221 0.10274058 -0.046368074 0.06433909 -0.0143733835
0.059457377 0.049261827 -0.01607249 0.023161046 0.09181434 0.006534818 -0.038284928 -0.021621387
0.09630705 0.084168546 -0.00739548 0.050479867 0.050057214 -0.005029003 0.05081905 0.044499736
-0.010082138 0.06688552 -0.031633183 -0.047623444 0.13370058 -0.045072973 0.05567664 0.00074477476
0.06645599 -0.01685351 -0.039586466 -0.004495254 0.07241479 0.045685306 -0.028342787 -0.015382426
-0.013657495 0.047356185 -0.055304527 0.024033487 0.004425165 0.013756497 -0.0045262557 0.029525654
0.05861289 0.023329511 0.052561473 -0.045807425 -0.004201255 -0.053797096 -0.030559378 -0.0042024083
-0.07571562 -0.008376067 -0.031158892 -0.047135152 0.03028924 -0.015276401 -0.028518738 -0.08388287
0.058954574 -0.022595301 0.059318125 -0.008329949 -0.035768885 -0.03712303 0.066179596 0.005965013
0.040657155 0.08339927 0.05454046 0.016478403 -0.04368668 -0.0068004504 0.0724117 0.010147476
-0.023692217 -0.12542489 0.12077494 -0.0156336 -0.01765245 0.062309645 -0.020797838 -0.050511807
-0.011918156 0.057722367 -0.04320323 -0.023186343 -0.052348386 0.00024029915 0.024094315 0.046761196
0.050585248 0.07097403 -0.007484808 -0.027586585 0.0079957675 0.018410448 -0.0699308 -0.036554974
-0.06201328 -0.10879894 -0.003416152 0.043360207 -0.04070977 0.10241409 -0.0007498948 -0.01761585
0.004753142 0.007891784 -0.027953139 0.010809168 0.010065834 0.0024590057 -0.032898206 -0.063808054
0.015270782 -0.056262184 -0.06377678 -0.115922265 -0.04941313 -0.0036845182 0.057700753 -0.011599929
0.7557832 -0.060488578 0.06340818 0.041157134 -0.080173485 0.07031207 2.953586 0.016927714
-0.029345823 -0.08862383 0.027142 -0.20324542 -0.010476316 0.023075378 0.09226088 -0.014129097
0.00046223216 -0.0112845255 -0.0061581973 0.023801101 -0.06019622 -0.03676441 0.006910827 -0.014747607
0.05824427 -0.036007028 0.026250001 -0.025833212 0.057468038 -0.0014983573 0.0247057 -0.028250653
0.034864243 -0.062991425 0.032600082 0.00028165703 -0.009869592 0.027170876 -0.034182377 0.009540716
-0.08164142 0.017271474 0.06210151 0.07161876 0.00925676 -0.07148117 -0.057049934 0.034132607
0.0058860774 0.004651378 0.02120765 -0.015688296 -0.017955458 0.05482193 0.04945244 0.1616848
00000000: 0fc5 8bbd ce40 cabb 7a9e 01bd 3c92 733d
00000010: c445 15bc bbb6 05bd 04c2 173b 98ae 9cbd
00000020: 20dc db3d bc4c df3d 289b 08bd baa0 0d3d
00000030: 3c68 b53d 4c48 12bc 5422 523e c2ab 603d
00000040: 1263 66bd 667e cf3d 8501 36bd 6463 003d
00000050: ab21 013e 21a7 953d d6b2 643d f37f fcbc
00000060: 5015 0bbd 32ce db3c bddf 92bd 491c 503d
00000070: 474f b23d b112 a7bc e8d0 da3d 650f 6cbc
00000080: c2b2 763b dae8 573d 6f48 923c a9d9 58bd
00000090: fe68 0c3d 889c aabb c3ab 0b3d ba54 963d
000000a0: 6d7b e33c d3e5 993d 2b05 c8bc ef79 163c
000000b0: 4889 c9bc 4741 aebb c825 963d fb8d 2b3c
000000c0: fba5 1abd 92aa 02bc 01ab 953d b820 0bbd
000000d0: 5b86 a0bc e7d2 ef3c f632 49bc 3fce 073d
000000e0: 88e8 e5bb cad0 cdbc 1f9c 043d 461c 85bb
000000f0: 6aec d5bc 5227 463d 2f8c be3d d529 21bd
00000100: b691 b43c ae11 d4bd 1281 b23d 560f 08bd
00000110: c05d 783d 17a9 42bd df19 b13d 81f3 8c3c
00000120: 5132 413d f9fb 223c d43c 7b3c da90 a8bb
00000130: a769 d23d 73ec 3dbd 36c4 833d 577e 6bbc
00000140: 9489 733d c5c6 493d 74aa 83bc 3cbc bd3c
00000150: 2809 bc3d 0722 d63b a8d0 1cbd 561f b1bc
00000160: a13c c53d 8f60 ac3d c855 f2bb fac3 4e3d
00000170: cb08 4d3d 56ca a4bb a327 503d 5b45 363d
00000180: 8d2f 25bc 47fb 883d cc91 01bd cd10 43bd
00000190: cee8 083e 709e 38bd 300d 643d fd3c 433a
000001a0: 141a 883d 5f10 8abc 6b25 22bd ec4c 93bb
000001b0: 354e 943d 8420 3b3d 222f e8bc 9206 7cbc
000001c0: b0c3 5fbc 8ff8 413d 0087 62bd e0e1 c43c
000001d0: f900 913b ee62 613c fc50 94bb c9df f13c
000001e0: 1214 703d 881d bf3c b34a 573d 91a0 3bbd
000001f0: aeaa 89bb 585a 5cbd a957 fabc 5bb4 89bb
00000200: ca10 9bbd c53b 09bc ef40 ffbc ca10 41bd
00000210: 2421 f83c df49 7abc 21a0 e9bc c8ca abbd
00000220: 5a7a 713d c819 b9bc 90f7 723d 577a 08bc
00000230: 6582 12bd 510e 18bd 2b89 873d 2876 c33b
00000240: 1e88 263d 3dcd aa3d d165 5f3d b7fd 863c
00000250: cef0 32bd 50d6 debb 964c 943d 9941 263c
00000260: 2e16 c2bc 626f 00be da58 f73d 0912 80bc
00000270: df9b 90bc 6638 7f3d 3a60 aabc 78e5 4ebd
00000280: 5f44 43bc 4a6e 6c3d dff5 30bd 49f1 bdbc
00000290: 436b 56bd d0f8 7b39 7161 c53c ab88 3f3d
000002a0: 7a32 4f3d d55a 913d 1f43 f5bb 43fd e1bc
000002b0: ae00 033c 82d1 963c e137 8fbd abba 15bd
000002c0: a301 7ebd fbd1 debd 85e1 5fbb 799a 313d
000002d0: 4abf 26bd 7abe d13d 9794 44ba 1d4f 90bc
000002e0: 3fc0 9b3b 8b4c 013c fbfd e4bc f018 313c
000002f0: 2beb 243c 4527 213b 45c0 06bd ccad 82bd
00000300: 4d32 7a3c 2d73 66bd 679d 82bd a768 edbd
00000310: 6c65 4abd f577 71bb a057 6c3d a10d 3ebc
00000320: 027b 413f dfc2 77bd 26dc 813d 6294 283d
00000330: ff31 a4bd c6ff 8f3d 8e07 3d40 fdab 8a3c
00000340: a766 f0bc 6980 b5bd e658 de3c 911f 50be
00000350: dba4 2bbc 9308 bd3c 46f3 bc3d ba7d 67bc
00000360: c057 f239 bbe2 38bc b4ca c9bb 87fa c23c
00000370: 5090 76bd 4796 16bd 3874 e23b f29f 71bc
00000380: 8b91 6e3d 1b7c 13bd 3e0a d73c 2ca0 d3bc
00000390: 9b63 6b3d 8764 c4ba 9c63 ca3c ea6d e7bc
000003a0: cfcd 0e3d a601 81bd aa87 053d 5eab 9339
000003b0: 12b4 21bc 7595 de3c d202 0cbd aa50 1c3c
000003c0: 9e33 a7bd e87c 8d3c 275e 7e3d dbac 923d
000003d0: aaa9 173c b864 92bd 31ad 69bd a2ce 0b3d
000003e0: ffdf c03b 966a 983b aabb ad3c be84 80bc
000003f0: 5317 93bc f68c 603d a48e 4a3d b390 253e

layers.2.bias f4 [192]
0.060575973 0.0066653355 0.031996947 -0.051399313 -0.053205013 -0.009027557 -0.05312133 0.12870213
0.06921621 -0.026679704 -0.0159394 -0.052696977 -0.0067377365 0.055124536 -0.03745327 -0.021077612
0.010885244 0.08662054 0.045420155 0.09919671 -0.06592422 0.03324455 0.13066672 0.07502842
-0.0155278705 0.0110113975 0.039577514 -0.024970192 -0.007950346 0.08341848 0.091690585 0.056111116
-0.009149085 0.030684091 0.0074090078 0.049687285 0.013062985 0.05911221 0.044506837 -0.008532553
0.01567389 0.042407382 0.036734622 0.117897585 -0.032207787 -0.02411308 -0.015307992 -0.047123715
0.08917637 0.0393595 0.101073384 0.114005774 0.06293652 0.020061392 0.0955882 -0.11022402
-0.04048795 -0.04685631 0.05319805 0.029742578 0.08948931 0.08100029 0.037098687 0.079365864
-0.011997966 -0.06377649 -0.064007126 0.089602366 0.030133966 0.12644063 0.0004806835 0.06142732
0.008077795 -0.061735936 0.0469331 -0.03384079 0.072673 -0.014891457 -0.07915235 0.06794445
-0.011948208 -0.095213406 -0.066859774 -0.025590455 -0.04651826 0.009527181 -0.05306753 0.08707549
0.026190322 -0.011044374 -0.041102607 0.052357562 -0.013712387 0.019659251 0.0487352 -0.025738817
-0.012655758 -0.03340987 0.12429456 -0.037532497 -0.09015166 -0.059421655 -0.01950097 0.06740534
-0.03786474 0.028196929 0.04979117 -0.03907801 -0.004875282 0.0014123096 -0.001193856 0.001449506
-0.04192186 0.0031161807 0.045539115 0.05702092 0.00925997 -0.07854269 0.12778851 0.0027264922
0.0010256324 0.053120315 0.08934636 -0.0031655869 0.009699524 -0.0065550013 -0.043651666 -0.045141306
0.08391938 0.041847065 -0.004770747 -0.0008317815 0.056610167 0.085269235 0.010221429 -0.002525944
0.04466743 -0.024200696 0.048635524 0.009525941 0.03596075 0.016590472 0.060421463 -0.054592796
0.023638345 0.0008255633 -0.012252075 0.011557307 0.03576949 -0.055770226 0.08295026 -0.04328606
0.07856237 0.08273596 0.005290698 0.0565126 0.03305987 -0.05904503 0.034153488 0.00014729063
-0.032751817 0.04289997 0.03468512 0.05831539 0.04326633 0.069987394 0.017185904 0.025467172
0.017928626 -0.04656578 0.03567833 0.10584757 0.09292337 -0.023889592 -0.027230723 0.047493134
0.04597599 0.024922082 -0.045889158 0.13278481 0.1165847 0.027261626 -0.014984461 -0.043706916
0.037580457 0.06640618 -0.03764372 0.05829156 -0.028212816 0.075383686 0.06168363 0.056732263
00000000: 831e 783d e368 da3b 3b0f 033d 1688 52bd
00000010: 80ed 59bd 52e8 13bc c095 59bd 7eca 033e
00000020: 3ac1 8d3d 658f dabc 5893 82bc c9d8 57bd
00000030: 3bc8 dcbb 44ca 613d 9a68 19bd f5aa acbc
00000040: 0658 323c 1c66 b13d 7c0a 3a3d a527 cb3d
00000050: 4703 87bd 702b 083d 7fcd 053e 80a8 993d
00000060: 9c68 7ebc 2669 343c 081c 223d 4a8e ccbc
00000070: 2b42 02bc 4fd7 aa3d 46c8 bb3d c5d4 653d
00000080: 0be6 15bc 345d fb3c 43c7 f23b e584 4b3d
00000090: 2106 563c a51f 723d cd4c 363d 1fcc 0bbc
000000a0: 8866 803c 5db3 2d3d 0b77 163d 4a74 f13d
000000b0: 50ec 03bd cb88 c5bc 5fce 7abc cc04 41bd
000000c0: 1aa2 b63d 6d37 213d 90ff ce3d dc7b e93d
000000d0: dde4 803d ca57 a43c bfc3 c33d 22bd e1bd
000000e0: b1d6 25bd 67ec 3fbd 33e6 593d b5a6 f33c
000000f0: 2c46 b73d 7be3 a53d cbf4 173d 928a a23d
00000100: 1e93 44bc 409d 82bd 2b16 83bd 7281 b73d
00000110: 82db f63c a779 013e 3f04 fc39 379b 7b3d
00000120: ba58 043c d2de 7cbd ec3c 403d a49c 0abd
00000130: 95d5 943d 4cfb 73bc a11a a2bd 7626 8b3d
00000140: 6bc2 43bc 3fff c2bd c7ed 88bd 13a3 d1bc
00000150: ee89 3ebd e517 1c3c 575d 59bd a254 b23d
00000160: 168d d63c 76f3 34bc 355b 28bd e274 563d
00000170: eba9 60bc 700c a13c 909e 473d 36da d2bc
00000180: 195a 4fbc cad8 08bd 258e fe3d adbb 19bd
00000190: 6fa1 b8bd 1f64 73bd 80c0 9fbc d00b 8a3d
000001a0: 0f18 1bbd 3ffd e63c d3f1 4b3d 4310 20bd
000001b0: d4c0 9fbb 3f1d b93a 297b 9cba 5afd bd3a
000001c0: 42b6 2bbd d638 4c3b 3987 3a3d c58e 693d
000001d0: 21b7 173c fdda a0bd feda 023e f3ae 323b
000001e0: 836e 863a b094 593d 39fb b63d bc75 4fbb
000001f0: c1ea 1e3c 56cb d6bb 17cc 32bd 17e6 38bd
00000200: eddd ab3d d467 2b3d ed53 9cbb e90b 5aba
00000210: 10e0 673d a3a1 ae3d c877 273c 4f8a 25bb
00000220: 32f5 363d 8a40 c6bc 0b36 473d b112 1c3c
00000230: 944b 133d bee8 873c 7f7c 773d b29c 5fbd
00000240: 34a5 c13c 9d6a 583a edbc 48bc dc5a 3d3c
00000250: 0783 123d 526f 64bd d3e1 a93d b94c 31bd
00000260: 4fe5 a03d 7971 a93d 975d ad3b c279 673d
00000270: c969 073d 34d9 71bd 87e4 0b3d 0772 1a39
00000280: c526 06bd e1b7 2f3d fc11 0e3d 1edc 6e3d
00000290: 0938 313d 8d55 8f3d 74c9 8c3c 88a0 d03c
000002a0: 0edf 923c c2bb 3ebd 7123 123d 9cc6 d83d
000002b0: 9c4e be3d 1bb4 c3bc f712 dfbc 2988 423d
000002c0: 5251 3c3d 6529 cc3c 45f6 3bbd bef8 073e
000002d0: f6c3 ee3d c653 df3c 6281 75bc 0606 33bd
000002e0: f7ed 193d f7ff 873d 4d30 1abd 21c3 6e3d
000002f0: 901e e7bc c362 9a3d f9a7 7c3d 1760 683d

layers.3.weight f4 [192, 192]
0.01536897 0.0067547946 -2.963414e-06 -0.07024297 0.032815542 0.0515358 0.0031508848 0.06668679
-0.05151618 0.060245212 0.007207641 0.056492224 0.048221596 0.023863181 0.16791517 0.04837996
-0.0636614 -0.056557097 0.07148626 0.075338244 -0.059381854 -0.036135364 0.10106003 0.024365086
0.024948424 0.02092148 0.109155536 -0.03528491 -0.03050797 0.04349753 0.055712063 -0.061307818
-0.07468309 -0.6128164 0.0526661 -0.027147932 -0.04676655 0.1071076 -0.033247363 0.041430738
0.05532752 0.050509013 -0.032432508 0.09777523 -0.062508166 0.016556334 0.012080139 0.06710956
0.05003416 0.009245904 0.025774924 0.030981177 -0.019055035 -0.0042048 -0.021002002 0.03107314
-0.13643391 -0.042950448 0.0149236405 0.031349305 0.06622524 0.023816267 0.01891766 0.09930321
-0.028446807 -0.046646293 0.03711363 0.07705 -0.0062449644 0.057708684 0.00096154533 -0.0099333525
0.028490508 0.01617434 0.057591166 0.06865684 -0.025059162 0.0020986306 -0.33285034 0.0005952005
-0.057912968 -0.007772377 -0.13285892 -0.07682279 -0.006801491 -0.04413213 -0.07219807 -0.01025193
-0.019540358 -0.053076737 0.066090345 -0.0020131597 0.022082262 -0.031645473 -0.059412807 -0.032582313
0.00095177296 -0.02472486 0.058791813 -0.037267946 0.058161434 0.021832574 0.00937074 0.08880691
0.04312943 0.0350749 -0.006203085 -0.030689126 -0.025231298 0.049544297 0.04980477 0.03204777
0.036388047 -0.075856455 -0.05009886 0.031419393 -0.69062597 0.0636582 0.06105323 0.00031489143
-0.046758447 0.012020112 0.024733528 -0.018316707 -0.022671679 0.078438155 -0.058348473 0.08774244
0.08463697 -0.06040761 -0.023454307 0.012351315 -0.008285562 -0.0033991756 0.018441586 0.0020991918
-0.00094236946 0.0035577556 -0.06206074 -0.0007090435 0.07089646 0.015398537 0.05033751 -0.028604966
-0.026369048 0.07181298 -0.070167 -0.006527979 -0.057015136 0.03846996 0.06896524 -0.071112275
0.007865156 0.0029562085 -0.016016409 -0.06922876 0.051919226 0.046042748 -0.027644724 0.042462658
0.036088947 0.053432256 0.06364375 0.063804574 -0.01888624 0.011621502 -0.0021261147 -0.043846983
-0.020471407 0.043058857 -0.02200573 0.035806023 0.06540483 -0.02206765 0.04816732 -0.0080300495
-0.05061528 -0.03730258 0.071248494 0.016058039 0.11155078 0.06714157 0.09491922 0.022958474
0.021658203 0.071091704 -0.010141858 -0.025753938 -0.0351251 -0.058032453 -0.041594014 0.09320342
0.029420644 0.07591924 0.0027588005 0.07950004 0.018875686 0.044118885 -0.037501853 0.054451115
0.042736374 0.040474497 0.02005249 0.041469224 0.05278823 0.030252852 -0.3417568 -0.008358665
-0.053332094 0.036277898 -0.015806437 -0.09054272 0.059486825 -0.038355693 -0.004346493 -0.052347098
-0.04013911 0.026016535 0.018059436 0.023573142 0.038673222 0.097614735 0.014766466 0.04826138
0.048397455 1.4212538 -0.010290265 0.047513627 -0.00037055978 -0.030180234 -0.010412903 0.06303477
0.030853726 0.054748576 -0.04292533 -0.00045266436 -0.0007625281 0.022877235 0.028950004 -0.039318737
-0.04951281 0.004374153 0.030221414 -0.08316585 -0.019187326 0.06336266 -0.12012301 -0.14773983
0.24421374 0.109039865 -0.039881114 0.15318632 0.019876296 -0.011678442 0.027373424 0.03439976
00000000: 22ce 7b3c 5357 dd3b 11df 46b6 8cdb 8fbd
00000010: 9769 063d 3417 533d 137f 4e3b 1593 883d
00000020: a102 53bd afc3 763d 132e ec3b 6464 673d
00000030: 0284 453d b87c c33c f4f1 2b3e 112a 463d
00000040: e860 82bd 6aa8 67bd 6367 923d f04a 9a3d
00000050: 633a 73bd ad02 14bd 90f8 ce3d 4a99 c73c
00000060: a360 cc3c 8663 ab3c f08c df3d e986 10bd
00000070: daeb f9bc 772a 323d 5532 643d e81d 7bbd
00000080: 73f3 98bd 89e1 1cbf 69b8 573d 5765 debc
00000090: 488e 3fbd 3b5b db3d 632e 08bd 47b3 293d
000000a0: 1c9f 623d 8ae2 4e3d f3d7 04bd 613e c83d
000000b0: 4804 80bd 26a1 873c c6eb 453c bd70 893d
000000c0: 9ff0 4c3d 227c 173c ef25 d33c 3dcc fd3c
000000d0: 4e19 9cbc 6bc8 89bb 640c acbc 198d fe3c
000000e0: 55b5 0bbe cfec 2fbd 4982 743c 2168 003d
000000f0: 19a1 873d 551a c33c 35f9 9a3c 7b5f cb3d
00000100: 4709 e9bc 2f10 3fbd 7604 183d 64cc 9d3d
00000110: 8fa2 ccbb f15f 6c3d 3710 7c3a 80bf 22bc
00000120: ed64 e93c 0d80 843c b7e4 6b3d f59b 8c3d
00000130: df48 cdbc 2e89 093b 5c6b aabe 3b07 1c3a
00000140: 2636 6dbd 6daf febb 2b0c 08be 4455 9dbd
00000150: 0bdf debb e4c3 34bd 95dc 93bd b6f7 27bc
00000160: 1a13 a0bc fe66 59bd 605a 873d 37ef 03bb
00000170: dce5 b43c af9e 01bd d85a 73bd 0875 05bd
00000180: 6780 793a ca8b cabc afcf 703d 46a6 18bd
00000190: af3a 6e3d 3ada b23c bb87 193c 66e0 b53d
000001a0: 7ca8 303d b3aa 0f3d 4043 cbbb c367 fbbc
000001b0: deb1 cebc f6ee 4a3d 1600 4c3d 8644 033d
000001c0: a20b 153d a15a 9bbd 7634 4dbd 9fb1 003d
000001d0: ddcc 30bf 3b5f 823d f412 7a3d 0318 a539
000001e0: c985 3fbd 01f0 443c f89d ca3c eb0c 96bc
000001f0: f5b9 b9bc 2fa4 a03d cffe 6ebd 4fb2 b33d
00000200: 2656 ad3d f86d 77bd 3f23 c0bc 2b5d 4a3c
00000210: 2ac0 07bc b4c4 5ebb cf12 973c 9892 093b
00000220: 5809 77ba 3c29 693b 6733 7ebd 1bdf 39ba
00000230: 2a32 913d 254a 7c3c b42e 4e3d f654 eabc
00000240: e703 d8bc af12 933d b7b3 8fbd a8e8 d5bb
00000250: b488 69bd ad92 1d3d a63d 8d3d 50a3 91bd
00000260: dbdc 003c f3bc 413b d834 83bc cfc7 8dbd
00000270: 41a9 543d 5297 3c3d 3077 e2bc 53ed 2d3d
00000280: 01d2 133d c8db 5a3d a857 823d f9ab 823d
00000290: 51b7 9abc 1d68 3e3c 4956 0bbb e598 33bd
000002a0: a7b3 a7bc 7c5e 303d 5c45 b4bc 56a9 123d
000002b0: f8f2 853d 37c7 b4bc 194b 453d 7890 03bc
000002c0: f851 4fbd 97ca 18bd bbea 913d 268c 833c
000002d0: bc74 e43d 8581 893d 0265 c23d 6913 bc3c
000002e0: 8b6c b13c 8798 913d 092a 26bc ecf9 d2bc
000002f0: 56df 0fbd 70b3 6dbd 7c5e 2abd 6fe1 be3d
00000300: 9003 f13c 8c7b 9b3d fecc 343b ebd0 a23d
00000310: 2fa1 9a3c 01b6 343d 8b9b 19bd 2208 5f3d
00000320: 560c 2f3d 96c8 253d 1f45 a43c a2db 293d
00000330: 7938 583d d4d4 f73c bffa aebe c8f2 08bc
00000340: c172 5abd 2298 143d 807c 81bc 766e b9bd
00000350: 75a8 733d dc1a 1dbd 076d 8ebb e969 56bd
00000360: e868 24bd a120 d53c 62f1 933c 761c c13c
00000370: d067 1e3d 3cea c73d 0cef 713c baad 453d
00000380: 693c 463d a5eb b53f 8098 28bc a69d 423d
00000390: b147 c2b9 8a3c f7bc e19a 2abc 6018 813d
000003a0: f4c0 fc3c 0b40 603d 79d2 2fbd 9553 edb9
000003b0: 65e4 47ba 0a69 bb3c 8f28 ed3c af0c 21bd
000003c0: f2cd 4abd 0e55 8f3b e692 f73c db52 aabd
000003d0: bd2e 9dbc 48c4 813d 0d03 f6bd 1c49 17be
000003e0: 2b13 7a3e 4b50 df3d 615a 23bd e0dc 1c3e
000003f0: 9dd3 a23c f056 3fbc 3b3e e03c c3e6 0c3d

layers.3.bias f4 [192]
0.05727862 0.049608923 -0.1368481 -0.022228166 0.070298485 -0.038813308 -0.049186625 0.12665732
0.083230115 0.05220155 0.0349349 0.060001217 0.08620045 0.08080832 -0.05815553 -0.009783047
0.058000885 0.13159557 0.08689091 -0.006041615 -0.028930277 0.14611387 -0.07806593 0.074861825
0.084044866 0.021399453 0.023238972 0.09664901 0.056805503 0.0121462345 -0.06448558 0.052374553
0.044484414 -0.08222949 0.12812604 0.09699114 0.07796632 -0.051415823 0.05488926 -0.046065036
-0.033459958 -0.06293334 0.03727467 -0.009893268 -0.047480363 0.10972488 -0.058424924 0.01689206
0.08897172 -0.0035162035 0.08935209 0.06381199 -0.030664057 -0.025409125 0.031699892 -0.028205808
-0.0074837855 0.065342866 0.04721323 0.12978022 0.020319978 0.013367513 0.03150525 0.042077847
0.076087944 0.10881793 0.040743068 0.051754154 -0.10671346 -0.012117229 -0.0749914 0.0543921
0.072990954 -0.06917017 0.08321371 0.16581568 -0.096194066 -0.038734164 -0.022442332 0.09227275
-0.07759021 -0.029667288 -0.017862165 0.09118914 0.040184025 0.047121376 -0.0013428347 0.052261308
0.04687437 -0.05067976 0.058572676 -0.077828206 0.046123303 0.03788431 0.03512718 0.03836767
-0.08112574 -0.0035903326 0.06408231 -0.05014298 0.1741612 0.09450195 -0.03825135 0.040111173
0.004595069 0.03294344 -0.03225288 -0.014217648 -0.00069913256 0.10816734 0.040754654 0.005819067
0.09976346 -0.008798327 0.093606845 0.1534943 0.062441472 0.0040347665 -0.030381931 0.113264225
0.0052308287 0.013021606 0.11571663 0.13704994 -0.04416152 -0.008224866 -0.020595502 0.063079424
0.052934088 -0.066450655 0.01641365 -0.06646501 -0.061893307 -0.11417201 -0.008435484 -0.0359918
0.0011855937 0.102245085 0.01100728 0.0527369 -0.03823572 -0.069027536 -0.014135896 -0.03442052
-0.07679063 -0.07458639 -0.018917475 0.042607967 0.041832417 0.1738686 0.053182993 -0.0486577
0.025143418 0.09410991 0.004936488 -0.062318657 0.045300618 -0.06622729 -0.032646094 -0.021509698
-0.05507602 -0.053451322 0.06828254 0.028949503 0.05042694 -0.013807761 0.014790877 0.10131629
-0.030630266 0.017743185 0.02629286 -0.04651481 0.05148682 -0.06934152 0.038185813 -0.004280345
0.010595701 0.0037540381 0.027159424 0.08099813 -0.07995619 -0.0041469266 -0.069215626 0.047892164
0.010786573 -0.079140045 -0.050350502 -0.016911479 0.030420732 -0.042067423 0.059210394 0.07217356
00000000: fc9c 6a3d ba32 4b3d e921 0cbe d817 b6bc
00000010: a7f8 8f3d b4fa 1ebd ea77 49bd 75b2 013e
00000020: 8d74 aa3d 4bd1 553d e617 0f3d d6c3 753d
00000030: dd89 b03d d57e a53d 7e34 6ebd 1349 20bc
00000040: 5692 6d3d fdc0 063e ddf3 b13d bdf8 c5bb
00000050: 30ff ecbc e09e 153e 08e1 9fbd 2851 993d
00000060: b71f ac3d e84d af3c a85f be3c ebef c53d
00000070: e3ac 683d 0001 473c 0411 84bd b386 563d
00000080: 4a35 363d ef67 a8bd 7933 033e 4aa3 c63d
00000090: ceac 9f3d 6699 52bd 90d3 603d b1ae 3cbd
000000a0: 4f0d 09bd 32e3 80bd 53ad 183d 6017 22bc
000000b0: c57a 42bd 70b7 e03d f94e 6fbd 3861 8a3c
000000c0: ce36 b63d 1b70 66bb 3bfe b63d dcaf 823d
000000d0: 3033 fbbc cc26 d0bc bfd7 013d de0f e7bc
000000e0: 8b3a f5bb 7bd2 853d a962 413d 1be5 043e
000000f0: 1576 a63c 6a03 5b3c a60b 013d d259 2c3d
00000100: ffd3 9b3d efdb de3d 34e2 263d 2afc 533d
00000110: 968c dabd 5887 46bc 1795 99bd 40ca 5e3d
00000120: 487c 953d 17a9 8dbd f36b aa3d 96cb 293e
00000130: 6501 c5bd b7a7 1ebd fbd8 b7bc 7ff9 bc3d
00000140: 9ee7 9ebd d008 f3bc ad53 92bc 5fc1 ba3d
00000150: 0198 243d 5802 413d 0e02 b0ba f40f 563d
00000160: 57ff 3f3d 9495 4fbd e7e9 6f3d 6564 9fbd
00000170: caeb 3c3d 942c 1b3d 85e1 0f3d 6b27 1d3d
00000180: 4125 a6bd c94b 6bbb 963d 833d ba62 4dbd
00000190: 5057 323e 3d8a c13d 73ad 1cbd 9d4b 243d
000001a0: 3c92 963b b3ef 063d 991b 04bd 23f1 68bc
000001b0: fe45 37ba d786 dd3d 5aee 263d dfad be3b
000001c0: c950 cc3d dc26 10bc f2b4 bf3d 9c2d 1d3e
000001d0: a1c2 7f3d 1336 843b 87e3 f8bc 13f7 e73d
000001e0: 5f67 ab3b 9358 553c d7fc ec3d d256 0c3e
000001f0: b6e2 34bd 97c1 06bc e6b7 a8bc c92f 813d
00000200: 6ad1 583d 4817 88bd eb75 863c cf1e 88bd
00000210: d683 7dbd 04d3 e9bd fc34 0abc 236c 13bd
00000220: ec65 9b3a df65 d13d e157 343c a602 583d
00000230: 0f9d 1cbd 4f5e 8dbd 3f9a 67bc 88fc 0cbd
00000240: 6844 9dbd c0c0 98bd d2f8 9abc b185 2e3d
00000250: 7858 2b3d 9c0a 323e 69d6 593d 4c4d 47bd
00000260: 92f9 cd3c b2bc c03d 43c2 a13b d941 7fbd
00000270: 248d 393d 2ca2 87bd e9b7 05bd 1b35 b0bc
00000280: 6597 61bd c6ef 5abd b7d7 8b3d 8227 ed3c
00000290: 7b8c 4e3d f239 62bc 6f55 723c ea7e cf3d
000002a0: 53ec fabc 285a 913c 2064 d73c 5086 3ebd
000002b0: d8e3 523d ed02 8ebd ba68 1c3d 2342 8cbb
000002c0: 9799 2d3c 4f06 763b 717d de3c 59e2 a53d
000002d0: 12c0 a3bd f1e2 87bb ecc0 8dbd 932a 443d
000002e0: 2bba 303c 2d14 a2bd 543c 4ebd f189 8abc
000002f0: e634 f93c e44e 2cbd 9986 723d bbcf 933d
