deployment_models/model_(192, 192, 192, 192)_bs_64_mse_0.32160_mae_0.04734.pth (torch, 455175 bytes, 10 tensors)

layers.0.weight f4 [192, 3]
-0.370231 -0.30407274 -0.467146 0.40151078 -0.68502563 -0.28414035 -0.104584254 0.3915038
-0.45917168 -0.40915146 0.00033528387 -0.053550858 0.51914006 0.21518043 0.45499602 -0.19378334
-0.20602639 -0.019747641 -0.49205205 -0.5195525 0.24862857 0.057156086 -0.7372952 0.18194464
-0.013137977 0.34028623 0.32308295 0.4494811 -0.03321353 -0.4355219 0.40246838 0.3154745
0.4795092 -0.19570014 -0.33762175 -0.13796243 0.48943996 0.03817039 -0.43731663 0.14239602
0.15629782 0.29318774 -0.37203604 -0.08695089 -0.25645086 0.22668241 -0.60198486 0.16863917
-0.2813061 -0.07142841 -0.069495566 0.4222303 0.36193377 -0.5216708 -0.05056636 0.7698674
-0.054989994 -0.64052653 -0.090038255 0.4630197 -0.63086176 -0.009595983 0.3993277 -0.49281916
-0.0878232 0.20163122 0.52121794 0.38744286 0.4135554 0.1727121 -0.21446562 0.33365667
-0.30267307 0.24141207 -0.0953321 -0.113669835 -0.62661 0.052519515 -0.3534306 0.005275736
-0.0763237 0.3307916 0.6390755 0.25293633 0.26783594 0.1777947 0.31540003 0.15848528
-0.20497872 0.38914555 -0.043512147 -0.5287279 -0.10463059 0.08025701 0.29094496 -0.19170228
0.39265177 -0.48058882 -0.0107398415 0.029723253 -0.1468552 0.04450511 0.0009033434 0.0076785763
-0.052646928 -0.121200696 0.4798843 -0.22352543 0.31457794 0.363717 -0.48470363 -0.5769428
-0.3658366 0.2543429 0.29903147 0.050180584 -0.4068877 -0.24491537 0.045651622 0.42668667
-0.047975242 -0.72030133 -0.17216533 -0.007906269 0.17395733 -0.14683352 0.10193597 0.26033393
0.011144583 0.12408463 -0.57152796 0.36940026 -0.073768385 -0.36393404 -0.40866232 0.1404726
-0.33011124 0.41161683 -0.049049973 -0.2556864 -0.37433603 0.07766058 0.44707358 0.4508847
0.37472302 -0.42061836 0.20413266 -0.45346555 0.06298644 -0.5078315 0.32959726 0.30253637
-0.19894122 0.56277007 0.032370873 0.40714416 0.31572992 0.31066117 0.008376546 -0.04786073
0.3921749 -0.4565339 0.07275843 -0.41616493 -0.23863576 -0.18154691 -0.05111492 -0.013802681
0.37343636 0.102309234 0.038325053 -0.17390831 0.17965142 -0.56340456 0.05717733 0.5010181
-0.2541254 -0.26709095 -0.66840917 -0.1637502 -0.28504267 0.33835864 0.084799275 0.094623715
0.12981842 -0.13090846 0.3937098 0.23519506 -0.12986644 -0.1482569 0.06314321 0.0059599453
-0.10098662 0.482683 0.46254265 -0.20844811 -0.21043216 0.14157914 -0.3015374 0.07614904
0.10646219 -0.40709937 -0.03503178 0.3118537 -0.3394953 0.5437521 0.2836108 -0.3118282
0.35125795 0.38025963 0.2607465 0.1619308 0.34634593 0.29165226 0.28925145 0.33638304
0.47930193 0.6106806 0.10232056 0.12835863 0.36585093 -0.28042203 -0.25581643 0.45305693
-0.17782375 -0.51801866 0.36982426 -0.40715 0.54276305 -0.1652676 -0.4931733 -0.55973333
-0.09841683 0.3213838 0.1407959 0.21436356 0.44784716 0.39892045 0.6287801 0.12534909
-0.40889728 -0.4667139 -0.3306768 -0.03840679 0.07271753 -0.23434408 0.26484448 0.124785416
0.4211202 0.42829108 0.3823442 0.43951353 -0.12994231 0.08351007 0.21446024 0.19219278
00000000: eb8e bdbe 6caf 9bbe c32d efbe d292 cd3e
00000010: d75d 2fbf d87a 91be 4530 d6bd 3073 c83e
00000020: 8d18 ebbe 4d7c d1be 0ac9 af39 2558 5bbd
00000030: 5de6 043f 4258 5c3e 3df5 e83e 246f 46be
00000040: 95f8 52be cec5 a1bc 3fee fbbe 6501 05bf
00000050: 7d98 7e3e 801c 6a3d 61bf 3cbf b24f 3a3e
00000060: ab40 57bc ff39 ae3e 216b a53e 6322 e63e
00000070: e90a 08bd bafc debe 5610 ce3e e085 a13e
00000080: 3b82 f53e 9e65 48be c2dc acbe 0646 0dbe
00000090: e097 fa3e 8e58 1c3d f7e7 dfbe 43d0 113e
000000a0: 890c 203e b41c 963e 827b bebe 4f13 b2bd
000000b0: 874d 83be 6f1f 683e ae1b 1abf bfaf 2c3e
000000c0: 5a07 90be 0f49 92bd b153 8ebd 922e d83e
000000d0: 624f b93e 388c 05bf ac1e 4fbd 0816 453f
000000e0: 303d 61bd 8cf9 23bf fa65 b8bd eb10 ed3e
000000f0: 2880 21bf 7838 1dbc ae74 cc3e cb52 fcbe
00000100: a6dc b3bd 6a78 4e3e 8a6e 053f e95e c63e
00000110: 89bd d33e 71db 303e e09c 5bbe 0cd5 aa3e
00000120: f7f7 9abe ba34 773e 7a3d c3bd bbcb e8bd
00000130: 8369 20bf b41e 573d dbf4 b4be 15e0 ac3b
00000140: 9a4f 9cbd 845d a93e 749a 233f df80 813e
00000150: cb21 893e d00f 363e 1d7c a13e f749 223e
00000160: f1e5 51be 163e c73e cb39 32bd b65a 07bf
00000170: 9048 d6bd ca5d a43d bdf6 943e 9a4d 44be
00000180: a709 c93e bd0f f6be 29f6 2fbc 2e7e f33c
00000190: 3661 16be fd4a 363d 59ce 6c3a 919c fb3b
000001a0: 4ea4 57bd 1238 f8bd 65b3 f53e dae3 64be
000001b0: 5c10 a13e 1d39 ba3e 132b f8be 86b2 13bf
000001c0: ef4e bbbe 3c39 823e a71a 993e 288a 4d3d
000001d0: 9653 d0be 18cb 7abe 32fd 3a3d ad76 da3e
000001e0: b081 44bd ab65 38bf 1c4c 30be 4c89 01bc
000001f0: df21 323e 875b 16be cec3 d03d 7d4a 853e
00000200: c597 363c 1520 fe3d a84f 12bf 0822 bd3e
00000210: e113 97bd 9055 babe 303c d1be 0dd8 0f3e
00000220: 5704 a9be 71bf d23e a0e8 48bd 54e9 82be
00000230: f9a8 bfbe 830c 9f3d d4e6 e43e 5cda e63e
00000240: b2db bf3e 4a5b d7be 2708 513e a32c e8be
00000250: 09ff 803d 3f01 02bf f9c0 a83e 0ce6 9a3e
00000260: 3fb7 4bbe b311 103f 5297 043d 3375 d03e
00000270: 5aa7 a13e fb0e 9f3e c83d 093c 9d09 44bd
00000280: 26cb c83e d0be e9be 5f02 953d 9213 d5be
00000290: ef5c 74be 6fe7 39be e15d 51bd a424 62bc
000002a0: 0d33 bf3e 8187 d13d bbfa 1c3d 0515 32be
000002b0: 8bf6 373e 483b 10bf c732 6a3d b942 003f
000002c0: b91c 82be 25c0 88be dd1c 2bbf 22ae 27be
000002d0: 1df1 91be 583d ad3e 3eab ad3d 14ca c13d
000002e0: 1fef 043e de0c 06be 5594 c93e f9d6 703e
000002f0: b5fb 04be a8d0 17be 3a51 813d a54b c33b
00000300: 13d2 cebd 3a22 f73e 64d2 ec3e 6c73 55be
00000310: 877b 57be 1ffa 103e 1c63 9abe 07f4 9b3d
00000320: d908 da3d 546f d0be 7c7d 0fbd 4aab 9f3e
00000330: 54d2 adbe 5633 0b3f 6f35 913e f2a7 9fbe
00000340: 15d8 b33e 64b1 c23e 9180 853e 30d1 253e
00000350: 4154 b13e 7253 953e c418 943e 663a ac3e
00000360: 1067 f53e 9055 1c3f 718d d13d 7270 033e
00000370: d050 bb3e 7a93 8fbe 5ffa 82be 14f7 e73e
00000380: 6e17 36be df9c 04bf 9b59 bd3e f775 d0be
00000390: 85f2 0a3f e93b 29be 3681 fcbe af4a 0fbf
000003a0: c38e c9bd 6b8c a43e cd2c 103e 1f82 5b3e
000003b0: 394c e53e 4d3f cc3e bcf7 203f 835b 003e
000003c0: fc5a d1be 20f5 eebe 784e a9be 7050 1dbd
000003d0: eeec 943d e5f7 6fbe b299 873e 7f8f ff3d
000003e0: 119d d73e f848 db3e 9ec2 c33e eb07 e13e
000003f0: 990f 05be 5407 ab3d 779b 5b3e 2fce 443e

layers.0.bias f4 [192]
-0.41245052 -0.6561609 0.5424605 -0.2533449 0.2219974 0.22705114 -0.5174082 -0.4984594
-0.34457532 -0.08027545 0.4236919 0.34809574 0.5067804 -0.39005864 0.10492418 0.54007083
0.58209556 -0.010572004 0.60405165 0.011702357 -0.33656776 0.092320286 0.5447228 0.5293235
-0.3623104 0.4347601 -0.15180907 0.3709027 0.32246777 -0.16928138 -0.119447514 0.06268802
0.0074022664 0.279701 -0.10014155 0.6027631 -0.48884663 -0.24279204 -0.26110026 -0.021706827
-0.35925108 0.19469182 -0.2697355 0.10686284 -0.046184674 0.36375707 0.42650655 0.019372834
0.083152145 -0.08776789 0.030669142 -0.15248668 -0.47091946 0.44692224 0.21190068 -0.39241266
0.53310955 0.32121667 -0.63815063 0.35239682 -0.2832946 0.45380774 0.2439419 -0.41327417
-0.25080723 -0.12603493 -0.09134166 -0.3849236 0.5628619 0.04466983 0.27183065 -0.047007512
0.51891094 0.45811388 -0.26218915 0.11393465 -0.2611232 -0.18325242 0.47592366 -0.23626766
-0.2156468 0.5427057 -0.5001049 0.6250638 0.47075826 -0.18225071 0.27943414 0.57210034
0.31057864 -0.022507187 -0.15087755 -0.2858176 -0.3811164 -0.56566536 -0.2802386 -0.22134537
-0.52685165 -0.5499845 -0.15203437 -0.17890872 -0.31815812 -0.42817822 0.19186531 -0.23571406
0.21748689 0.2520803 0.22419891 0.4306043 -0.46410462 0.2912314 -0.4375731 -0.4937258
-0.045517303 0.37995124 -0.21891026 -0.021970695 0.6040744 -0.46707177 -0.2560559 0.38113984
-0.043675765 0.5555167 -0.105102606 -0.0465356 0.32007912 -0.2116074 0.61166376 -0.4618289
-0.009410466 -0.040063553 0.3148945 -0.051095303 -0.37653425 0.22378476 0.060019627 0.10777242
0.4398002 -0.26888824 -0.5140005 0.10575731 -0.2680333 0.35784268 -0.06922935 -0.1589222
0.48935914 0.06428566 -0.50267184 -0.5794398 0.38436902 -0.39389604 -0.27506316 -0.21361387
-0.34620914 0.51808196 0.5374966 -0.22435638 -0.28763214 -0.30900246 0.064896144 -0.57282346
0.10838794 -0.17812502 -0.5073798 -0.6114369 0.1809876 -0.40134576 -0.695557 -0.3698338
0.2918271 0.35800615 0.101585604 -0.34423667 0.14482296 0.25152797 -0.37801865 0.5135307
0.0021485197 0.021986926 0.029283319 -0.118262246 -0.46705547 0.08462354 0.189832 -0.08927215
-0.42860973 -0.28670928 0.32774937 -0.14908282 -0.3718786 0.28264531 0.42185843 -0.2973488
00000000: b72c d3be 29fa 27bf b1de 0a3f 6cb6 81be
00000010: 4953 633e 1880 683e dd74 04bf 1236 ffbe
00000020: 2d6c b0be 7567 a4bd 25ee d83e 9b39 b23e
00000030: 5cbc 013f c4b5 c7be 7de2 d63d 1542 0a3f
00000040: 3704 153f 3336 2dbc 21a3 1a3f 3ebb 3f3c
00000050: 9c52 acbe 6b12 bd3d f472 0b3f bf81 073f
00000060: c080 b9be e098 de3e d673 1bbe f5e6 bd3e
00000070: 7f1a a53e 1958 2dbe e6a0 f4bd 9462 803d
00000080: b68e f23b f834 8f3e 0317 cdbd af4e 1a3f
00000090: 1b4a fabe 7a9e 78be efae 85be 84d2 b1bc
000000a0: c2ef b7be 4b5d 473e c51a 8abe e8da da3d
000000b0: 242c 3dbd 5e3e ba3e 115f da3e c7b3 9e3c
000000c0: ac4b aa3d a7bf b3bd da3d fb3c 7825 1cbe
000000d0: 5b1c f1be fed2 e43e 7efc 583e 50ea c8be
000000e0: de79 083f 8376 a43e d75d 23bf 5b6d b43e
000000f0: fd0b 91be 7d59 e83e e8cb 793e ac98 d3be
00000100: ce69 80be 4d0f 01be 5611 bbbd b514 c5be
00000110: b817 103f b6f7 363d 632d 8b3e f38a 40bd
00000120: 59d7 043f e78d ea3e a83d 86be 9256 e93d
00000130: f1b1 85be 86a6 3bbe 44ac f33e 26f0 71be
00000140: 84d2 5cbe c3ee 0a3f e006 00bf 2e04 203f
00000150: 3a07 f13e ee9f 3abe fe11 8f3e 2b75 123f
00000160: 2a04 9f3e fe60 b8bc a57f 1abe af56 92be
00000170: b021 c3be 72cf 10bf 6f7b 8fbe 5ca8 62be
00000180: c0df 06bf c9cb 0cbf e6ae 1bbe d933 37be
00000190: 9fe5 a2be 2d3a dbbe 5778 443e 075f 71be
000001a0: e2b4 5e3e ab10 813e 6694 653e 2b78 dc3e
000001b0: 1f9f edbe 481c 953e 9509 e0be a1c9 fcbe
000001c0: 5a70 3abd f888 c23e 032a 60be e3fb b3bc
000001d0: 9fa4 1a3f 0824 efbe c219 83be c324 c33e
000001e0: 5ce5 32bd 5836 0e3f 0940 d7bd 1d9c 3ebd
000001f0: 69e1 a33e 9caf 58be ff95 1c3f d674 ecbe
00000200: 5b2e 1abc ae19 24bd da39 a13e 4f49 51bd
00000210: 19c9 c0be d527 653e 24d7 753d c9b7 dc3d
00000220: 7e2d e13e b8ab 89be 8995 03bf 4a97 d83d
00000230: a93b 89be 2837 b73e 1ec8 8dbd 80bc 22be
00000240: 488d fa3e 33a8 833d 1aaf 00bf 2b56 14bf
00000250: 04cc c43e beac c9be 14d5 8cbe 98bd 5abe
00000260: 5342 b1be 05a1 043f 6199 093f aebd 65be
00000270: 8544 93be 9235 9ebe 45e8 843d 8fa4 12bf
00000280: 7ffa dd3d 6866 36be a4e3 01bf 2187 1cbf
00000290: d054 393e 317d cdbe 0610 32bf db5a bdbe
000002a0: 5d6a 953e 954c b73e 1d0c d03d ca3f b0be
000002b0: 784c 143e 46c8 803e a98b c1be bf76 033f
000002c0: 2ece 0c3b ed1d b43c 92e3 ef3c 7a33 f2bd
000002d0: e521 efbe 1b4f ad3d 5263 423e 51d4 b6bd
000002e0: bc72 dbbe 8fcb 92be c4ce a73e 2ba9 18be
000002f0: df66 bebe e3b6 903e d4fd d73e 1a3e 98be

layers.1.weight f4 [192, 192]
-0.026336875 0.003797164 -0.032292448 -0.030590825 0.061803535 -0.04301101 -0.049191624 -0.029024847
-0.0507481 -0.04440604 -0.0061532836 -0.0058492483 0.019301556 -0.07069626 0.054429702 -0.049141668
-0.051346183 -0.0620492 -0.05691053 0.035579294 -0.061313048 -0.04754959 0.023227697 -0.07300455
-0.070803426 0.015925165 -0.008151402 0.028876452 -0.0023831674 0.025090337 0.026427792 -0.024577893
0.058010772 0.021112932 0.048936464 -0.0046913926 0.00893093 -0.06202599 -0.006373965 0.018873598
0.027670093 -0.027961973 0.043360386 0.040578704 0.06914183 -0.057425536 -0.028099522 -0.027575208
-0.023028165 0.048741885 0.038932513 -0.044176914 -0.0017393053 -0.033581816 -0.041272458 0.02909171
-0.040473506 0.023015648 -0.04064168 -0.03386224 0.035460815 0.015172059 0.038403384 -0.044537198
0.02868924 -0.021503534 -0.064351045 0.013931574 0.0031525658 -0.0054899286 -0.069288276 -0.031018583
-0.019510422 -0.05848691 0.040897407 -0.0025221284 -0.029327283 -0.038913265 -0.038492113 -0.033824135
-0.0016706877 0.010046727 0.058749367 0.044886943 0.036666326 0.07001554 -0.023880698 0.0474237
-0.029004542 -0.06111189 -0.062020615 -0.060542766 -0.07200739 -0.003924087 0.049972333 0.008536148
-0.06587858 -0.0061373077 0.049033675 -0.021636326 -0.019384883 -0.053627104 0.052972227 0.0028243675
-0.04050946 0.06026483 0.0117323585 -0.018991454 -0.005586763 -0.018037608 0.04099921 -0.022339059
0.014293055 -0.04436121 0.027581016 -0.030818284 -0.066883415 0.0056305705 -0.05693318 -0.020739064
-0.03922311 0.022726497 -0.05921372 -0.039173193 0.028067062 0.022796482 0.06481685 -0.07373048
0.0050191265 0.035886467 -0.02779674 0.030163206 0.007740609 -0.005588132 -0.030847866 0.0056964913
-0.0044999067 0.05328614 -0.045137417 -0.0476984 -0.007255731 -0.0029104904 -0.024693713 -0.034234595
-0.032901287 0.050014924 0.06643225 -0.010961298 -0.061471835 -0.03750094 -0.007061805 -0.03933792
0.047065616 -0.060103893 -0.0480814 -0.03673658 -0.05779738 0.0096094785 0.027332125 0.053561352
-0.0077981027 0.03476286 0.056651887 0.0006872744 -0.025890736 -0.033725742 0.06900336 0.07135684
-0.06995936 -0.042420194 -0.0071894615 0.040254705 -0.068382904 0.067849055 0.0057964246 -0.030439628
-0.008254716 0.056553677 0.03327847 0.043306034 0.05568914 -0.005536552 -0.0058900565 -0.012115591
0.05124747 -0.008741675 0.0063906745 0.061557908 0.049515244 0.020958006 0.03882147 0.062311582
0.03685144 0.026002606 -0.048386134 -0.1748136 -0.025686271 0.03129262 -0.052734412 -0.1481482
-0.048429858 -0.019640878 0.040406704 -0.060465492 0.011908841 -0.015805522 0.015869685 -0.066997126
0.024870042 0.007521491 0.06861049 -0.07750498 -0.026162205 0.002828976 -0.008270299 0.03270618
0.08750662 0.038281944 -0.09626198 -0.059998017 -0.059104323 0.0039613247 0.027431794 -0.014615483
-0.08584437 -0.06253438 0.026058162 0.053722028 0.032641646 -0.01923163 -0.08326626 -0.0702767
-0.09887533 0.026555842 0.028556222 0.013099005 -0.017785957 -0.07425496 -0.02580493 -0.07451601
-0.061422136 0.028167628 -0.0262173 0.028759954 0.030594958 0.022169007 0.059405547 0.0072622444
0.017383242 0.0013699788 0.09073274 -0.08421902 -0.04481644 0.05352565 0.0035734759 0.00038710912
00000000: 6ec0 d7bc d7d9 783b 1645 04bd 9c99 fabc
00000010: b425 7d3d 502c 30bd 287d 49bd 84c5 edbc
00000020: 3ddd 4fbd 1ce3 35bd 7ca1 c9bb 0dab bfbb
00000030: 4c1e 9e3c 33c9 90bd aef1 5e3d c648 49bd
00000040: 6050 52bd 4d27 7ebd 041b 69bd 98bb 113d
00000050: 6423 7bbd 5cc3 42bd 0348 be3c 6983 95bd
00000060: 6301 91bd 7e75 823c 758d 05bc 4f8e ec3c
00000070: ea2e 1cbb 408a cd3c 197f d83c 9457 c9bc
00000080: b49c 6d3d 07f5 ac3c 9a71 483d 41ba 99bb
00000090: 0953 123c f70e 7ebd b2dc d0bb ce9c 9a3c
000000a0: 64ac e23c 8210 e5bc a99a 313d db35 263d
000000b0: 3b9a 8d3d 0a37 6bbd f830 e6bc 67e5 e1bc
000000c0: 90a5 bcbc 92a5 473d b377 1f3d daf2 34bd
000000d0: 67f9 e3ba 168d 09bd 4f0d 29bd bd51 ee3c
000000e0: 8cc7 25bd 508b bc3c e477 26bd 22b3 0abd
000000f0: 5c3f 113d 3a94 783c de4c 1d3d a36c 36bd
00000100: b205 eb3c 2e28 b0bc 7bca 83bd 4241 643c
00000110: 479b 4e3b dce4 b3bb 03e7 8dbd af1a febc
00000120: 52d4 9fbc f88f 6fbd 0a84 273d 4b4a 25bb
00000130: c53f f0bc 8463 1fbd e8a9 1dbd 2d8b 0abd
00000140: fafa daba 079b 243c 2da3 703d 5fdb 373d
00000150: 6e2f 163d 4f64 8f3d 74a1 c3bc 5b3f 423d
00000160: ef9a edbc 7650 7abd 5409 7ebd b1fb 77bd
00000170: 9c78 93bd a195 80bb caaf 4c3d 33db 0b3c
00000180: 59eb 86bd 781b c9bb 89d7 483d aa3e b1bc
00000190: 0ccd 9ebc 18a8 5bbd 68f9 583d 0619 393b
000001a0: 3fed 25bd 41d8 763d 1439 403c f793 9bbc
000001b0: 2a11 b7bb 9bc3 93bc caee 273d 6700 b7bc
000001c0: 6b2d 6a3c 1ab4 35bd 95f1 e13c a076 fcbc
000001d0: 2cfa 88bd a680 b83b c432 69bd f8e4 a9bc
000001e0: 69a8 20bd eb2c ba3c 168a 72bd 1274 20bd
000001f0: e5ec e53c b0bf ba3c b2be 843d 0200 97bd
00000200: 7c77 a43b b0fd 123d fdb5 e3bc d418 f73c
00000210: efa4 fd3b a61c b7bb aab4 fcbc a2a9 ba3b
00000220: f473 93bb 9142 5a3d 03e2 38bd 665f 43bd
00000230: 7cc1 edbb edbd 3ebb 784a cabc 9339 0cbd
00000240: 80c3 06bd 73dc 4c3d a20d 883d 0497 33bc
00000250: e4c9 7bbd 969a 19bd b766 e7bb cc20 21bd
00000260: e0c7 403d 802f 76bd 01f1 44bd 1979 16bd
00000270: f2bc 6cbd 1371 1d3c 9fe7 df3c 2663 5b3d
00000280: 3a87 ffbb 8063 0e3d cf0b 683d 342a 343a
00000290: cf18 d4bc 0124 0abd a251 8d3d 8923 923d
000002a0: da46 8fbd ccc0 2dbd 9395 ebbb 1ee2 243d
000002b0: 560c 8cbd 72f4 8a3d efef bd3b 875c f9bc
000002c0: ca3e 07bc d4a4 673d 014f 083d ab61 313d
000002d0: 4c1a 643d f76b b5bb 6001 c1bb 7980 46bc
000002e0: dee8 513d 3e39 0fbc dd68 d13b 2524 7c3d
000002f0: 7fd0 4a3d 20b0 ab3c 4303 1f3d 6e3a 7f3d
00000300: 89f1 163d 6b03 d53c 8a30 46bd 5602 33be
00000310: 046c d2bc b12c 003d 0a00 58bd 29b4 17be
00000320: 635e 46bd e8e5 a0bc 8081 253d aaaa 77bd
00000330: 4d1d 433c 957a 81bc 2401 823c ca35 89bd
00000340: 42bc cb3c d776 f63b a883 8c3d eeba 9ebd
00000350: 1f52 d6bc 5766 393b 2680 07bc eaf6 053d
00000360: ac36 b33d 87cd 1c3d 0025 c5bd 7bc0 75bd
00000370: 6017 72bd 00ce 813b a4b8 e03c c775 6fbc
00000380: 2ccf afbd 0612 80bd ed77 d53c a10b 5c3d
00000390: 3fb3 053d a78b 9dbc 8087 aabd 3bed 8fbd
000003a0: 267f cabd a38b d93c bdee e93c 369d 563c
000003b0: dbb3 91bc fc12 98bd dc64 d3bc da9b 98bd
000003c0: c795 7bbd ccbf e63c aac5 d6bc ff99 eb3c
000003d0: 47a2 fa3c c79b b53c 3b53 733d 1ff8 ed3b
000003e0: 4d67 8e3c dc90 b33a 16d2 b93d 067b acbd
000003f0: 7291 37bd b63d 5b3d fa30 6a3b e8f4 ca39

layers.1.bias f4 [192]
-0.06829915 0.051764205 0.008852162 0.071400106 -0.008593051 0.04024776 -0.0044903466 -0.015645755
-0.13581721 0.019553857 -0.087486744 0.062844776 0.018051287 0.004948563 -0.09343915 0.06903951
-0.039367497 -0.0100746 -0.095961064 0.029058348 0.0306087 -0.071269825 0.113924176 -0.07536374
-0.04382505 -0.012491705 -0.028590092 0.025165629 0.04400857 0.025151964 0.042613 0.029417673
0.02122123 0.084435806 0.018600589 0.049168322 -0.036884204 0.056502745 0.015609815 0.017164512
-0.048741594 0.05891703 0.036514603 0.088566214 -0.068188794 0.008205596 0.01904866 0.021975363
0.08752078 -0.012812056 -0.02077307 -0.0037666291 -0.020986538 -0.020927282 0.017865235 -0.021719187
-0.029486129 0.052434325 -0.04580121 -0.009599104 -0.051693354 -0.03257019 -0.0045924243 0.020048218
-0.09469211 -0.047922164 0.07897457 0.053025667 0.03972562 -0.02683235 -0.020911759 -0.038578354
0.01642237 0.0010579407 -0.0140770115 0.03881149 0.0829348 0.05038898 0.002537881 0.04584724
0.046691284 0.031740233 0.020302491 0.061113883 -0.015251032 -0.055193007 -0.009629278 0.009389163
-0.035568763 0.0052933656 -0.039050657 -0.06548347 0.038945362 -0.0728535 -0.025178092 0.047835425
-0.016551694 0.02745821 -0.03928599 -0.038931813 -0.094239846 -0.025227033 -0.03938293 -0.03424702
0.066986285 -0.039220624 0.04124559 -0.06279527 0.06705979 0.095919855 0.0038074336 -0.070931405
0.006874716 0.11598061 -0.058901507 -0.04837731 0.05622696 -0.07194125 0.042226862 0.03298898
0.10137532 0.029963367 -0.0021174217 0.030609759 0.009091001 0.015095124 0.044731308 -0.036504418
-0.06656251 0.05588887 -0.019823391 -0.01951398 -0.0067991293 0.034998294 0.063478135 0.061270755
-0.048282843 -0.01873258 -0.0779989 -0.062368765 0.101135276 -0.022325452 0.052927483 0.04828011
-0.029865036 0.07496673 0.008519742 -0.020321736 0.010834047 -0.01513473 -0.010361094 0.060518038
-0.019944761 -0.08902538 0.048410814 -0.016645027 0.053547725 -0.029075842 0.007445686 0.08097625
-0.0077122 -0.002840705 -0.034448117 -0.07630982 0.0013008415 -0.043795444 0.010421794 0.016713828
-0.035653654 0.027569307 -0.01136253 -0.017055092 -0.041326042 -0.026353372 0.0538488 -0.011871561
-0.067713685 -0.02630892 0.04914725 0.03006114 0.01379728 0.081377625 0.052087758 -0.040879615
0.05803419 0.005546741 0.065554835 -0.0043523186 0.07109402 -0.050507016 0.004364276 0.04906743
00000000: 6de0 8bbd b406 543d a908 113c 383a 923d
00000010: dec9 0cbc d6da 243d c223 93bb 872b 80bc
00000020: ab13 0bbe 692f a03c 402c b3bd c3b4 803d
00000030: 4be0 933c 8e27 a23b 065d bfbd 9664 8d3d
00000040: d03f 21bd ef0f 25bc 3c87 c4bd c60b ee3c
00000050: 19bf fa3c eaf5 91bd 1451 e93d 4e58 9abd
00000060: e581 33bd 02aa 4cbc c535 eabc 2628 ce3c
00000070: 5542 343d 7e0b ce3c f88a 2e3d 55fd f03c
00000080: 25d8 ad3c aeec ac3d 4360 983c b964 493d
00000090: e413 17bd 6c6f 673d 4fc0 7f3c 979c 8c3c
000000a0: 44a5 47bd fc52 713d 5690 153d 3462 b53d
000000b0: 91a6 8bbd c470 063c ef0b 9c3c ad05 b43c
000000c0: 183e b33d a8e9 51bc 492c aabc 8dd9 76bb
000000d0: f6eb abbc b16f abbc 1d5a 923c 70ec b1bc
000000e0: e58c f1bc 60c5 563d 0d9a 3bbd 8f45 1dbc
000000f0: 69bc 53bd 5268 05bd 0c7c 96bb 293c a43c
00000100: f0ed c1bd 084a 44bd 6bbd a13d 7131 593d
00000110: 55b7 223d 84cf dbbc 234f abbc 5604 1ebd
00000120: 3588 863c 99aa 8a3a 44a3 66bc ccf8 1e3d
00000130: b8d9 a93d ad64 4e3d 9452 263b 51ca 3b3d
00000140: 5c3f 3f3d 0c02 023d 6951 a63c 8d52 7a3d
00000150: 77df 79bc 1012 62bd 1fc4 1dbc 01d5 193c
00000160: 8db0 11bd f873 ad3b 95f3 1fbd 331c 86bd
00000170: 2c85 1f3d 3734 95bd 4942 cebc 14ef 433d
00000180: 6b97 87bc 0af0 e03c 59ea 20bd f776 1fbd
00000190: d200 c1bd eca8 cebc ff4f 21bd 9a46 0cbd
000001a0: 1b30 893d cea5 20bd 23f1 283d ce9a 80bd
000001b0: a556 893d a171 c43d 2386 793b 7c44 91bd
000001c0: 4c45 e13b 3e87 ed3d b542 71bd 4927 46bd
000001d0: 3e4e 663d ef55 93bd 13f6 2c3d 741f 073d
000001e0: dd9d cf3d bc75 f53c 71c4 0abb 51c1 fa3c
000001f0: 6cf2 143c 8a51 773c 2d38 373d a885 15bd
00000200: ed51 88bd baeb 643d aa64 a2bc c8db 9fbc
00000210: 3bcb debb 5f5a 0f3d d300 823d 0bf7 7a3d
00000220: 3bc4 45bd 1175 99bc e3bd 9fbd 6476 7fbd
00000230: 0320 cf3d dee3 b6bc 7dca 583d 5dc1 453d
00000240: 85a7 f4bc 2888 993d 6396 0b3c c579 a6bc
00000250: 4981 313c a9f7 77bc 94c1 29bc c3e1 773d
00000260: 3263 a3bc f052 b6bd 6b4a 463d 275b 88bc
00000270: dc54 5b3d 7630 eebc f1fa f33b e0d6 a53d
00000280: 9fb6 fcbb 1f2b 3abb 7819 0dbd 5348 9cbd
00000290: ff80 aa3a da62 33bd 2cc0 2a3c 70eb 883c
000002a0: 9109 12bd 07d9 e13c e829 3abc 1fb7 8bbc
000002b0: 7f45 29bd 07e3 d7bc 8f90 5c3d f080 42bc
000002c0: 79ad 8abd ce85 d7bc a04e 493d c842 f63c
000002d0: fd0d 623c 50a9 a63d f959 553d 6271 27bd
000002e0: 42b5 6d3d 70c1 b53b 9d41 863d e59d 8ebb
000002f0: be99 913d 72e0 4ebd 3302 8f3b eefa 483d

layers.2.weight f4 [192, 192]
-0.06824695 -0.040506117 -0.031645276 0.0720586 0.00096560386 -0.03098753 0.00025101216 -0.08120023
-0.010787373 0.10081519 -0.028566932 0.03457711 0.06756844 -0.00892837 0.12140065 0.0548513
-0.045245577 0.10539849 -0.012774442 0.028740259 0.13099222 0.07307268 0.065331474 -0.03082273
-0.033955872 0.019444615 -0.07171581 0.052569322 0.08806039 -0.00878858 0.104791686 -0.01608682
0.003764317 0.042683784 0.013083759 -0.052941952 0.034279816 -0.0052066483 0.03409935 0.07961724
0.027768815 0.07798522 -0.024416527 0.0049953307 0.015382462 -0.019146608 0.07097447 0.0051065986
-0.023706492 -0.00422372 0.062248822 -0.027637932 -0.026139094 0.02927537 -0.021868855 0.02192396
0.009045109 -0.026586832 0.023415033 -0.0040622083 -0.026113708 0.055620413 0.09664824 -0.033993017
0.014451993 -0.108200714 0.06554396 -0.028238581 0.05779947 -0.039986517 0.08966638 -0.05791182
0.044689912 -0.009048937 -0.00510343 0.003185992 0.076976165 -0.06013697 0.06433909 -0.0143733835
0.037048623 0.04825356 -0.017198564 0.01630713 0.09702787 0.023422433 -0.046192907 -0.01381829
0.07099863 0.07885126 -0.0042355913 0.050479867 0.051400095 0.00020594441 0.053302083 0.013099671
-0.010082138 0.06688552 -0.022564398 -0.047623444 0.15536207 -0.045071386 0.065568805 -0.03756524
0.07114174 -0.01685351 -0.039586466 -0.004495254 0.073997624 0.056352302 -0.039232735 -0.015382426
0.009943217 0.05410951 -0.055304527 0.024033487 0.008776248 0.001942372 2.049443e-05 0.029525654
0.06766146 0.023611441 0.052171547 -0.045807425 -0.013231483 -0.051964585 -0.03045891 -0.0042024083
-0.029288927 -0.007276586 -0.031158892 -0.045882247 0.02615561 -0.026608596 -0.023647018 -0.071609
0.058954574 -0.018245637 0.082639776 -0.008825745 -0.037225973 -0.032879114 0.066179596 0.012809924
0.0471147 0.061175458 0.05454046 0.011383148 -0.044213198 -0.0068004504 0.07606536 0.015066587
-0.018364254 -0.12952851 0.12800232 -0.012206172 -0.01765245 0.062309645 -0.03803342 -0.04611273
-0.008663619 0.057722367 -0.04320323 -0.023186343 -0.052348386 0.00024029915 0.0247857 0.05969603
0.050585248 0.07097403 -0.0026940398 -0.027586585 -0.015379863 0.018410448 -0.07255476 -0.01717659
-0.05551315 -0.11421017 -0.00544352 0.027486634 -0.04070977 0.10467916 -0.008079127 -0.023603516
0.025246821 -0.011039852 -0.027332451 0.014198971 0.0012500855 -0.005935687 -0.032898206 -0.04959439
0.015270782 -0.05120542 -0.06377678 -0.12950028 -0.047490116 -0.012968999 0.061540592 -0.01881011
0.7477631 -0.044930942 0.071321115 0.041157134 -0.0926599 0.07031207 2.96333 0.016927714
-0.043447297 -0.1552943 0.010348718 -0.1403731 -0.03412427 0.023075378 0.09557221 -0.014129097
0.00046223216 -0.009995726 -0.0061581973 0.023801101 -0.08946598 -0.06927559 -0.0053087883 -0.115022995
0.05824427 -0.03246144 0.021263223 -0.025833212 0.057468038 -0.0014983573 0.0247057 -0.034910493
0.034864243 -0.08280337 0.032600082 -0.021587597 0.005785872 0.014279341 -0.034182377 0.0039080456
-0.10387345 0.01686161 0.052033495 0.07736981 -0.0049535856 -0.07148117 -0.057049934 0.04523761
-0.015442749 0.0046547265 0.010675477 -0.015688296 -0.017955458 0.030193137 0.050023634 0.1319326
00000000: 0fc5 8bbd bee9 25bd 7a9e 01bd 7693 933d
00000010: 9420 7d3a 8fd9 fdbc 489a 8339 4e4c a6bd
00000020: 86bd 30bc 3278 ce3d 3305 eabc baa0 0d3d
00000030: 5361 8a3d 4c48 12bc e7a0 f83d c2ab 603d
00000040: 6d53 39bd 2adb d73d e54b 51bc b170 eb3c
00000050: d322 063e 21a7 953d 82cc 853d f37f fcbc
00000060: 5015 0bbd 504a 9f3c bddf 92bd ee52 573d
00000070: 0159 b43d fafd 0fbc 069d d63d 82c8 83bc
00000080: c2b2 763b 31d5 2e3d 435d 563c a9d9 58bd
00000090: fe68 0c3d 889c aabb c3ab 0b3d 5d0e a33d
000000a0: 6d7b e33c b7b6 9f3d 2b05 c8bc dfaf a33b
000000b0: b906 7c3c 59d9 9cbc 105b 913d 4155 a73b
000000c0: 1e34 c2bc 2267 8abb 9ff8 7e3d f268 e2bc
000000d0: a721 d6bc e7d2 ef3c 5026 b3bc e099 b33c
000000e0: f031 143c a1cc d9bc e2d0 bf3c 461c 85bb
000000f0: 6aec d5bc 3bd2 633d 83ef c53d 433c 0bbd
00000100: 0dc8 6c3c 5698 ddbd e93b 863d 9954 e7bc
00000110: 23bf 6c3d e7c8 23bd 02a3 b73d f234 6dbd
00000120: c50c 373d fe41 14bc ac3a a7bb 13cc 503b
00000130: aea5 9d3d 2f52 76bd 36c4 833d 577e 6bbc
00000140: 4cc0 173d 86a5 453d 01e4 8cbc 8896 853c
00000150: 8cb6 c63d 67e0 bf3c c634 3dbd 1c66 62bc
00000160: bb67 913d c57c a13d b7ca 8abb fac3 4e3d
00000170: e888 523d c8f2 5739 4953 5a3d 01a0 563c
00000180: 8d2f 25bc 47fb 883d f9d8 b8bc cd10 43bd
00000190: 3c17 1f3e c69c 38bd f048 863d 02de 19bd
000001a0: c3b2 913d 5f10 8abc 6b25 22bd ec4c 93bb
000001b0: 118c 973d acd1 663d 81b2 20bd 9206 7cbc
000001c0: e0e8 223c efa1 5d3d 0087 62bd e0e1 c43c
000001d0: 41ca 0f3c 3097 fe3a 74eb ab37 c9df f13c
000001e0: 1792 8a3d c86c c13c d5b1 553d 91a0 3bbd
000001f0: ddc8 58bc d1d8 54bd f784 f9bc 5bb4 89bb
00000200: 55ef efbc 6d70 eebb ef40 ffbc 06ef 3bbd
00000210: 4a44 d63c 45fa d9bc 64b7 c1bc bda7 92bd
00000220: 5a7a 713d e077 95bc 0b3f a93d dc99 10bc
00000230: 437a 18bd 40ac 06bd 2b89 873d b7e0 513c
00000240: 58fb 403d 1e93 7a3d d165 5f3d 6280 3a3c
00000250: e618 35bd 50d6 debb 28c8 9b3d d9d9 763c
00000260: a270 96bc 1fa3 04be 0a13 033e 65fc 47bc
00000270: df9b 90bc 6638 7f3d eec8 1bbd b4e0 3cbd
00000280: daf1 0dbc 4a6e 6c3d dff5 30bd 49f1 bdbc
00000290: 436b 56bd d0f8 7b39 610b cb3c d383 743d
000002a0: 7a32 4f3d d55a 913d 7d8e 30bb 43fd e1bc
000002b0: d2fb 7bbc 82d1 963c 9797 94bd ecb5 8cbc
000002c0: c261 63bd 06e7 e9bd 8e5f b2bb a62b e13c
000002d0: 4abf 26bd 0762 d63d 515e 04bc 295c c1bc
000002e0: 6cd2 ce3c 7fe0 34bc 4ee8 dfbc cda2 683c
000002f0: e9d9 a33a 2780 c2bb 45c0 06bd 7d23 4bbd
00000300: 4d32 7a3c c6bc 51bd 679d 82bd b99b 04be
00000310: ff84 42bd ed7b 54bc fd11 7c3d a917 9abc
00000320: 676d 3f3f 8209 38bd ce10 923d 6294 283d
00000330: 79c4 bdbd c6ff 8f3d 33a7 3d40 fdab 8a3c
00000340: cbf5 31bd 7805 1fbe ab8d 293c f7bd 0fbe
00000350: e4c5 0bbd 9308 bd3c 5dbb c33d ba7d 67bc
00000360: c057 f239 1dc5 23bc b4ca c9bb 87fa c23c
00000370: f139 b7bd 5ce0 8dbd 58f5 adbb 2d91 ebbd
00000380: 8b91 6e3d 49f6 04bd 3630 ae3c 2ca0 d3bc
00000390: 9b63 6b3d 8764 c4ba 9c63 ca3c 4efe 0ebd
000003a0: cfcd 0e3d d094 a9bd aa87 053d 79d8 b0bc
000003b0: 6a97 bd3b e6f3 693c d202 0cbd 100f 803b
000003c0: 9abb d4bd 5c21 8a3c 1321 553d 1074 9e3d
000003d0: b051 a2bb b864 92bd 31ad 69bd 124b 393d
000003e0: 9503 7dbc ad86 983b 32e8 2e3c be84 80bc
000003f0: 5317 93bc 9957 f73c 95e5 4c3d 5719 073e

layers.2.bias f4 [192]
0.08458806 -0.012667162 0.02447734 -0.050158594 -0.050873455 -0.0051468834 -0.067762636 0.14718258
0.05983239 -0.025107786 -0.017830277 -0.052696977 -0.015926404 0.07645437 -0.044131607 -0.021077612
0.010885244 0.06400293 0.032271005 0.12380068 -0.06592422 0.023027478 0.16472863 0.09783269
-0.0155278705 -0.0033417202 0.06957767 -0.029884739 -0.005261153 0.096285015 0.09566563 0.055907957
-0.004038898 0.01283972 -0.0022302184 0.049687285 0.017869068 0.06717307 0.027763521 0.006663708
0.0025498287 0.045120176 0.050862454 0.13208374 -0.044955704 -0.018181834 -0.031495888 -0.0474836
0.092342064 0.050245177 0.1089244 0.13283323 0.095918514 0.030609535 0.098854974 -0.12637027
-0.04048795 -0.05353654 0.064066164 0.01928814 0.099925056 0.08738178 0.047346547 0.101282164
-0.008350189 -0.06377649 -0.07349207 0.09250528 0.025149092 0.15437557 0.014662715 0.05807179
0.008077795 -0.07029659 0.06648588 -0.048399452 0.080536276 -0.014059771 -0.08868189 0.05835021
-0.013591694 -0.10609179 -0.07616777 -0.03389105 -0.05464852 0.0099641625 -0.06348127 0.11219951
0.017033143 -0.017822076 -0.048201628 0.06042675 -0.013712387 0.025325593 0.039227836 -0.025738817
-0.022266721 -0.04293064 0.14795117 -0.042724494 -0.09684188 -0.08181721 -0.01950097 0.080316804
-0.04236933 0.028196929 0.049859088 -0.0223271 -0.014578055 0.00648655 -0.0103291925 0.009416396
-0.036902405 -0.0025778248 0.059248675 0.05719776 -0.01733302 -0.07854269 0.12942049 -0.003668474
-0.009123855 0.05738054 0.09882893 0.0024061478 0.033378795 -0.022838267 -0.03950333 -0.076420985
0.090339564 0.044229828 -0.012191187 -0.0005765622 0.051921304 0.09392992 0.002365714 -0.011403951
0.046253316 -0.024200696 0.048635524 0.018623097 0.025365299 0.015829058 0.07161307 -0.058063354
0.019457802 0.024151478 -0.022556188 0.0033840346 0.053903256 -0.055770226 0.09930541 -0.060302485
0.08038104 0.10504441 0.0009247385 0.038458332 0.023689788 -0.05904503 0.02467432 0.00014729063
-0.036144055 0.053873084 0.03468512 0.05628316 0.026364129 0.08497453 0.027257243 0.020248082
0.007240266 -0.04656578 0.04273601 0.1405178 0.10312313 -0.03302687 -0.0307251 0.07167583
0.030031148 -0.0016826711 -0.045889158 0.1502784 0.15463817 0.010427806 -0.0052087163 -0.052339405
0.040639594 0.09010521 -0.04597034 0.060682643 -0.046908904 0.08537026 0.06617848 0.045744203
00000000: 813c ad3d ee89 4fbc b484 c83c 1973 4dbd
00000010: af60 50bd 30a7 a8bb 23c7 8abd 08b7 163e
00000020: cf12 753d d8ae cdbc cd10 92bc c9d8 57bd
00000030: 1778 82bc 1c94 9c3d 58c3 34bd f5aa acbc
00000040: 0658 323c f813 833d 9a2e 043d 368b fd3d
00000050: 4703 87bd 1fa4 bc3c 9fae 283e 815c c83d
00000060: 9c68 7ebc c300 5bbb bd7e 8e3d d7d0 f4bc
00000070: c065 acbb 1431 c53d 58ec c33d beff 643d
00000080: bb58 84bb b05d 523c db28 12bb e584 4b3d
00000090: 2762 923c 0992 893d 5370 e33c 3c5b da3b
000000a0: 071b 273b efcf 383d 2655 503d f640 073e
000000b0: 7923 38bd 12f2 94bc d501 01bd 2a7e 42bd
000000c0: d61d bd3d e3cd 4d3d c113 df3d 6f05 083e
000000d0: ed70 c43d d9c0 fa3c 7a74 ca3d 3567 01be
000000e0: b1d6 25bd 2249 5bbd 1f35 833d 2902 9e3c
000000f0: 82a5 cc3d 38f5 b23d 74ee 413d 066d cf3d
00000100: 3bcf 08bc 409d 82bd 0383 96bd 6973 bd3d
00000110: 7805 ce3c a114 1e3e e23b 703c afdc 6d3d
00000120: ba58 043c a9f7 8fbd c029 883d 813e 46bd
00000130: 34f0 a43d f45a 66bc da9e b5bd a100 6f3d
00000140: b2af 5ebc a746 d9bd d9fd 9bbd 57d1 0abd
00000150: 20d7 5fbd ba40 233c 7802 82bd dbc8 e53d
00000160: 1789 8b3c 9aff 91bc 126f 45bd 0a82 773d
00000170: eba9 60bc 9e77 cf3c 5ead 203d 36da d2bc
00000180: b368 b6bc 0ad8 2fbd 8380 173e e1ff 2ebd
00000190: 0955 c6bd c88f a7bd 80c0 9fbc 237d a43d
000001a0: 768b 2dbd 3ffd e63c 0b39 4c3d 53e7 b6bc
000001b0: cbd8 6ebc 208d d43b c63b 29bc 3a47 1a3c
000001c0: fa26 17bd b9f0 28bb bdae 723d 3348 6a3d
000001d0: fafd 8dbc fdda a0bd ce86 043e c86a 70bb
000001e0: 397c 15bc db07 6b3d d266 ca3d 76b0 1d3b
000001f0: 34b8 083d 5117 bbbc 3ece 21bd 9b82 9cbd
00000200: f303 b93d 562a 353d 8bbd 47bc 6f24 17ba
00000210: 6fab 543d 545e c03d 180a 1b3b a3d7 3abc
00000220: 1e74 3d3d 8a40 c6bc 0b36 473d 778f 983c
00000230: e3ca cf3c f1ab 813c e0a9 923d d7d3 6dbd
00000240: f865 9f3c 52d9 c53c c1c7 b8bc aec6 5d3b
00000250: a9c9 5c3d 526f 64bd a360 cb3d bdff 76bd
00000260: d19e a43d 8621 d73d 266a 723a 7c86 1d3d
00000270: 1611 c23c 34d9 71bd cd21 ca3c 0772 1a39
00000280: ca0b 14bd 06aa 5c3d fc11 0e3d 2c89 663d
00000290: 96f9 d73c 2007 ae3d 954a df3c 4edf a53c
000002a0: c13f ed3b c2bb 3ebd f40b 2f3d e6e3 0f3e
000002b0: 3832 d33d 2f47 07bd 34b3 fbbc c7ca 923d
000002c0: e203 f63c 138d dcba 45f6 3bbd 95e2 193e
000002d0: 7859 1e3e 63d9 2a3c e1ad aabb d861 56bd
000002e0: b475 263d 1589 b83d 654b 3cbd 5d8e 783d
000002f0: 8d23 40bd 9ad6 ae3d 9588 873d 465e 3b3d

layers.3.weight f4 [192, 192]
0.018713763 0.009939592 -0.0032040388 -0.036730107 0.027953932 0.06246393 -0.0007030409 0.04965124
-0.05590075 0.018641697 0.0024567056 0.056492224 0.036090776 0.017450185 0.007979324 0.04837996
-0.0636614 -0.03902622 0.05731322 0.079835325 -0.059381854 -0.066253096 0.109333634 0.029247679
0.024948424 -0.0040196716 0.1240884 -0.012470064 -0.031467877 0.04081549 0.054393575 -0.06994091
-0.07985947 -0.68050414 0.06462247 -0.027147932 -0.048213433 0.10666421 -0.028098658 0.039353255
0.054876693 0.04770258 -0.03318737 0.1070622 -0.06437735 -0.0061566173 0.03127717 0.05754823
0.047176268 0.004895023 0.059046064 0.02308906 -0.019009495 -0.0061029484 -0.024130907 0.011486313
-0.13643391 -0.028234227 0.014687982 0.037593223 0.059599057 0.022601448 0.017346594 0.1046602
-0.027824834 -0.046646293 0.044538066 0.06512878 -0.0066956556 0.06455712 -0.0009190289 0.010475438
0.028490508 0.028839171 0.04622708 0.06455334 -0.060172956 0.026021738 -0.33285034 -0.016842583
-0.06451327 -0.0123253055 -0.11129619 -0.05939533 -0.003522123 -0.047755904 -0.06304312 -0.005569
0.001753934 -0.046536386 0.061886795 -0.014773291 0.022082262 0.0010613817 -0.05815949 -0.032582313
0.01869015 -0.017536439 0.06312578 -0.023407625 0.07184769 0.03550631 0.00937074 0.08921956
0.03628625 0.0350749 -0.009598179 -0.02197823 -0.021190975 0.046300728 0.045004766 0.024271725
0.033170894 -0.08036247 -0.055342633 0.033588894 -0.6298811 0.0636582 0.04188468 -0.009871998
-0.045492288 0.010372132 0.03317055 -0.021672396 -0.0355442 0.069091626 -0.038663015 0.08797694
0.09528415 -0.066017956 -0.011506209 0.010943684 -0.036046863 -0.048133273 -0.27057156 0.01980331
-0.0016752388 0.0035577556 -0.06206074 -0.0015364198 0.07306111 0.016505329 0.047210913 -0.01631349
-0.014720987 0.071688145 -0.06441425 -0.008859588 -0.060223218 0.03846996 0.06596966 -0.054379784
0.022661496 0.008255449 -0.012310262 -0.052214686 0.053251956 0.046042748 -0.021797257 0.042462658
0.035935517 0.054386444 0.06364375 0.060998533 -0.027151275 0.009387538 -0.004576197 -0.031422436
-0.0051531107 0.043058857 -0.024360018 0.039249487 0.06507343 -0.028479626 0.04781632 -0.019030236
-0.026820047 -0.053793117 0.071248494 0.0073834136 0.1139701 0.056703538 0.07813683 0.02530767
0.017437395 0.07636554 -0.007337037 -0.013606027 -0.061007388 -0.07365459 -0.041391037 0.061414976
0.031460002 0.07231581 -0.0043927324 0.05464572 0.02356693 0.045769386 -0.03875174 0.045880158
0.042736374 0.078150496 0.020244587 0.041469224 0.04089575 0.03135039 -0.26926932 -0.008358665
-0.053332094 0.0131100025 -0.029449906 -0.093854785 0.059486825 -0.021386579 0.016010983 -0.054034945
-0.04013911 0.033660218 0.0014889812 0.04285819 0.034161445 0.10156364 0.013140873 0.05756777
0.052379265 1.4276568 -0.010290265 0.047513627 -0.0026094639 -0.0011048996 -0.054059144 0.06473849
0.028621498 0.057210084 -0.04007644 -0.0038009048 0.02314508 0.011291127 0.023148805 -0.035229478
-0.0532086 0.009161913 0.001088021 -0.12650989 0.0047270404 0.06174739 -0.05295371 -0.14901
0.24421374 0.09658062 -0.03964865 0.32842878 0.02494958 -0.023762668 0.028540455 0.0323891
00000000: 9b4d 993c acd9 223c dafa 51bb 4f72 16bd
00000010: a5ff e43c 2eda 7f3d 474c 38ba 195f 4b3d
00000020: 2ff8 64bd 79b6 983c ae00 213b 6464 673d
00000030: ecd3 133d b1f3 8e3c b6bb 023c 112a 463d
00000040: e860 82bd f5d9 1fbd 44c1 6a3d b480 a33d
00000050: 633a 73bd b4af 87bd 50ea df3d d498 ef3c
00000060: a360 cc3c 73b7 83bb 0f22 fe3d 3d4f 4cbc
00000070: 76e4 00bd 252e 273d cccb 5e3d 2e3d 8fbd
00000080: 5d8d a3bd 8535 2ebf c958 843d 5765 debc
00000090: 737b 45bd c472 da3d 282f e6bc e130 213d
000000a0: 62c6 603d c863 433d 7bef 07bd 6d43 db3d
000000b0: 46d8 83bd 73bd c9bb 7d1c 003d b1b7 6b3d
000000c0: e73b 413d 6e66 a03b 49da 713d 4525 bd3c
000000d0: cdb9 9bbc 3efb c7bb 2eae c5bc 1731 3c3c
000000e0: 55b5 0bbe 774b e7bc dda5 703c 5afb 193d
000000f0: 241e 743d ac26 b93c 721a 8e3c 1658 d63d
00000100: e8f0 e3bc 2f10 3fbd 8c6d 363d 3d62 853d
00000110: 3b67 dbbb 8636 843d fcea 70ba 2ca1 2b3c
00000120: ed64 e93c 2040 ec3c 9b58 3d3d 8b34 843d
00000130: eb77 76bd 8a2b d53c 5c6b aabe 75f9 89bc
00000140: 891f 84bd 14f0 49bc 42ef e3bd 8448 73bd
00000150: 6bd3 66bb b29b 43bd c01c 81bd 287c b6bb
00000160: 42e4 e53a f09c 3ebd 027d 7d3d ac0b 72bc
00000170: dce5 b43c 0f1e 8b3a a538 6ebd 0875 05bd
00000180: 161c 993c 94a8 8fbc 1748 813d 59c1 bfbc
00000190: e224 933d 116f 113d bb87 193c bfb8 b63d
000001a0: e4a0 143d b3aa 0f3d ae41 1dbc b00b b4bc
000001b0: b298 adbc d5a5 3d3d eb56 383d 7fd5 c63c
000001c0: 34de 073d 1495 a4bd f5ae 62bd 8294 093d
000001d0: e33f 21bf 3b5f 823d 458f 2b3d 29be 21bc
000001e0: 1f56 3abd e0ef 293c d8dd 073d 4f8a b1bc
000001f0: cc96 11bd e97f 8d3d 1c5d 1ebd 412d b43d
00000200: 5624 c33d 6c34 87bd 8a84 3cbc 234d 333c
00000210: e0a5 13bd 6527 45bd 5b88 8abe 8d3a a23c
00000220: b093 dbba 3c29 693b 6733 7ebd b261 c9ba
00000230: 10a1 953d 2f36 873c 3b60 413d dea3 85bc
00000240: 4b30 71bc 3cd1 923d 9eeb 83bd ce27 11bc
00000250: 9fac 76bd ad92 1d3d 1a1b 873d 56bd 5ebd
00000260: 9aa4 b93c dd41 073c fbb0 49bc 11df 55bd
00000270: b91e 5a3d 5297 3c3d 2990 b2bc 53ed 2d3d
00000280: 1f31 133d 52c4 5e3d a857 823d 99d9 793d
00000290: 5a6c debc 30ce 193c ecf3 95bb d0b4 00bd
000002a0: 6ddb a8bb 7c5e 303d a98e c7bc 12c4 203d
000002b0: 3845 853d 1b4e e9bc 0cdb 433d 4ce5 9bbc
000002c0: b7b5 dbbc 2c56 5cbd bbea 913d 90f0 f13b
000002d0: 2869 e93d f841 683d 3406 a03d 0852 cf3c
000002e0: ded8 8e3c 8965 9c3d 876b f0bb d0eb 5ebc
000002f0: e2e2 79bd 38d8 96bd a689 29bd 458e 7b3d
00000300: 34dc 003d 501a 943d e9f0 8fbb 31d4 5f3d
00000310: 6f0f c13c ae78 3b3d 25ba 1ebd d5ec 3b3d
00000320: 560c 2f3d 5e0d a03d fad7 a53c a2db 293d
00000330: 4d82 273d 4469 003d abdd 89be c8f2 08bc
00000340: c172 5abd 56cb 563c ee40 f1bc f036 c0bd
00000350: 75a8 733d e832 afbc 7729 833c bf53 5dbd
00000360: e868 24bd 4cdf 093d eb29 c33a 128c 2f3d
00000370: dfec 0b3d 9900 d03d d14c 573c 2fcc 6b3d
00000380: a48b 563d 75bd b63f 8098 28bc a69d 423d
00000390: 8a03 2bbb 47d2 90ba 1f6d 5dbd 9d95 843d
000003a0: a277 ea3c 1f55 6a3d 3127 24bd 9a18 79bb
000003b0: c09a bd3c 6bfe 383c 90a2 bd3c c94c 10bd
000003c0: 43f1 59bd d91b 163c ed9b 8e3a cf8b 01be
000003d0: 4ae5 9a3b d5ea 7c3d fde5 58bd 1496 18be
000003e0: 2b13 7a3e 0fcc c53d 9f66 22bd d127 a83e
000003f0: 1063 cc3c eda9 c2bc accd e93c 6faa 043d

layers.3.bias f4 [192]
0.11358737 0.06431437 -0.16125426 -0.022228166 0.09568439 -0.0567245 -0.049186625 0.15584627
0.13451426 0.054319896 0.048447248 0.066694744 0.13374816 0.10286596 -0.08240292 -0.006300335
0.072755985 0.17923763 0.09226562 -0.006041615 -0.04283918 0.209401 -0.094193585 0.11879777
0.10045489 0.019510405 0.023238972 0.12453171 0.07613002 0.0068735774 -0.06448558 0.06855135
0.044484414 -0.08222949 0.1745675 0.13841219 0.08063045 -0.051415823 0.06384784 -0.07694978
-0.035933543 -0.06293334 0.029105714 -0.009893268 -0.053029224 0.13787134 -0.07006623 0.063160196
0.1244042 0.008377134 0.12645061 0.06381199 -0.029906916 -0.044320423 0.031699892 -0.028205808
0.012260474 0.083736256 0.09091291 0.18922597 0.029259121 0.013367513 0.027316796 0.031888254
0.089901276 0.16249734 0.040743068 0.050563466 -0.135264 -0.012117229 -0.10318022 0.056448743
0.12423867 -0.06917017 0.13753682 0.22219667 -0.112281725 -0.038734164 -0.031950608 0.13384877
-0.07759021 -0.020148186 0.00090588816 0.11909556 0.040184025 0.047121376 -0.0013428347 0.06894164
0.05031853 -0.045978498 0.0899247 -0.0822559 0.085744455 0.028368296 0.025428688 0.03836767
-0.092595086 -0.0027094043 0.07846343 -0.05014298 0.22775978 0.119758956 -0.034740865 0.059341673
0.016241921 0.015742723 -0.045820475 -0.020904236 0.015037949 0.13480704 0.040754654 -0.005791584
0.108088 -0.025630794 0.11679408 0.19396666 0.058205817 0.0075320657 -0.047653385 0.14625861
0.031632584 0.03309022 0.16317627 0.18184862 -0.04416152 0.016977822 -0.020595502 0.111027695
0.085484 -0.066450655 0.048589077 -0.066171356 -0.06760913 -0.15200828 -0.032315373 -0.013299874
-0.00086375437 0.14565444 0.016559742 0.0527369 -0.03823572 -0.069027536 -0.02533478 -0.04127474
-0.08972705 -0.07458639 0.003081055 0.08514528 0.041832417 0.22420305 0.10421822 -0.04633313
0.025143418 0.14079045 0.004936488 -0.073365 0.08867745 -0.06622729 -0.026166152 -0.024342932
-0.044858854 -0.053451322 0.05989426 0.053279318 0.046544317 -0.013807761 0.03857527 0.12516569
-0.030630266 0.040351335 0.02629286 -0.059116863 0.06132889 -0.06934152 0.037205383 -0.016166091
0.0061627226 -0.0023719852 0.027172871 0.1150105 -0.07995619 -0.013667214 -0.069215626 0.047892164
-0.031117648 -0.079140045 -0.05548079 -0.016911479 0.034526423 -0.04886099 0.09628535 0.0819411
00000000: 7fa0 e83d 41b7 833d d61f 25be d817 b6bc
00000010: 2df6 c33d f357 68bd ea77 49bd 2a96 1f3e
00000020: 1bbe 093e 8a7e 5e3d 9f70 463d 4197 883d
00000030: 47f5 083e 63ab d23d ddc2 a8bd 0a73 cebb
00000040: 1701 953d 128a 373e c2f5 bc3d bdf8 c5bb
00000050: 2378 2fbd 376d 563e 91e8 c0bd 3f4c f33d
00000060: 4bbb cd3d 49d4 9f3c a85f be3c 7b0a ff3d
00000070: 0eea 9b3d bf3b e13b 0411 84bd a664 8c3d
00000080: 4a35 363d ef67 a8bd d3c1 323e edbb 0d3e
00000090: 9421 a53d 6699 52bd a8c2 823d d997 9dbd
000000a0: 0d2f 13bd 32e3 80bd 1b6f ee3c 6017 22bc
000000b0: 2c35 59bd 252e 0d3e e27e 8fbd 225a 813d
000000c0: a1c7 fe3d 3f40 093c 457c 013e dcaf 823d
000000d0: 59ff f4bc 5589 35bd bfd7 013d de0f e7bc
000000e0: 28e0 483c ea7d ab3d 8c30 ba3d 74c4 413e
000000f0: d3b0 ef3c 6a03 5b3c 79c7 df3c 429d 023d
00000100: 291e b83d b465 263e 34e2 263d a31b 4f3d
00000110: a582 0abe 5887 46bc 2750 d3bd cc36 673d
00000120: d870 fe3d 17a9 8dbd 74d6 0c3e 8687 633e
00000130: f6f3 e5bd b7a7 1ebd a4de 02bd a70f 093e
00000140: 9ee7 9ebd cf0d a5bc 2079 6d3a 5fe8 f33d
00000150: 0198 243d 5802 413d 0e02 b0ba 4631 8d3d
00000160: ce1a 4e3d f353 3cbd 712a b83d c875 a8bd
00000170: ca9a af3d a164 e83c d34f d03c 6b27 1d3d
00000180: 7ea2 bdbd 4390 31bb 6fb1 a03d ba62 4dbd
00000190: dc39 693e 2f44 f53d 704c 0ebd 4110 733d
000001a0: c70d 853c e2f6 803c 40ae 3bbd 5c3f abbc
000001b0: bb61 763c db0a 0a3e 5aee 263d 54c7 bdbb
000001c0: 3e5d dd3d acf7 d1bc bc31 ef3d 329f 463e
000001d0: 3969 6e3d 8ccf f63b 3230 43bd d1c4 153e
000001e0: 2b91 013d 9c89 073d ae17 273e 8636 3a3e
000001f0: b6e2 34bd 1315 8b3c e6b7 a8bc 7d62 e33d
00000200: 3c12 af3d 4817 88bd 5705 473d d984 87bd
00000210: a876 8abd 0fa8 1bbe 205d 04bd b7e7 59bc
00000220: 936d 62ba 7026 153e 4ca8 873c a602 583d
00000230: 0f9d 1cbd 4f5e 8dbd e28a cfbc b40f 29bd
00000240: d1c2 b7bd c0c0 98bd 86eb 493b a660 ae3d
00000250: 7858 2b3d 7c95 653e 5d70 d53d cfc7 3dbd
00000260: 92f9 cd3c 5f2b 103e 43c2 a13b 6440 96bd
00000270: 869c b53d 2ca2 87bd 665a d6bc d46a c7bc
00000280: ebbd 37bd c6ef 5abd af53 753d 6a3b 5a3d
00000290: 41a5 3e3d f239 62bc 1a01 1e3d 6f2b 003e
000002a0: 53ec fabc 7147 253d 2064 d73c 8624 72bd
000002b0: 0134 7b3d ed02 8ebd ac64 183d c06e 84bc
000002c0: aaf0 c93b 4f73 1bbb a499 de3c a08a eb3d
000002d0: 12c0 a3bd 73ec 5fbc ecc0 8dbd 932a 443d
000002e0: 70ea febc 2d14 a2bd d33f 63bd f189 8abc
000002f0: 946b 0d3d 7622 48bd 4131 c53d bcd0 a73d
